runs/AntRandom-v5_td3_2_state_1752971378/best_policy.pt (torch, 384069 bytes, 6 tensors)

weight f4 [256, 105]
000000 40 8c f0 bf 4b 14 29 bf e5 83 e0 40 72 d9 79 c0
       -1.8792801 -0.6604659 7.0161004 -3.9038968
000010 df 8c 30 40 1a c5 6d be 8a e8 fa 3e 4a 39 16 bf
       2.758598 -0.2321972 0.49005538 -0.58681166
000020 12 d8 3e be cb ce 0f c0 d8 b1 de 3e a9 e4 9a 3e
       -0.18637112 -2.2469966 0.4349506 0.3025258
000030 95 3b 3e bd 81 77 30 be 49 fb 80 be ad 02 4c bf
       -0.04644354 -0.17233087 -0.25191715 -0.7969158
000040 fe c0 93 3f 99 36 45 bf 3c 72 a2 bd bb e4 05 3d
       1.1543272 -0.77036434 -0.07931945 0.032688837
000050 88 e7 14 be e6 ff 3c bd d2 da ec bc fe ab 8b bd
       -0.14541447 -0.04614248 -0.028912935 -0.06819914
000060 29 4d f9 bd b8 28 77 3b 8c 18 8f bc f7 34 f6 3f
       -0.1217292 0.003771348 -0.01746776 1.9234914
000070 07 7b 06 40 29 1f 7e 3f 1e 01 44 3f f4 60 8b bf
       2.101259 0.99266297 0.76564205 -1.0888963
000080 15 4b 8f 3f 82 24 6a 3d 50 9e 13 bb a2 25 54 bd
       1.1194788 0.057163723 -0.0022524782 -0.051793702
000090 2b bc 12 3d 0c 5e 36 bd 71 ed ea bc 57 52 73 3f
       0.035823982 -0.044523284 -0.028677674 0.95047516
0000a0 ba 40 c0 bd 93 07 e1 3f cf 3a 66 bf 9d 76 b5 bf
       -0.093873456 1.7580436 -0.89933485 -1.4176823
0000b0 f1 08 27 bf 0d a6 29 bf ea 73 fd 3d 07 a9 c6 3e
       -0.6524802 -0.66269 0.123756245 0.38800833
0000c0 a2 eb 7a bd a3 fa 1f be a4 0c 68 bf 74 93 6f 3d
       -0.061259873 -0.15622954 -0.9064429 0.05849023
0000d0 3c 10 81 3d 1b c5 4a 3d 54 bf fc bc 40 d4 3a bc
       0.063019246 0.04950438 -0.030852951 -0.011403143
0000e0 7a 4a dc bc 8e 02 4a be 8d 6f 7d 3f ae 39 9e 3c
       -0.026890982 -0.19727537 0.9899834 0.019314613
0000f0 37 87 93 3d b1 6c 4a 3e 5d 86 3c 3f da 03 5a 3e
       0.072035246 0.19768025 0.7364252 0.21290532
000100 e7 78 81 be 4b d4 73 3d 42 f3 4e be 8c f7 00 bd
       -0.25287554 0.05952863 -0.20209983 -0.03148608
000110 46 8e ff 3d df fe 25 3d c2 8a c4 bd 1b a6 9f 3d
       0.124783084 0.040526267 -0.095967785 0.07795354
000120 37 e5 91 bd 2f e9 c2 3c 13 33 30 bc 1d 86 9d 3f
       -0.071237974 0.023792831 -0.010754365 1.2306553
000130 3a 2a 52 3f 6f f1 ff 3d 37 8e cb 3f d6 c4 1e bf
       0.8209568 0.12497222 1.5902776 -0.620191
000140 c7 fe 90 bd 8f c8 2a be 84 a6 35 be 09 ca b1 3e
       -0.07079845 -0.1667807 -0.17739302 0.34724453
000150 63 bf fd bd 06 9e f6 bd bd ea f5 3e 86 de 0f 3d
       -0.1239002 -0.12041859 0.48030654 0.035124324
000160 38 d1 8a bd 96 39 70 bd 67 ec 86 bc 39 d1 9a bd
       -0.067781866 -0.05864867 -0.016470147 -0.07559437
000170 85 bf 58 3d 1f 62 b1 bf 97 2e 1a c0 f5 fa 26 c0
       0.052917022 -1.3858069 -2.4090936 -2.6090672
000180 4b 45 00 bf 1b 86 f9 be 1d 83 2f 3f 83 57 2e bb
       -0.5010573 -0.48735127 0.6855944 -0.0026602454
000190 b6 bd 80 bf c8 b1 10 be 8f 6c 38 3e 01 1c 5b be
       -1.0057895 -0.14130318 0.18010162 -0.21397401
0001a0 78 5a a6 be ff 4b 48 40 dd 7f 29 bf 15 01 b3 40
       -0.32490897 3.1296384 -0.6621073 5.593882
0001b0 04 e7 4d 40 bc f2 1f 40 88 13 fa bd c0 d1 e5 bf
       3.217225 2.4991903 -0.122107565 -1.7954636
0001c0 85 29 33 be 59 8c 7a 3e d0 77 93 3e a5 17 61 3f
       -0.17496307 0.24467601 0.28802347 0.87926704
0001d0 49 fc 5c 3f ee ae 9d 3f c3 54 6b 3e a3 b9 94 be
       0.86322457 1.2319009 0.22981553 -0.2904788
0001e0 8f a8 e9 3c f1 7a 03 3f 38 14 f7 3e 1d 20 ff bd
       0.028522758 0.5135947 0.48257613 -0.12457297
0001f0 ca a6 78 3a 32 14 b7 bd 26 1e 6c bd 27 03 1a 3e
       0.0009485303 -0.08939399 -0.05764594 0.15040265
000200 07 2a 71 bd 78 c8 39 3d 06 8a d5 bb 83 9c 94 3d
       -0.05887797 0.045357198 -0.006516698 0.07256415
000210 7c 80 02 3f ca 85 ff 3f 1e d6 c4 3e c9 89 80 3f
       0.509773 1.9962704 0.38444608 1.0042049
000220 82 2a f7 bd 87 32 ae c0 57 9a 4c be d5 b8 9a be
       -0.120686546 -5.443668 -0.19980751 -0.3021914
000230 75 82 c6 be 26 79 9e be b4 a2 6c be 61 e2 7f be
       -0.38771406 -0.30951804 -0.23108941 -0.249887
000240 d4 f1 5c 3e 3a 9b 86 3f 3d 44 de bf 17 65 46 3f
       0.21576625 1.0516121 -1.7364575 0.77498
000250 63 f5 24 c0 19 64 8d be 50 36 47 be e0 a7 07 bd
       -2.5774772 -0.2761543 -0.19454312 -0.033119082
000260 11 ef a0 bd 24 58 c2 bd 09 1c 96 bd d0 88 c7 be
       -0.07858098 -0.09489468 -0.07329566 -0.38971567
000270 87 5b bb be a8 dc 95 be 2a 43 51 be 26 10 85 be
       -0.36593267 -0.2926991 -0.20435777 -0.25988883
000280 71 31 b8 be 3e fa 68 be f0 17 cb 3f c5 44 82 3e
       -0.3597522 -0.2275171 1.586668 0.25443092
000290 79 cc 88 be b7 b1 f3 be 6b 9d a3 3d 4c 5d c9 bf
       -0.267185 -0.47596523 0.079890095 -1.5731597
0002a0 26 d0 56 3e 9d 03 8a be 8b 71 03 3d f5 62 b7 bd
       0.2097784 -0.26955882 0.032090705 -0.089544214
0002b0 6a 7b dc 3d 16 a0 c9 3e 54 e3 c3 be 47 61 97 be
       0.10765727 0.39379948 -0.38259375 -0.29566404
0002c0 92 68 c2 be 7d 04 94 be c4 cf 63 be f5 a0 81 be
       -0.37970406 -0.28909674 -0.22247225 -0.25318113
0002d0 23 e8 55 bf 73 13 50 3f 21 0e 17 bf d1 64 e7 3e
       -0.8355734 0.8127968 -0.59005934 0.45194104
0002e0 f0 7e ac bf 76 eb 1e c0 b1 60 5f be 5f e2 2e 3d
       -1.3476238 -2.4831214 -0.21814229 0.042696353
0002f0 05 f8 ab 3d 83 b9 d0 be 34 24 38 3d 1a 36 e5 be
       0.08396915 -0.40766534 0.0449564 -0.4476784
000300 4f 3e 6d be d0 0e 85 be 64 04 a7 be f8 ec ae be
       -0.231683 -0.25987864 -0.32620537 -0.34165168
000310 91 bf 88 be bb 08 b2 be d2 6e 81 be 28 28 83 3e
       -0.26708654 -0.34772286 -0.25279862 0.25616574
000320 a5 68 16 3f a5 de d9 be ca 42 96 3f be cf bf bf
       0.58753425 -0.42552677 1.1739132 -1.4985273
000330 7e 0b 9f bd 15 85 31 bf 01 7c f9 3d 8a d8 3c 3e
       -0.07765864 -0.6934369 0.12181855 0.18441978
000340 32 ec 93 3c be 4f 54 3e 17 47 c8 bf 9b b2 4b bf
       0.018056963 0.20733544 -1.5646695 -0.79569405
000350 fe 1e 78 bf 5b 62 7c 40 3f 55 86 c0 eb b2 8e 3e
       -0.9692229 3.9435031 -4.197906 0.2787088
000360 a1 86 df bc da 78 1d bf 70 9d f5 bf 18 42 5d 3f
       -0.027285876 -0.6151253 -1.9188671 0.86428976
000370 b4 95 87 3d fb 4b e5 be 42 9f c6 3f 23 db ff 3d
       0.066203505 -0.4478453 1.5517352 0.12492969
000380 61 f4 e6 3e 81 f4 7d 3f e1 dc 18 bf 4c 88 87 3e
       0.4510832 0.9920121 -0.59712034 0.26471174
000390 0e 39 0b be 46 a5 76 bd fc 17 13 3d a0 54 c6 bd
       -0.13595983 -0.06021621 0.035911545 -0.0968411
0003a0 96 99 a3 bd 9e d7 8e 3c ea cc ee 3d 64 66 c7 3c
       -0.079882786 0.017436799 0.11660178 0.024340816
0003b0 82 dd bc 3d a8 ce 49 bf f5 b3 21 40 31 d4 2b bf
       0.09221937 -0.7883096 2.5266087 -0.67120653
0003c0 80 1a 0e 3f 2f 1c d2 bf 2e 79 f5 bf d0 37 33 3e
       0.55509186 -1.6414851 -1.9177606 0.1750176
0003d0 93 dd b3 3e 11 11 9b 3e 35 c4 a4 3e da ec 9e 3e
       0.35129985 0.30286458 0.32180944 0.31040078
0003e0 c0 22 6c 3e 85 fc c5 bf 7c 40 f0 bb 47 2f cb 3c
       0.23060131 -1.5467688 -0.007331906 0.024802817
0003f0 f4 ca 1c 40 da ad 0b bf d4 11 5d be 62 4a ec bd
       2.4498873 -0.5456215 -0.21588832 -0.11537625

bias f4 [256]
000000 78 e4 f8 be 59 ef cc bf de 53 d3 bf e4 de 7a bf
       -0.48611808 -1.6010543 -1.6509969 -0.97996354
000010 43 db 32 bf ee 21 04 bf 70 38 5d be 3b 8c f6 bf
       -0.69865817 -0.5161427 -0.2160356 -1.9261545
000020 a0 28 6a 3f ff 83 df bf 13 22 29 bf 23 60 4e 3f
       0.9146824 -1.7462157 -0.6606762 0.80615443
000030 48 30 49 be 2f 47 48 c0 36 b5 31 bf 52 74 1d 3f
       -0.19647324 -3.1293447 -0.6941713 0.61505616
000040 8c af 0d c0 ca 8f c1 bf e2 3d 45 be 6b 33 e0 3d
       -2.2138395 -1.5122006 -0.19261888 0.10947307
000050 4d 2e 98 3e 9b fc 26 c0 e2 62 d1 bf 40 8e dd be
       0.29722825 -2.6091678 -1.6358302 -0.4327259
000060 97 bc 36 bf f7 03 8d bf 0b 7e 92 3f 35 76 ca bf
       -0.71381515 -1.1016835 1.1444715 -1.5817324
000070 b3 2f 89 be 23 3e 78 bf bb 36 90 3f dd 15 91 be
       -0.26794204 -0.96969813 1.1266702 -0.28336993
000080 c3 a0 1e bf f8 3b a3 3f 4d 21 d6 bf b0 bc b3 be
       -0.6196405 1.2752676 -1.6728913 -0.35104895
000090 22 c2 d0 be 45 f3 82 3e 36 b4 42 bf d5 f3 98 be
       -0.40773112 0.25576225 -0.7605623 -0.2987353
0000a0 18 3e 61 bf 5a b6 ab bf c5 46 02 c0 c0 1d 37 bf
       -0.8798537 -1.3415024 -2.0355694 -0.7152977
0000b0 d2 94 82 bf 6b 7c 42 bf f5 71 05 3f ec dc 89 3e
       -1.0201666 -0.75971097 0.5212701 0.26926363
0000c0 08 62 7e bf ef af 4b bd bb c8 a3 bf 86 c5 88 3f
       -0.99368334 -0.04972833 -1.2795633 1.0685279
0000d0 ac 64 88 bf 28 ae 83 be af 4d 94 bf 3c 0f 31 bf
       -1.0655723 -0.25718808 -1.1586207 -0.6916387
0000e0 2c 90 fa 3e ab 9f 19 bf b9 c8 e5 bf 6d 72 82 bf
       0.4893812 -0.6000926 -1.7951881 -1.019117
0000f0 43 32 6f bf 17 23 80 bf db 11 af bf 1c cf 81 bf
       -0.9343607 -1.0010709 -1.3677324 -1.014133
000100 10 f4 0c bf fc 54 af be 0d 26 3c bf d8 2f 38 bf
       -0.5505991 -0.34244525 -0.7349556 -0.71948004
000110 19 6f 5e bf 73 57 11 c0 54 7d 50 bf 04 1e 90 bf
       -0.8688827 -2.2709625 -0.81441236 -1.125916
000120 2c 41 b9 be 4f e8 34 bf 32 22 00 bf 90 08 04 bf
       -0.36182535 -0.70666975 -0.5005218 -0.51575565
000130 a6 f8 73 3e 7b c5 30 bd fd d6 95 be e7 ab 98 be
       0.2382532 -0.043157082 -0.29265586 -0.2981865
000140 3b 25 3a 3f df 39 a3 bf 77 4b 22 bf ee c7 25 bf
       0.7271306 -1.2752036 -0.633964 -0.64758193
000150 6d cd 76 3e 9c 4d 2e bf 1e f3 e3 3d 17 1a d1 be
       0.24101801 -0.6808717 0.11130355 -0.40840217
000160 48 de 01 c0 81 13 85 bf e1 7d 23 bf 45 58 35 c0
       -2.029192 -1.0396577 -0.6386395 -2.8335125
000170 d1 ae 8b bf e5 c7 59 bf e7 0e d4 be 12 93 5c 3f
       -1.0912725 -0.8507064 -0.4141762 0.8616191
000180 3a ff a1 bf 05 34 e1 3d c3 ef c0 3e 4e ef 0c bf
       -1.2656014 0.1099625 0.37682924 -0.5505265
000190 10 98 01 bf 45 b8 82 3e 32 e5 b8 bf 44 9a f5 bf
       -0.50622654 0.25531211 -1.4444945 -1.9187703
0001a0 ca cc c4 bf 8d ed 46 bf 09 59 84 be 11 1d 3e bf
       -1.5374997 -0.77706224 -0.25849178 -0.742631
0001b0 f0 cd aa be 55 83 87 bf 7e 29 f3 bd 7d e9 af 3c
       -0.33360243 -1.0586954 -0.118731484 0.02147364
0001c0 db 2e bf bc 60 7a ec 3d f8 ed 35 bf de 9c 5a bf
       -0.023337772 0.11546779 -0.71066236 -0.8539561
0001d0 8f ff c7 bf 94 04 cf bf 6e 36 d6 bf 61 0b df 3e
       -1.5624865 -1.6173272 -1.6735361 0.4356337
0001e0 22 5f ca bf 50 d6 78 3e e9 ea 97 bf e5 49 ae be
       -1.5810282 0.24300504 -1.1868564 -0.34040752
0001f0 db 8d 64 bf c7 66 53 bf 2b b6 b1 bf 96 9e ae bf
       -0.89278954 -0.825787 -1.3883718 -1.3642147
000200 6a af ad bd 0b 06 86 bf 87 e2 57 c0 a2 a4 6e bf
       -0.08480723 -1.0470594 -3.3732011 -0.9321996
000210 ab b5 a7 bf 80 74 6f 3e 84 74 1e c0 cd e3 08 bf
       -1.3102316 0.23384285 -2.4758615 -0.53472596
000220 2d 19 53 3f 2a 73 f2 3e ad 02 23 bf fb 28 5d 3f
       0.8246029 0.47353488 -0.6367596 0.86390656
000230 56 7b 7d 3b 49 28 c5 39 fe 77 f5 bf 60 3a a4 bf
       0.003867825 0.00037604783 -1.9177244 -1.2830315
000240 91 99 87 bf e3 9f 4d bf dc ab 92 bd 65 8e bc bd
       -1.059374 -0.8032209 -0.07161686 -0.09206847
000250 04 1f 92 be 8c 3c 5b bf 5b da 27 c0 ed f0 da bf
       -0.28539288 -0.8563926 -2.6227024 -1.7104775
000260 16 e7 95 be 43 8e 6a bf 6f 95 84 bf a7 62 ba bf
       -0.29277867 -0.91623324 -1.0358104 -1.4561356
000270 37 b3 91 bf 69 f4 33 3b 6f 30 03 bf a2 5d e1 bf
       -1.1382817 0.0027458912 -0.5124578 -1.76067
000280 ad d6 13 be c7 91 03 bf db 2e 97 3f 5a 3a a2 bf
       -0.14437361 -0.51394314 1.1811174 -1.2674057
000290 bf 0e 26 be 0b b9 3d bf 67 69 39 bf 02 04 82 3e
       -0.16216563 -0.7411048 -0.72426456 0.25393683
0002a0 90 c9 11 3f c8 4a e3 be 95 74 80 bf 13 ef a4 bf
       0.56948185 -0.4439299 -1.0035578 -1.288546
0002b0 e0 58 09 bf 27 0a 55 bf 6f 37 0d bf 20 28 44 be
       -0.5365124 -0.83218616 -0.5516271 -0.19155931
0002c0 bd f7 35 c0 91 e2 6a bf 46 9b 91 bf 29 3d 38 be
       -2.8432457 -0.9175196 -1.1375511 -0.17992081
0002d0 eb f9 c8 bf 39 3a cf 3e 13 eb 0c c0 3a c2 ce bf
       -1.5701269 0.40474108 -2.2018478 -1.6153023
0002e0 aa 56 d3 be 69 59 e4 bf 75 32 98 bf 5a 03 8a bf
       -0.41277057 -1.7839786 -1.1890398 -1.0782273
0002f0 63 d3 94 be c8 9c 8e bf 96 16 f6 be b3 4a be bf
       -0.29067525 -1.1141596 -0.48064107 -1.4866546
000300 30 bb aa 3f 80 c1 c2 be 64 9a dd be fd 1c e1 bf
       1.3338375 -0.38038254 -0.43281853 -1.7586972
000310 d6 be ad bf 91 f3 27 c0 89 b1 52 bf 99 30 0c bf
       -1.3573864 -2.624241 -0.8230215 -0.54761654
000320 cd 13 54 bf ca 67 6c bf 64 ce 3f bf 8f f7 d8 bf
       -0.82842714 -0.9234587 -0.749243 -1.6950549
000330 db 2e c5 bf 53 fa 6a be 95 92 80 bc b8 64 5d bf
       -1.5404924 -0.22947054 -0.015694896 -0.8648181
000340 50 92 4e 3d 1b 76 86 bf 0b fb 35 3e 6c df cc bf
       0.050432503 -1.0504793 0.17771547 -1.6005683
000350 c3 be 7b bf 1e 89 62 bf 4c 03 45 bf c2 07 ce bc
       -0.98337954 -0.88490474 -0.76958156 -0.025150184
000360 98 cd 3f be 3b d5 40 bf 3d fb dc 3f 50 6d 1e 3f
       -0.18730772 -0.75325364 1.7264172 0.6188555
000370 c9 51 36 bf 17 34 36 bf 58 14 a9 bf 27 d9 39 3f
       -0.71218544 -0.7117323 -1.3209333 0.72596973
000380 e7 a0 91 bf 26 73 1d bf 7e f4 d3 bf 26 75 f5 bf
       -1.1377228 -0.6150383 -1.6558988 -1.9176376
000390 da d4 bf bc a3 84 a2 bf 44 5a 1f c0 bf 66 95 bf
       -0.023416925 -1.2696728 -2.4898844 -1.1671981
0003a0 9d c4 8b bf 9a 63 4c bf 38 c4 3f bf e2 e3 3b 3f
       -1.0919377 -0.7983948 -0.7490878 0.73394597
0003b0 f2 6b 83 be af b1 58 3e f2 d9 3e 3e ec 37 27 c0
       -0.25668293 0.21161531 0.18637827 -2.6127882
0003c0 4c c2 d8 bf a6 31 d9 3d c3 2d b8 be dc 2a 31 3f
       -1.6934295 0.10605173 -0.35972413 0.69206023
0003d0 9c 12 b6 bf 29 01 03 c0 50 f6 48 bf 22 23 53 bf
       -1.4224429 -2.0469458 -0.78500843 -0.82475483
0003e0 bd a0 31 bf f7 99 5c bf 72 70 1d 3f c6 19 05 c0
       -0.6938589 -0.8617243 0.614997 -2.079698
0003f0 d3 cf f6 be bb 39 ef bf de a6 99 3f 6a cc 8a bf
       -0.48205432 -1.8689493 1.2004049 -1.0843632

weight f4 [256, 256]
000000 7b 07 e6 bf 88 73 87 3f bb 60 ac 3e fb 39 99 be
       -1.7971033 1.0582132 0.3366755 -0.29927048
000010 4c c8 c7 3e 73 51 99 be 29 c5 fa be 38 8d 31 3c
       0.39020002 -0.29944953 -0.48978546 0.010836892
000020 2a 08 bb bf e6 ef e9 bd f9 a6 33 bf 36 b1 58 3e
       -1.4611866 -0.1142271 -0.70176655 0.2116135
000030 09 83 ab bf 0a b5 9c bf 47 22 53 bf e9 f4 ac bf
       -1.3399364 -1.2242749 -0.8247418 -1.3512241
000040 be a4 18 bf 79 2c e4 be ac 9b 6d 3d 7f 14 ba be
       -0.59626377 -0.4456518 0.05800979 -0.36343762
000050 60 94 26 c0 e2 1d 52 bf 84 4a cb 3e e4 b6 c9 be
       -2.602806 -0.8207685 0.39705288 -0.39397347
000060 29 9b d2 be 2b 34 07 bf 31 9e 0e 3d 02 9e ab 3e
       -0.41134003 -0.52813977 0.03481883 0.33518988
000070 65 4d 02 3e 85 ac ac be 0c 4c 6b 3d 9a 43 c9 bd
       0.12724836 -0.33725372 0.05744557 -0.09827347
000080 c3 b8 9b bf ff 1e 1b bf 04 02 11 3e 7d 0b bc 3e
       -1.216576 -0.6059417 0.14160925 0.36727515
000090 60 39 8b bf 0d 43 9e be 21 57 1e 3e e2 64 6b bf
       -1.0876884 -0.3091053 0.15462925 -0.9195081
0000a0 64 51 0c 3c ed a5 29 3d 6f 45 e3 be df 35 66 bf
       0.008564327 0.041418005 -0.4438891 -0.8992595
0000b0 34 47 91 3e 37 d2 e3 bf 45 8e 24 3c b6 8a 17 3f
       0.28374636 -1.7798527 0.010043685 0.5919603
0000c0 1e 02 0b 3e ae bf 26 be 06 0d 6b bf d1 1e 77 be
       0.13575026 -0.16284057 -0.9181675 -0.2413285
0000d0 5f e9 70 bf 9b fd fa 3e df 90 5e bf 25 75 d5 be
       -0.94106096 0.4902161 -0.86939806 -0.41690937
0000e0 79 97 a8 be 75 c2 dc be f6 f2 88 3e 6f 25 f2 be
       -0.32928064 -0.4311711 0.26747864 -0.47294185
0000f0 d0 ea 9e bf 52 4f 3b 3f ca 9a c4 3e e9 5e 39 bf
       -1.2415409 0.7316791 0.38399345 -0.72410446
000100 07 a0 0c bf 51 82 a3 bf 92 60 6f bf 60 0e 01 bf
       -0.5493168 -1.2774144 -0.9350673 -0.5041256
000110 6a e7 5d be 52 44 7d bf e9 5f 8d bf 2a 0e da be
       -0.21670309 -0.98932374 -1.1044894 -0.4258893
000120 1f 91 a9 3e e0 ab 8a bf cb 93 10 bf 5f 1a d4 3d
       0.3311853 -1.0833702 -0.56475514 0.103565924
000130 ca b8 9d 38 46 aa 2f c0 26 95 fe be 17 89 43 bf
       7.520763e-05 -2.7447677 -0.49723166 -0.7638106
000140 59 b8 82 bf fd 76 15 bf 0e 13 03 be 06 1f 58 bf
       -1.0212508 -0.58384687 -0.12800238 -0.8442234
000150 b7 b0 3b 3e f8 d4 54 bf 09 ac 38 bf 3b 63 e3 3e
       0.1832913 -0.83137465 -0.72137505 0.44411644
000160 df fd 88 bf 57 4f c0 be 88 a9 ec bd c6 e1 22 3f
       -1.0702475 -0.37560531 -0.11555773 0.6362575
000170 66 fb 40 bf 4a 9d c2 be 94 9e a9 bf 19 4a aa be
       -0.75383604 -0.38010627 -1.3251519 -0.33259657
000180 64 2a 7a bf ff 24 a6 bf 7a b2 12 bd fb b1 09 c0
       -0.9772093 -1.298004 -0.03581474 -2.151488
000190 b8 57 6e bf de df b2 3e 8e d4 1f bd bb ba 16 bf
       -0.931026 0.34936422 -0.039021067 -0.5887868
0001a0 2a d5 9f be 73 e2 00 bf a2 c2 cd be fb 8d a1 bd
       -0.3121732 -0.50345534 -0.40187556 -0.07888409
0001b0 b4 3f 32 bf 58 eb 45 bf f7 b9 62 3d f9 e6 44 bf
       -0.69628453 -0.7731223 0.05535313 -0.76914936
0001c0 ce 0b 96 3e ee 61 e7 bf c9 7a 55 be 8f 5f 39 bf
       0.2930588 -1.8076761 -0.2084762 -0.72411436
0001d0 1e f9 93 bf f3 78 2f bf 81 cd 6b bf 7d 0b 50 c0
       -1.15604 -0.6854393 -0.9211045 -3.2507012
0001e0 da 4e b6 be 51 93 5f bf f2 1a 10 bd f9 b3 4b 3f
       -0.35607034 -0.8733416 -0.035181947 0.7957149
0001f0 14 2d 2e 3d 2b 49 46 bf 35 53 7f bf ba 53 57 bf
       0.04252346 -0.77455395 -0.9973634 -0.8411213
000200 43 bf dc 3e 09 d1 0f 3e 76 cb a2 be 96 0c 2d bf
       0.4311467 0.14044584 -0.31795853 -0.6759733
000210 89 fc 14 3e 7c be 28 bf 0e 54 44 bf 28 32 cb 3d
       0.1454946 -0.65915656 -0.7669076 0.09921676
000220 00 77 81 3c 88 21 1e bf f1 0c 05 bf 41 90 4d bf
       0.015803814 -0.61769915 -0.5197287 -0.8029824
000230 84 05 6e bd 10 74 8c bf 3b f7 78 bf d9 f3 81 bf
       -0.05811073 -1.097292 -0.97252244 -1.0152541
000240 f0 08 39 be b7 1c 4c bf d2 28 45 3f 22 8f ae bf
       -0.18069816 -0.79731315 0.7701541 -1.3637431
000250 1c 83 20 bf 26 30 8d bf e3 ea 48 bf 4a aa 0e 3f
       -0.6270006 -1.1030319 -0.7848341 0.5572859
000260 a0 06 2c be 1b 39 1f bf 32 66 d6 be 88 e9 2f bf
       -0.16799402 -0.6219651 -0.41874844 -0.68715715
000270 ef 23 74 bf 19 c9 bb 3e 73 5e 33 3e 03 4b 11 bf
       -0.9536733 0.36676863 0.17516498 -0.56755084
000280 b4 e8 01 3e 26 09 e3 be 9e d4 ce be 41 e0 28 3d
       0.12686425 -0.44342917 -0.4039659 0.04122949
000290 40 0a 39 bf 5a d9 ff 3d 97 c0 b8 bc 2e 37 c1 bf
       -0.72281265 0.124926284 -0.022552771 -1.5094965
0002a0 0e 4b 80 bf bc 18 e9 be 0a 4f 3a 3f fa c0 8e 3e
       -1.0022905 -0.45526683 0.72776854 0.27881604
0002b0 03 8d 12 bf 39 b4 08 bf ad c5 37 bf 25 6b 95 be
       -0.57246417 -0.534 -0.71786004 -0.29183307
0002c0 35 5f 19 be dd 7d 88 bc 76 96 73 be 47 22 98 bf
       -0.14977725 -0.016661579 -0.23787865 -1.1885461
0002d0 a0 75 c8 3e 54 81 a1 bf 32 8e b7 be 22 16 fb 3e
       0.3915224 -1.2617593 -0.35850674 0.49040323
0002e0 52 7c 51 3e d4 58 34 bf d9 76 f2 be ee e1 c3 3e
       0.2045758 -0.7044804 -0.473563 0.38258308
0002f0 79 a2 be bf 4b 64 3f bf 1a e7 1b ba ab a5 38 bf
       -1.4893333 -0.7476241 -0.00059472176 -0.7212779
000300 6f ae 0b bf 39 60 3a be d2 1b 4a bf fb 13 85 bf
       -0.5456304 -0.18200769 -0.789487 -1.0396723
000310 14 57 70 3e 4e 44 29 3e 88 55 a3 bf 41 4e 7b be
       0.23470718 0.16529962 -1.2760477 -0.2454157
000320 ae b3 bb be 1e 0f 13 bf e3 e6 4b bf 16 f9 69 3f
       -0.36660522 -0.5744494 -0.7964918 0.913957
000330 d0 f1 70 bc 1f f4 8e bd d9 c9 5f bf 22 a3 7a bf
       -0.01470609 -0.06980156 -0.8741737 -0.9790517
000340 ec 8c 8a bf d6 62 8b bf f0 2a 83 bf cc 85 32 be
       -1.0824256 -1.0889537 -1.0247478 -0.17433852
000350 9a 7f d7 3d 59 bd 46 bf 8c f9 fe 3a 4d 47 0e bf
       0.10522385 -0.7763267 0.0019453033 -0.55577546
000360 69 15 c9 3e e0 49 1b bf 58 c5 86 bf 96 28 db 3e
       0.39274147 -0.606596 -1.0528975 0.42804402
000370 21 47 2b bf 7d f7 e1 be f7 f2 bb bf 34 c3 4d 3e
       -0.6690541 -0.4413413 -1.4683522 0.20093995
000380 93 e8 f5 be ef e1 df 3d 02 90 a0 be c9 d6 8f bf
       -0.48029003 0.10931765 -0.3135987 -1.1237422
000390 9d ba 11 c0 ef 73 d5 be 93 45 5c bc 3d da d5 3e
       -2.277015 -0.41690013 -0.013444322 0.41768065
0003a0 f2 53 ad 3e ea d9 84 3e 94 0a 2e bf 0b 7f 29 3e
       0.33853108 0.25947505 -0.6798489 0.1655237
0003b0 13 4b b7 bf 2c e0 bb 3e 90 e9 9f be ac 5d 35 be
       -1.4319786 0.36694467 -0.31232882 -0.17711514
0003c0 12 18 a4 bf 86 3b 6f bf da a2 0c 3e 5a d4 52 be
       -1.2819846 -0.934502 0.13733998 -0.20588818
0003d0 fe 9e 98 3d be f4 3c be 7d a1 38 bf 3b f7 e8 bf
       0.074522 -0.18452737 -0.7212141 -1.8200449
0003e0 78 a7 7d bf f0 6d 35 3d f8 b9 1a bf 5f 9d aa be
       -0.9908366 0.044294298 -0.60440016 -0.3332319
0003f0 c2 0e 78 3e 36 db 10 bf a8 33 87 bf f3 4f 09 3f
       0.2422438 -0.5658449 -1.0562639 0.5363762

bias f4 [256]
000000 ac 76 33 3f 36 a5 79 3f 2a 1d a5 bf e6 0c bf bf
       0.70102954 0.97517717 -1.2899525 -1.4925811
000010 22 1c 71 bd 05 57 22 3e 29 2f 5a be 21 47 97 bf
       -0.05886472 0.15853508 -0.21307053 -1.1818582
000020 c8 59 39 bf c4 c1 82 bf 56 5b d2 bf 10 3a 31 bf
       -0.7240262 -1.0215383 -1.6434124 -0.6922922
000030 f3 73 ea be d8 5c 16 bd 63 98 1e bf cc db 89 be
       -0.45791587 -0.036709636 -0.61951274 -0.26925504
000040 a6 1a 25 bf cb bb ad bd 6c 06 da be ce a4 8f bf
       -0.6449379 -0.08483084 -0.42583025 -1.1222169
000050 88 22 de 3d 9b 9e 86 3f d2 2f 86 bf ec eb ea bd
       0.1084643 1.0517153 -1.0483344 -0.1147078
000060 a0 32 48 bf 0e 5d 9f bf 63 16 05 40 ba 5e 00 bf
       -0.7820225 -1.2450273 2.0794914 -0.5014454
000070 ed 5d 88 bf d1 85 b1 be f9 a3 fa bc 39 b4 fc bf
       -1.0653664 -0.34672406 -0.030595766 -1.97425
000080 2d c6 e3 be 62 4d 18 bf 8b 35 96 bf 01 92 91 bf
       -0.44487134 -0.59493077 -1.173509 -1.1372682
000090 bf 3b 45 bf 2a 07 83 bf 21 67 e7 3e 25 5c 14 bf
       -0.7704429 -1.0236561 0.4519587 -0.579531
0000a0 3f 37 df be 12 33 bb be e0 3d dd bf 87 bf 84 bf
       -0.43596837 -0.365624 -1.7284508 -1.037095
0000b0 fa d5 de be b5 b9 db be a5 c2 80 bf 7a 5a 5d bf
       -0.43522626 -0.4291512 -1.0059401 -0.8646618
0000c0 87 f8 74 be a2 e9 78 bf df 0b 9c be 86 c5 80 3f
       -0.2392293 -0.97231495 -0.30477807 1.0060279
0000d0 45 6c 1a bf c0 2a 29 bf d2 70 6d 3e 8d 72 d9 bf
       -0.60321456 -0.66080856 0.23187569 -1.6988083
0000e0 66 c0 3e c0 cd a1 21 bf 06 1a e7 be 64 cc 33 3f
       -2.980493 -0.63137513 -0.45137042 0.7023375
0000f0 4e 8e ec 3d 64 f1 22 c0 df f9 30 bf 7d bb 93 bf
       0.1155058 -2.5459833 -0.69131273 -1.1541592
000100 0b 2a 4c bf 5b f5 b6 bd fe b4 c7 bf 35 47 6e bf
       -0.7975165 -0.089335166 -1.560211 -0.93077403
000110 b3 d1 b3 bf 50 33 8b be 3c 4c 1f bf 24 f4 d4 3e
       -1.404837 -0.27187586 -0.622257 0.41592515
000120 10 fd 14 bf 43 47 17 3e a0 7e 20 bf ed ab ba bf
       -0.5819864 0.14773278 -0.62693214 -1.4583718
000130 91 0b 4d bf 08 46 b2 bd 35 fb 15 be d2 43 a9 bf
       -0.80095774 -0.08704764 -0.14646609 -1.3223822
000140 f0 fe 86 bf e9 29 4a 3d 31 86 fc bd 3c c5 89 bf
       -1.0546551 0.049356375 -0.123302825 -1.0763316
000150 bb 17 34 be e1 e0 93 bf d6 3d 1b bf f3 dd 98 be
       -0.17587177 -1.1553003 -0.6064123 -0.29856834
000160 b3 e5 3e be ef 57 68 be a5 8a 81 be 55 a9 20 bf
       -0.18642311 -0.22689794 -0.2530109 -0.6275838
000170 38 b3 8f 3f 12 11 94 bf 6e 8f 09 bf ec cd a2 bf
       1.1226568 -1.156771 -0.5373448 -1.2719092
000180 80 86 18 bf 10 6c c2 3e fd 24 b7 be c8 19 ca be
       -0.5958023 0.3797307 -0.35770407 -0.39472795
000190 39 7d 02 3e 77 c5 4b bf 77 f1 8d 3e a2 5b 8e 3e
       0.12743081 -0.7959818 0.27723286 0.27804285
0001a0 ed c5 ce 3f db f9 1c bf 36 0d 8a 3c 60 aa 27 c0
       1.6154152 -0.6131875 0.016852003 -2.6197739
0001b0 d2 b4 a6 be ef 55 b8 3c ea af 32 be 1b 83 c1 be
       -0.3255983 0.022501914 -0.17449918 -0.37795338
0001c0 09 5c 00 3f bd bc 0a bf 5e 2e 92 3f 63 73 a3 3c
       0.50140435 -0.5419424 1.14204 0.019952482
0001d0 ec b3 54 bf 6a 92 0f c0 92 6f 1c bf 9d 4e 26 bf
       -0.8308704 -2.2433114 -0.6110774 -0.64963704
0001e0 a7 15 35 bf ba 73 e5 be bb 54 85 bf be 07 a7 bf
       -0.70736164 -0.44814855 -1.0416483 -1.3049238
0001f0 d6 72 bd 3d fc ac 75 bf c6 4b ae bf e6 8f 85 be
       0.09250419 -0.9596708 -1.3616874 -0.26086348
000200 45 5a 7b be 92 99 e8 bd 89 85 cc 3e ea 04 1c 3f
       -0.24546154 -0.11357416 0.3994563 0.60945
000210 c2 7b 5f 3f 3e d3 11 bf 84 09 2b bf 9b 2e 2f bd
       0.87298214 -0.56962955 -0.66811395 -0.042769056
000220 b4 4a d9 bd e0 50 ad be a1 15 a0 bf 32 28 d3 be
       -0.106099516 -0.33850765 -1.2506601 -0.41241604
000230 9d 05 77 bf d5 a6 b9 3f 9d 08 3e bf cc 48 67 bf
       -0.9649294 1.4504038 -0.7423189 -0.90345454
000240 38 2b 95 bd b3 83 65 bf 7a 26 94 3e 04 73 77 3f
       -0.07283634 -0.8965408 0.28935605 0.96659875
000250 60 a7 85 bf 90 33 09 3f a6 d6 c3 bf 6f 26 a3 bf
       -1.0441704 0.53594303 -1.529988 -1.2746104
000260 36 bb c8 3d c7 27 c6 bf 84 4e 40 bf 68 8f 73 bd
       0.09801333 -1.5480889 -0.75119805 -0.059462935
000270 10 45 b4 bf ad 47 21 be 93 87 f1 bd 3a 72 2d 3e
       -1.4083576 -0.15749998 -0.11793437 0.16938105
000280 62 65 15 c0 44 b4 12 bf d8 cc de be 86 22 ee be
       -2.334313 -0.57306314 -0.43515658 -0.46510714
000290 b0 8f 00 bf 10 2a 83 bf 64 df 05 be d8 10 00 40
       -0.5021925 -1.0247211 -0.13073498 2.001028
0002a0 38 75 6a bf 0e 91 79 bf df 91 99 be af 27 ea be
       -0.9158511 -0.9748696 -0.29994103 -0.457334
0002b0 2d 8b 25 3f 2b dd a8 be d1 96 96 bf e5 79 fb bd
       0.6466549 -0.32981238 -1.1764776 -0.12279109
0002c0 59 22 2b bf 63 2f 88 bd f0 dd fa bf 79 3e 7c be
       -0.66849285 -0.06649663 -1.959898 -0.24633206
0002d0 f2 6d ab 3b 80 84 ea bf b1 98 55 3e 56 9b 67 bf
       0.0052316124 -1.8321686 0.20859028 -0.904714
0002e0 41 83 99 bf 07 c2 35 bd 49 47 83 be 38 dd 2a be
       -1.199318 -0.044374492 -0.25640324 -0.16685951
0002f0 ff ae 1d be a7 26 73 bf c7 92 ca 3e 0f ab cc 3e
       -0.15398787 -0.94980854 0.39565107 0.39974257
000300 5b e0 17 c0 18 d5 21 3f 66 1a c0 be 98 76 ad bd
       -2.3730686 0.6321578 -0.3752014 -0.084698856
000310 69 d9 85 bf 0e 04 9b bf 29 00 98 bf ef 7a 8d bf
       -1.0456973 -1.2110612 -1.1875049 -1.1053141
000320 d7 b4 0d bf cc 5c 2c be 97 f3 4e 3e 98 56 60 3d
       -0.55354065 -0.16832274 0.2021011 0.054770082
000330 f5 ca d0 bf d6 49 60 bd de 77 b5 3f 7a 25 b3 be
       -1.6311938 -0.054757915 1.4177206 -0.3498953
000340 b2 fc c3 be 4c 95 2c bf 53 ae c4 3f 71 73 97 bf
       -0.3827873 -0.6741531 1.53657 -1.1832105
000350 9a 09 ff 3e 10 aa 28 bf 35 d0 66 bf 0d cf 8d bf
       0.49812013 -0.65884495 -0.9016145 -1.1078812
000360 e5 fb 55 bf 7f 46 93 bd 64 e0 49 be 08 21 8e be
       -0.83587486 -0.071911804 -0.19714504 -0.27759576
000370 6a 2d f5 3d c7 e7 dc 3e e6 ea 65 3f 99 2b bd 3e
       0.11971553 0.43145582 0.8981155 0.36947325
000380 45 c6 0b bf 73 cf 9d bf 3f 12 a6 be 92 08 93 bf
       -0.5459941 -1.2328933 -0.32435796 -1.148699
000390 24 c6 06 bf 38 5a 53 bf b9 2b 2b be 56 17 cf be
       -0.5264609 -0.8255954 -0.16715898 -0.4044749
0003a0 29 c8 05 be fc ce 36 be bb 70 43 bf b1 47 81 bf
       -0.13064636 -0.17852396 -0.7634389 -1.0100003
0003b0 1d 27 26 bf 4a 51 0e 3f 95 39 0a 3f e2 16 7a be
       -0.6490343 0.5559279 0.53994113 -0.24422792
0003c0 78 f8 59 3d 7e dd 20 bf b0 d9 15 3e 29 ca f5 be
       0.053215474 -0.6283797 0.14633822 -0.48005798
0003d0 98 8f db bd 9e 3f f3 3e d0 98 bb be 67 70 9c bc
       -0.10720748 0.47509474 -0.36640024 -0.019096566
0003e0 18 fe d4 be 98 4b 8c bf 1e a8 9e bf 2d a6 fa 3d
       -0.41600108 -1.0960569 -1.2395055 0.12238727
0003f0 dc a9 34 bf af 5e 26 bf a9 fe b0 3f ec 8f 28 bf
       -0.70571685 -0.64988226 1.3827716 -0.6584461

weight f4 [8, 256]
000000 ff 5b 57 bf f4 2f fc bb 0d 8e 80 3e 98 5e 7c bf
       -0.8412475 -0.007696146 0.25108376 -0.9858184
000010 0e 6e 90 3b b1 e5 e2 ba 15 1b 3f 3d 3b 40 15 bd
       0.004407651 -0.0017310885 0.046656687 -0.036438208
000020 1e bd 34 3e 04 5c 94 3a af f0 14 3f 46 70 0b 40
       0.17650267 0.0011318927 0.58179754 2.1787276
000030 83 6b b3 bc 97 9d 11 c0 ae c5 90 bf e4 94 1b 3d
       -0.021901852 -2.2752435 -1.1310327 0.03798379
000040 55 c8 8d 3d 97 f2 96 3d 01 ee 04 bf 84 b8 03 3f
       0.06922976 0.07370489 -0.51925665 0.51453424
000050 89 de 87 bd 73 07 a0 ba 3a ed 9b 3c 76 90 5e 3e
       -0.06634242 -0.0012209251 0.019034017 0.21734795
000060 2f 0b 3c bd 64 db 9b bf 3f eb 17 3c 39 c7 a5 bc
       -0.045909103 -1.2176328 0.009272396 -0.020236598
000070 c3 93 fc be a2 1a 02 c0 71 20 97 3d 18 08 42 40
       -0.49331483 -2.0328755 0.073792346 3.031744
000080 4b e0 3d be 86 38 a7 3d ed 21 76 c0 74 70 a3 bf
       -0.18542592 0.08165078 -3.8458207 -1.2768693
000090 5d e9 b1 3c 66 7a 00 c0 ac 07 c9 bd 85 0e c2 3e
       0.021717722 -2.0074706 -0.098159164 0.37901703
0000a0 b9 8f 8a 39 25 ba 9b bf 7b c4 e9 3e 1e c6 d6 3b
       0.00026428493 -1.2166182 0.45657715 0.006554379
0000b0 a6 e9 89 3f 4d 04 07 bf 54 35 94 bf 74 9d 01 be
       1.0774429 -0.5274094 -1.1578774 -0.1265772
0000c0 0a 77 8f 3d 90 1d 53 bc 35 02 d9 be ba 2b d9 3c
       0.07005127 -0.012885466 -0.42384496 0.026510108
0000d0 0c 36 a6 bf f4 9d 6e be 8d 2c 03 bc a0 a9 3f 3e
       -1.2985244 -0.23302442 -0.008006227 0.1871705
0000e0 14 e9 a9 3e a4 58 69 3f 1b 35 ad bc 38 00 0b 3e
       0.33185637 0.9115088 -0.021143487 0.13574302
0000f0 4a e3 c1 3e e9 aa 31 be 86 8f a0 bd 62 a9 e3 3f
       0.3786872 -0.17350353 -0.07839875 1.7786067
000100 2b c0 85 bf d6 90 c3 be cd 61 52 3f 56 0a d9 3e
       -1.044927 -0.3819644 0.8218048 0.42390698
000110 9e 7b aa bf d5 b9 1b 3f 66 51 9a be c3 4c e1 3d
       -1.3318975 0.6083043 -0.30140227 0.11000969
000120 c2 a0 58 3f 1b f1 7b 3f 6e b9 b2 3b f4 72 fa 3e
       0.84620297 0.9841477 0.005454234 0.48915827
000130 4c b2 53 c0 fa fc 01 3d b8 63 8e 3c 1e 94 09 be
       -3.3077574 0.031735398 0.017381534 -0.13435408
000140 4f 02 ff 3c fd 94 01 3d 38 33 8b 3d 21 c4 ad be
       0.03112903 0.031636227 0.067968786 -0.33938697
000150 99 b8 df bd 2c 65 94 bb 90 bc 3f 3e 15 92 e0 3d
       -0.10923881 -0.004528662 0.18724275 0.10965363
000160 90 bf c0 bd d9 dc 17 3d fc ae 0d be 92 71 78 3f
       -0.09411538 0.03707585 -0.13836282 0.97048295
000170 f0 01 b4 3a f3 62 8b be 23 dc d7 be d9 a0 44 3f
       0.0013733488 -0.2722393 -0.42160138 0.76807934
000180 80 19 8c bc eb 78 41 3d 24 1f a2 bf ec 1a 7b be
       -0.017102003 0.047234457 -1.2665753 -0.24521989
000190 b7 df 12 bc 92 ed 3b bf a5 55 d7 3e cd 6b b7 be
       -0.008964471 -0.7340938 0.4205753 -0.35824433
0001a0 36 4e ff bc 36 9b ac bd 51 b9 18 bc ab c4 67 3d
       -0.031165224 -0.08428042 -0.009321527 0.05658404
0001b0 fb 5a c0 bf ef 51 b1 3c 42 94 82 bd 2d 3c 04 be
       -1.5027765 0.021645514 -0.06375934 -0.1291358
0001c0 16 ab 28 bf 59 0c 88 be 84 10 19 bc cf ee b0 3d
       -0.65886056 -0.2657192 -0.009342317 0.08639299
0001d0 65 e9 11 bf 3b 8f 9a 3f 5c 41 41 c0 e7 22 8d c0
       -0.56996757 1.207496 -3.0196142 -4.4105105
0001e0 73 df 86 c0 df a9 4e 3f 04 5e 3b 3c 4b ab 72 3c
       -4.2147765 0.8072795 0.011435989 0.014811347
0001f0 47 39 0f bc 48 a0 81 be 74 32 0d 3c 33 24 0d 3d
       -0.008741683 -0.25317597 0.008617986 0.03445835
000200 fa dd 70 bf dc 1d ff 3e a3 85 d3 bf d3 cc 89 be
       -0.9408871 0.49827468 -1.6525158 -0.2691408
000210 94 1f 44 bc 8f 05 ae bd e7 de af 3e 69 87 08 3e
       -0.011970419 -0.08497154 0.34349748 0.13332905
000220 0b 44 78 bd 82 b3 21 bf fb 34 2f bf 83 53 10 bf
       -0.060611766 -0.6316453 -0.68440217 -0.5637743
000230 7a 41 78 bc 5a 0c 43 3e 91 bb 9c 3d 26 67 04 bf
       -0.01515233 0.1904768 0.07652963 -0.5171989
000240 05 d1 4e 3d e4 d2 2a c0 79 f2 83 be 2d a0 02 bd
       0.050492305 -2.6691217 -0.2577093 -0.031891037
000250 de aa b9 bb ca 69 1d bc c8 fb 1c be 76 2f 7c 3e
       -0.005666121 -0.009607742 -0.15330422 0.2462748
000260 13 f1 68 c0 5e de 94 3f 6b 6a fb 3f 79 5a 9b 3c
       -3.639714 1.1630361 1.9641851 0.01896404
000270 5b d3 58 3f f4 72 a1 3f 94 fd 9f bd 1f bc 0b bd
       0.846975 1.2613206 -0.07812038 -0.034114953
000280 30 44 cf 3a 07 c5 86 bf 02 82 e2 3d d3 a6 96 3d
       0.0015813168 -1.0528878 0.11059953 0.07356038
000290 ba c6 27 40 30 60 e7 be 7d a7 a0 3c a8 d1 92 3b
       2.6215043 -0.45190573 0.019611115 0.0044805594
0002a0 39 ce e6 bd 4e 9e 86 c0 69 8e 3d bf de eb 59 be
       -0.112698026 -4.2068243 -0.74045426 -0.21281382
0002b0 78 87 28 bf 34 d5 a8 3e 49 98 c4 bf cc a2 00 bc
       -0.6583171 0.3297516 -1.5358974 -0.007851314
0002c0 c1 e1 7e 3b 17 a3 77 bd 9d a5 99 be fe f1 ef 3b
       0.0038891884 -0.06045827 -0.30009165 0.007322549
0002d0 f5 4c 5b bd 4c f8 40 3f 2a f7 d6 bf 0c aa 39 be
       -0.05354019 0.7537887 -1.6794178 -0.18131274
0002e0 38 20 8f bc a2 86 54 be 63 1f 80 bd db ef b1 bc
       -0.017471418 -0.20754483 -0.062559865 -0.021720817
0002f0 b0 d8 5b bd 78 a4 9c 3c 42 5e 3a bf 37 23 81 bf
       -0.053673446 0.019121394 -0.72800076 -1.0088872
000300 4b 4e 45 3a 4e 7f c2 3c 51 7c ac 3b 90 46 27 bd
       0.000752662 0.023742344 0.005263843 -0.040838778
000310 d7 82 e7 be bc d4 ad bf 2f e1 c7 bb cd cd 0a 3d
       -0.4521701 -1.3580546 -0.006099842 0.033887673
000320 5f 2e 75 be 0f 2f 8f bf fb be e9 bf 11 c0 18 3e
       -0.2394347 -1.1186236 -1.8261408 0.14917018
000330 21 6b 4b be 9b 82 00 3a 32 56 8d 3c 9e 6b 23 3f
       -0.19865085 0.0004902274 0.017253015 0.63836086
000340 e5 b8 c3 3c a2 f4 98 3b b5 97 87 3c 2e d7 59 bb
       0.023891876 0.0046678344 0.016551832 -0.003323983
000350 21 db 73 3e 34 28 22 3f 75 f5 47 bb 60 94 14 bf
       0.2381406 0.63342595 -0.0030511294 -0.580389
000360 1e a2 4b be 23 13 9f bd bd d7 27 bf 41 ba 4b 3e
       -0.19886062 -0.07767322 -0.65563565 0.19895269
000370 f6 41 29 bf cd 3d 81 bd 95 d7 f6 be 13 3c eb bc
       -0.66116273 -0.06310616 -0.4821135 -0.028715169
000380 6c 0a 13 be 00 a3 65 bf 3c 4a 6e 3e df 2f e4 be
       -0.14359444 -0.89701843 0.23270506 -0.44567773
000390 7e f6 6b bf d7 af 44 be 68 f5 cf be c3 82 53 be
       -0.9217299 -0.19207703 -0.40616918 -0.2065535
0003a0 4e 32 2f 3d 9e 97 0c bf 2d 6b 05 3e fb 9e b9 3e
       0.042772584 -0.5491885 0.13029166 0.36254105
0003b0 3f 27 1d bd d5 a4 db bc 55 e2 77 bd 66 5a 2a bd
       -0.038367506 -0.026811996 -0.06051858 -0.041590117
0003c0 8c dc b6 be 58 1d 0a bd 43 0c 07 bf d5 3a 66 3f
       -0.3571514 -0.03371939 -0.52753085 0.8993352
0003d0 f1 9d 7a 3e 26 be 95 bf 6b d7 75 be 4d d1 4f ba
       0.24474312 -1.1698654 -0.24007957 -0.00079276116
0003e0 86 6c 6f bd 38 59 97 be 29 2e a0 3e 62 83 89 bf
       -0.058453105 -0.29560256 0.31285217 -1.074322
0003f0 92 21 57 bd f0 99 fb 3c aa 37 bd 3c 9b 08 81 be
       -0.05252225 0.030713052 0.023097832 -0.25201878

bias f4 [8]
000000 47 f8 d9 be 9b df 0a 3e a8 0d e8 3e 0d f3 b8 be
       -0.42572233 0.13561861 0.4532292 -0.36122933
000010 03 6f 8a 3e 34 a9 d1 3c 8c b9 e2 3d 9e 9e 86 be
       0.2703782 0.025593378 0.110705465 -0.2629289
