runs/AntRandom-v5_td3_1_action_1752764120/best_policy.pt (torch, 384069 bytes, 6 tensors)

weight f4 [256, 105]
00000000: 7ab8 89c0 dec4 b83f 5d00 acc0 90f3 2841
00000010: e360 2d3f 4e0a 9d3f fff7 393e c21c d03f
00000020: 25c1 85be 8ded fe3d 2284 963e c1db 59bf
00000030: 20ea 13bf f8d7 123d 2c14 2bbe 56b2 133d
00000040: 7dc0 54be 01d7 523e 2b9f 4bbd 46fb 333d
00000050: c8d2 403d f348 5fbd a743 073d e10b c03c
00000060: 2d9a 65bc 55ca 16bc e61c b5bc 65ce 373f
00000070: 159c c1bf 6d73 2d3f 3e17 6fbf 7769 b53f
00000080: 2700 fdc0 9b1a b6bd 5e08 bebd 4ecd 40bd
00000090: d380 af3d 312a 85bc 5211 2b3d bbe9 f7be
000000a0: 818b 25bf 5927 3cbe 2df0 43bf 7c01 153f
000000b0: c88b 40c0 611d a63c 0e2b c43e a730 3abe
000000c0: 7322 503e 7153 25be 0c82 a03e 5595 3ebd
000000d0: 08e8 583d 7554 c2bc 2413 c73d 7d35 a03d
000000e0: e4bb 95bb af04 9ebf d261 b3be 408b a23e
000000f0: 6846 9bbe 2c43 ce3e f712 a2c0 c2c9 7c3e
00000100: ad13 3fbe fe4e 4abe 4779 9cbe 9c1a e3bd
00000110: d824 d9be 05d4 8dbd 4874 593d 6077 bbbc
00000120: bf41 433d dc4e b63b b43f 033d 36b8 f83f
00000130: 1ced b13f 371f df3f 3974 433e 1bdc 3fbf
00000140: b4da cbc0 573b c43e 54b1 eabe 1f91 3a3e
00000150: 860d 283e 7acb a33d 3d15 95bf 7c74 913d
00000160: 0817 6dbc 8dd4 603d b081 003d 92df 95bd
00000170: 109c a03c 40d7 193f 67c7 a8bc 1e6e 9fbf
00000180: 95ae 563e 472e 23c0 c6ae 2cc0 72ca d93c
00000190: 7f2c 823c bb25 abbd 47c4 4dbe 818e 573d
000001a0: bf9f d6be 91b2 4ebf d18d 7cc0 c6cf 3040
000001b0: f294 c63f abb2 7dbf a461 083e bbfb 23bf
000001c0: faf8 5d3f 4e1d d43e 0911 1a3f fcc5 033f
000001d0: 46e0 0bc0 c0d3 fcbe b78c 0d3f ac48 aabe
000001e0: 4c3b 51be 8d5b f23d 8a38 f83e 69df 68bf
000001f0: 9784 99be e397 053e 540e d1bd 8060 b33b
00000200: cce2 a5bd 2f6a b0bb a8f1 d3bd f61b e23d
00000210: 105b 5e3f 479c 3240 3349 383f e1cf 913f
00000220: 30e8 4a3d bfd2 93bd d7ab 88bd 79d6 a7bd
00000230: f629 37bd e32f 3abc bb03 75bd 013e 123d
00000240: d893 34be bbe1 52bf a19c d93e d63f adbe
00000250: 305a 3bbf b95c 4d3f 2773 be3e 6e7c 97bf
00000260: 5fb8 493d c639 16be 936e 37bf 1a57 dc3e
00000270: db85 69bd 1ef9 2abd f318 8e3d ae9f 02bd
00000280: d85a 95bd aacb 193d 5156 fdbf 8e58 59bd
00000290: 07c5 073e 51e8 783e 51bc 30be 77ab b03e
000002a0: a338 ca3d f3ad 863d c65e 17bf ace5 3c3e
000002b0: 7345 2b3c 63ea 9b3e 527c c73d 14cb c23d
000002c0: 2051 883d 12a9 4b3b b243 8abd 2732 9c3d
000002d0: 21e5 9d3f 4b62 f73f 71b0 8ebe 2c79 9b3f
000002e0: a65d 133c f87d fbbf ade7 98be db3a c4be
000002f0: 782b a1be 562c 45bf 6c6e 2dbf 33ff c23e
00000300: 62bf 3bbd 161e b53b 6fae 903d dd96 8cbd
00000310: 10b7 3b3d b066 803d ce63 cf3f ed94 403f
00000320: d00e 063e 5781 febe d493 b0bf 13de fb3e
00000330: 7ef1 42be 2737 363e cdbe 553e 5d2d 763e
00000340: 25be 193e 8194 5dbe 56ff ce3f db4d 80be
00000350: 9a55 17c0 ed51 25c0 4e69 f53f 6596 713f
00000360: 6872 743e ead3 e4be cbaa d83e c7e1 983f
00000370: f2e9 8abf 8a26 c73f d88b 1cbf 13b3 eabe
00000380: 4a5c cd3e cf84 9f3f dd53 13bf ff16 97bf
00000390: 1414 9e3e bee6 e03c 7f3d 103d 4235 40bd
000003a0: 6309 22be f69b 973b b04b 033d 04f3 4f3e
000003b0: 68d6 27be 1a32 a9bf 0b50 1f3f 3372 f53f
000003c0: a340 b5be 5f60 c5be d7c3 81bf 603b 39bb
000003d0: 86b1 4abd 6738 123b e3db bbbd 9e41 8dbd
000003e0: 2d0c 85bd 5536 edbf b41b 6fbf d6e7 1bbf
000003f0: 4d27 ea3f f39e 83bf fc40 dabf bd81 23bd
-4.303769 1.4435079 -5.3750443 10.5594635 0.6772596 1.226877 0.18161009 1.6258776
-0.2612392 0.12447653 0.29397684 -0.8510094 -0.5777912 0.035850495 -0.16706914 0.036058746
-0.20776553 0.2058983 -0.04971234 0.043940805 0.047076017 -0.05451293 0.033023503 0.023443164
-0.014013809 -0.009203513 -0.022108506 0.7179931 -1.5125757 0.6775425 -0.9339484 1.417281
-7.9062686 -0.08891793 -0.0927894 -0.047070794 0.08569493 -0.01625547 0.041764565 -0.4842051
-0.6466599 -0.18374385 -0.76538354 0.5820539 -3.0085316 0.02027768 0.38314098 -0.18182622
0.20325641 -0.16145112 0.31349218 -0.046529133 0.052955657 -0.023721913 0.09720448 0.07822702
-0.0045695174 -1.2345179 -0.35035568 0.31746864 -0.30327153 0.40285623 -5.064815 0.2468634
-0.1865985 -0.19756696 -0.30561277 -0.1108906 -0.42410922 -0.06925205 0.05308941 -0.02288407
0.047670122 0.0055636 0.032043174 1.9431217 1.3900485 1.7431401 0.19087304 -0.7494523
-6.370447 0.38326523 -0.45838416 0.18219422 0.16411409 0.079977944 -1.1647106 0.07102296
-0.014470823 0.054890204 0.03137368 -0.07318033 0.019605666 0.6009407 -0.020602895 -1.245548
0.20965035 -2.5496995 -2.6981673 0.026585791 0.015890358 -0.08356806 -0.20094405 0.052626137
-0.41918752 -0.8074122 -3.9461558 2.7626815 1.5514205 -0.9910075 0.13318497 -0.64055985
0.86708033 0.41428608 0.60182244 0.51473975 -2.1855636 -0.49380302 0.5529284 -0.3325857
-0.20432776 0.11833868 0.48480636 -0.90965897 -0.2998397 0.13046221 -0.10207811 0.00547415
-0.08099899 -0.005383752 -0.10348827 0.110404894 0.868577 2.7907884 0.71986693 1.1391565
0.049537838 -0.07217931 -0.06673401 -0.08195204 -0.04471775 -0.011363956 -0.05981801 0.035703663
-0.17634523 -0.8237569 0.4250231 -0.33837765 -0.7318449 0.8021961 0.3719723 -1.1834848
0.049248096 -0.14670476 -0.716531 0.43035203 -0.05701242 -0.041741483 0.069383524 -0.031890564
-0.07292718 0.037547745 -1.9791967 -0.053062968 0.13258754 0.24307372 -0.17259337 0.34505817
0.09874084 0.06576147 -0.5912899 0.18446988 0.01045357 0.3045226 0.09740509 0.0951139
0.06656098 0.0031076116 -0.06751193 0.07626753 1.233555 1.9326872 -0.2786899 1.2146354
0.0089944955 -1.9647818 -0.29864255 -0.38326153 -0.31478477 -0.77020776 -0.67746615 0.38085327
-0.045836814 0.005527268 0.070645206 -0.068647124 0.04582888 0.06269586 1.6202333 0.7522724
0.13091588 -0.49708053 -1.3795114 0.49192867 -0.19037434 0.17794476 0.20873566 0.24040742
0.1501394 -0.21638681 1.6171672 -0.250594 -2.3645997 -2.5831254 1.9172761 0.9437011
0.23871768 -0.44692928 0.42317805 1.1943902 -1.0852644 1.5558636 -0.61150885 -0.45839748
0.40109473 1.2462405 -0.5754984 -1.1803893 0.30874693 0.027453776 0.035214897 -0.04692579
-0.15823893 0.0046267463 0.032054603 0.20307547 -0.16390383 -1.3218415 0.6223151 1.9175476
-0.35400876 -0.38550088 -1.013789 -0.002826415 -0.049485706 0.002231145 -0.091727994 -0.06897281
-0.06496463 -1.8532206 -0.93401647 -0.6090063 1.8293244 -1.0282882 -1.7051082 -0.03991865

bias f4 [256]
00000000: 639c 633e 6819 64be ddde cbbf 4cad b2be
00000010: a2ce 80bf 9ba4 38bf 1dca 793e d5a2 d0bf
00000020: 3e16 d3bf 4132 11bf adb3 f93e 0aa4 04c0
00000030: 11ed 9fbf f4ee 95bf 4327 a7bf f5b5 88bf
00000040: 6629 373e 428f a0bf 6575 40bf 3732 69bf
00000050: 6437 48bf 119c 8bbf 8e60 abbd abb2 03bf
00000060: f66d c7bc 43e2 dcbf f41f ffbf 163e f1bf
00000070: fc9e 34be f503 8bbf 3900 64bf 4e7e 36bf
00000080: 2965 afbf 8dfd 28bf fded 1abf 34ac 29be
00000090: 3c20 a8bf 7788 373d b755 8abf d050 7bbf
000000a0: ee16 82bf f60f 10bf 9d26 d3bf 30aa c73f
000000b0: bf25 d0be 6e97 12bf 7d80 e63d 394a 1bc0
000000c0: 7c8b 8fbf 7085 c4bf e7a2 0a40 b57f fd3d
000000d0: eb0e 2f3e 8099 82bf a80c 43bf 3146 28bf
000000e0: 09b8 3bbf 29d2 0c3f fc1b 75bd 6560 4abf
000000f0: d6c5 aabf 15ab 8a3f cad9 0bbf 57dd c13f
00000100: 908f a2bf 5247 11bc 3ea2 93bf 7b5a 9dbf
00000110: 35df 7dbf c2bf 563d 1447 063f 54f6 9bbf
00000120: 3490 163f e0b3 25bf 8ced e7bc 18c3 88bf
00000130: edb8 fbbf 5694 c0bf 4a7f 82bf 4319 0cc0
00000140: 396c bdbf 9945 cbbe c7ef dbbe 1d72 05c0
00000150: f814 95bf 544b 6fbf 0373 983e 55a2 2b3f
00000160: f786 7fbf 5a98 66bf aba5 85bf ae24 90bf
00000170: aa5f a6be 871b c2be 7755 61bf 910a 613e
00000180: d606 c8bf 35cf 67bf e7ff a2bf 8623 ccbf
00000190: ca08 22bf 3d82 bebf 7780 7cbf f97e 12bd
000001a0: cea7 c5be f459 c6bf 0304 19c0 a804 18bf
000001b0: 1edc 8cbf b7d6 8abf b090 0ec0 4105 69bf
000001c0: 1887 8abf b91c 81bf 3de8 e7be 1b3e b6bf
000001d0: 1c95 67bd b603 8d3e c6c0 71bd 7d06 8fbe
000001e0: 1a15 00c0 640b 933e d0f5 8ebe 8d60 6abf
000001f0: 3281 f0be e6b6 4bbf 38e6 a0bf 5e16 e9bf
00000200: e3ec 91bf a75b c3bf 1514 b3be 3f96 52c0
00000210: 4d1f a83d 78a9 e0bf 07fd adbf da00 103f
00000220: bc3d ccbf f1ac 60bf e5df abbf 380a 9fbf
00000230: c600 c43f 3b0a 9f3c 347c 19bf db35 07c0
00000240: abf3 1cbf e65c 22be dc99 e0bf bb20 9dbf
00000250: e5f3 aa3e 88e5 09c0 059e 04c0 cd8d a8be
00000260: c50d 91bf 864c e7bf dfdd 2cbf 27ca 60bf
00000270: 5727 68bf 7f95 6bbf b619 30bf 500b 5fbf
00000280: d201 d2bf 2b57 f0bf d071 36bf b362 943d
00000290: 695f 6dbd 036a 2cbe a385 c1bf 9634 c7bf
000002a0: e93d 6bbf e73d 633f 71e7 83bd b66e e6be
000002b0: ceeb ec3e 1d62 06bf f222 a5bf c9fc 72bf
000002c0: 3af3 723e fb94 05bd ffc1 12bf 54b5 c43e
000002d0: 5c73 8abf af8e f73e af95 903f 73ec 5fbf
000002e0: 4a5f a6bf 49df 6b3e 5cb7 093e e339 18bf
000002f0: 47ee aebf 2ef3 b8bf 262a 90bf 3276 84bf
00000300: aedd dfbd 9bfe a2bf df54 d9be 1e6d 16bf
00000310: fde2 ac3f 64c6 533f 6d92 6ebe e4db 63be
00000320: a748 abbf c593 83bf 8b42 61bf 7919 ad3f
00000330: 716d b8bd f705 dbbe d7fb 5ebf 4469 29c0
00000340: 2d7f 383f dc2f 05c0 f58f e4be 5a22 61be
00000350: 6cdf a8bf 819c 61bf 09bd 5fbb 82f5 17bf
00000360: 9b6f 6fbf fdda e6bf 21b9 373f b01a 5d3f
00000370: a9d4 adbf abf4 01bf 8602 4bbf 4016 a0bf
00000380: 0d79 04bf 4df3 2ebf e844 ddbe 2dc9 68bf
00000390: 49d5 d5bf 2c40 843f 529e 67bd 9d41 f33e
000003a0: fa26 8abf 916b cfbe ebc3 b5bf 2946 d2bf
000003b0: 173c a4bf 7ff4 3ebf b07b 80bf 39a7 2abf
000003c0: 58a8 8cbf c309 d5bf aa3b c93e 7344 58be
000003d0: 1fb1 b7bd 48c5 e2bf df67 93bf a516 fbbe
000003e0: c279 41bf ac74 95bf c6aa 54c0 e043 95bf
000003f0: 7a09 003f aef8 87bf b1a0 f4bf a75d f1bf
0.22227626 -0.22275317 -1.5927387 -0.3489784 -1.0063059 -0.7212617 0.24393506 -1.6299692
-1.6491163 -0.56717306 0.48769894 -2.0725121 -1.2494222 -1.1713548 -1.3058857 -1.0680529
0.17886886 -1.2543719 -0.7517913 -0.91092247 -0.7820952 -1.0907003 -0.08368026 -0.514445
-0.024344426 -1.725655 -1.9931626 -1.8847072 -0.17638773 -1.0860583 -0.8906284 -0.71286476
-1.3702747 -0.6601189 -0.6051939 -0.16569597 -1.3134837 0.044807877 -1.0807408 -0.98170185
-1.0163248 -0.56274354 -1.6496159 1.5598812 -0.40653798 -0.57262313 0.11254976 -2.4264052
-1.1214442 -1.5353222 2.1661928 0.12377874 0.17095535 -1.0203094 -0.76191187 -0.65732104
-0.7332769 0.5500818 -0.05984114 -0.79053336 -1.3341625 1.083346 -0.54629195 1.5145673
-1.2700062 -0.008867102 -1.1533887 -1.2293237 -0.9916871 0.05242897 0.52452207 -1.2184548
0.58813787 -0.6472759 -0.028311513 -1.0684538 -1.966581 -1.5045269 -1.0195096 -2.1890419
-1.4798652 -0.39701536 -0.42956373 -2.08509 -1.1647024 -0.93474317 0.29775247 0.67044574
-0.99815315 -0.9007622 -1.0441183 -1.1261194 -0.3249486 -0.37911627 -0.88021034 0.21976687
-1.5627086 -0.9055055 -1.2734345 -1.5948341 -0.6329466 -1.4883496 -0.9863352 -0.03576562
-0.38604587 -1.5496202 -2.3908699 -0.59382105 -1.1004674 -1.0846776 -2.227581 -0.9102364
-1.0822477 -1.008689 -0.4529437 -1.4237703 -0.056538686 0.27541894 -0.059021734 -0.27934638
-2.001288 0.28719628 -0.27921915 -0.91553575 -0.46973568 -0.79575956 -1.2570257 -1.8209951
-1.1400417 -1.5262345 -0.3497626 -3.2904203 0.08209095 -1.7551718 -1.3592843 0.562513
-1.595634 -0.8776389 -1.3427702 -1.2424994 1.5312736 0.019414058 -0.59955144 -2.112662
-0.6130931 -0.1585575 -1.7546954 -1.2275614 0.33389202 -2.1546345 -2.0721447 -0.32920685
-1.1332327 -1.8070228 -0.6752605 -0.8780846 -0.9068503 -0.9202499 -0.6878923 -0.87126637
-1.6406806 -1.8776602 -0.71267414 0.07245388 -0.05795232 -0.16837315 -1.5118908 -1.5562923
-0.9189134 0.8876633 -0.06440628 -0.4500634 0.46273655 -0.5249346 -1.290129 -0.9491697
0.23725596 -0.032612782 -0.57327265 0.38419592 -1.0816455 0.48351046 1.129568 -0.8747017
-1.299783 0.23034395 0.13448852 -0.5946333 -1.3666466 -1.4449213 -1.1262863 -1.034857
-0.10930954 -1.273395 -0.42447564 -0.5876025 1.3506771 0.82724595 -0.23298045 -0.2225185
-1.3381547 -1.0279471 -0.8799216 1.3523399 -0.09005249 -0.42777988 -0.8710303 -2.64705
0.72069055 -2.081046 -0.4464108 -0.2198576 -1.3193183 -0.8812943 -0.0034139773 -0.5935899
-0.9352967 -1.803558 0.7176686 0.86368847 -1.3580524 -0.5076396 -0.79300725 -1.250679
-0.5174721 -0.6834 -0.43216634 -0.9093197 -1.6705714 1.0332084 -0.05654747 0.47510996
-1.0793145 -0.40511754 -1.4200414 -1.6427661 -1.2830838 -0.7459182 -1.0037746 -0.6666141
-1.0988874 -1.6643604 0.39303333 -0.21119861 -0.0896933 -1.7716455 -1.1516074 -0.49040714
-0.7557641 -1.167623 -3.3229232 -1.1661339 0.5001446 -1.0622766 -1.9111539 -1.8856705

weight f4 [256, 256]
00000000: a039 21bf ee04 86be 328c c1bf 7499 703e
00000010: 3c30 75bf 92d4 4ebc 2022 96bf a669 eabc
00000020: 50d7 9bbf 260e 3fbd cfee fcbe 3d0f 9d3e
00000030: 0bc0 dbbe 5ee0 31bf 866b d1be 52d8 ddbe
00000040: 6169 cbbf fd69 56bf e8bc dbbe 3419 f63f
00000050: 72bf 773e 67c7 4abf f85b a43e 8bf9 33bf
00000060: 3311 bbbe a730 11bf 828f 0cbf 80c1 d4be
00000070: 60b2 1cbf a232 053e 4890 09bf 532a 1dbe
00000080: b6ce a4be 5fd1 05bf ddb7 34bf 6e17 f03d
00000090: de18 49bf d340 1f3e 267c 46bf eef8 21be
000000a0: 7ba0 febd 5187 37be 9622 c1be 58ba 98bf
000000b0: c541 b9be edea 613e a29b 68be 8006 afbe
000000c0: f80a 8dbf 5519 3ebf 8abf a2be 916b 0fc0
000000d0: a81e 68bf 4aa1 94bf a72f 4f3e 306b 02bf
000000e0: 7780 b83c 337d 94be ed51 10bd 9332 f4be
000000f0: f8b1 4abf 9833 94be 2e36 59bf 2adb 113e
00000100: c5a0 39be 8ed1 14bf e811 9abe 7bfe bc3e
00000110: 0ae1 d23d 94f0 47bf 471c aabe 7b3d 88bf
00000120: a758 f4be 5451 2f3e 9224 45bf 26ab 9ebe
00000130: 5626 afbe da68 95be e9c7 2dbf 0ff1 5bbf
00000140: 72df 81bf 6274 abbe 4d66 d9bd 2a13 243e
00000150: bd2a 95bd b6c3 87be 6d70 3ebf 2929 72bf
00000160: f6cb 0e3f 3075 aebe c2f4 443e fa0c ddbd
00000170: 3f2b 09bf 6491 e1be 567f 07bf a5cf acbe
00000180: 08fe 3ebf bd23 e6be 01b0 a4be 9edc ad3e
00000190: c79d 0fbc f416 39be 94b2 683e f241 76bf
000001a0: cdff 083f 50f3 d1be ea88 1ebd cfe7 c93e
000001b0: 28d7 8ebc e998 143e ad10 fdbd c48c 5dbf
000001c0: eb11 f5be 450a e23d fdbd 063d 874b d2be
000001d0: 52f0 a5be c9aa 4abf 5384 ddbe 564f ec3c
000001e0: 3954 2dbe 613d dbbe 2714 7b3e 8382 bc3d
000001f0: 2afb 8bbf ad8f 15be 7a7f 54bf 5e45 56be
00000200: ba9c 97be 07ff a93e ef82 a93e 3123 dc3e
00000210: fe50 b33b 7e66 fb3e fbb2 e2bf 2f1b 52bf
00000220: df6f 283e d2cb 92be 810d 7a3e 8ec1 95bf
00000230: 809f d3be 4039 79be be39 17be 0fa1 63bf
00000240: 18cf ba3b 8d0d b0bf 973e 823f 45b1 27bf
00000250: 73d8 dbbe c2d5 d9ba 7732 ad3e edec 6fbf
00000260: d9e7 57bf e097 fc3e c1ef b63c 6175 b43c
00000270: f110 a6bf 599f 6dbe eaff c43e 4e7a 693e
00000280: 89b1 a5be b3ce b6be 7cb5 443e 917e d73e
00000290: cd74 09bf 3e29 673e 4c30 babe 84e8 353a
000002a0: d323 e93d c03f fdbe 2d48 e83d dd74 913e
000002b0: eaed 663e d21e 3b3e a3bf 2fbf 70b9 913e
000002c0: 1ac7 00bf f6f4 d3bd 84df e13e ef68 a4bf
000002d0: 2ff8 3d3d 8437 5bbe 6a90 aebf 7746 a73d
000002e0: 1e6c 3d3f 193c 5c3e cbad 2bbf 4f04 34bf
000002f0: be3d 7cbe b162 3dbe 18dd cdbf 7993 14bf
00000300: 5272 12bf c2d3 633e 182e fd3e 102b 90bf
00000310: 7495 343f 4e8f 0fbe a5ff 133d 512b a5bc
00000320: 129e 46bf a089 bebe d23f a0be bc96 f83e
00000330: 006e d13d b393 3f3e 3ec5 89bf b502 9abe
00000340: 17be 96be baa8 893e 5d40 693e 7211 2c3c
00000350: 4ffd a1bf 9d7c 1cbf d0fc 073d 449b 4dbf
00000360: e7c5 97be ea14 a2be b17e e8bf 9a90 03be
00000370: 7e48 553e bd74 6ebe a01b a8bd 5c62 823f
00000380: 8f87 15bf 3fb7 9bbe f258 83be 837e debd
00000390: 3df1 203e fcc8 dcbf cfa7 bebe 5abc 293f
000003a0: fd33 79bf 4e30 8ebf f54a 6dbe ddb7 4fbf
000003b0: 8ec0 253d c181 eebe 1db2 933e dcc5 c0bc
000003c0: 6f56 423e 181c 83be a25d 75bf d6fd ba3e
000003d0: e983 00c0 47dd 1ebf 3769 85bf 7753 81bc
000003e0: 5992 a6be 5b7e f5be 374f af3e b7d0 90bc
000003f0: 6d5c eabc 664a cb3d 1e0c 3dbe 871a 823f
-0.62978554 -0.26175636 -1.5120909 0.23496038 -0.95776725 -0.012623923 -1.1729164 -0.02861483
-1.2175083 -0.046644352 -0.49400946 0.30675688 -0.42919955 -0.6948298 -0.40902346 -0.43329102
-1.5891534 -0.83755475 -0.42917562 1.9226441 0.24194124 -0.79210514 0.32101417 -0.7030265
-0.3653656 -0.5671486 -0.54906476 -0.4155388 -0.6120968 0.13007596 -0.5373578 -0.15348177
-0.32188958 -0.522726 -0.70593053 0.11723219 -0.7855357 0.15552072 -0.77533185 -0.15817615
-0.12432953 -0.17922713 -0.377217 -1.1931868 -0.3618299 0.22062273 -0.22715619 -0.34184647
-1.1018972 -0.74257404 -0.31786758 -2.2409403 -0.9067178 -1.1611722 0.20233022 -0.50944805
0.022522194 -0.2900177 -0.03523438 -0.47694835 -0.7917781 -0.28945613 -0.84848297 0.1424376
-0.18127735 -0.58132255 -0.30091786 0.36912903 0.10296829 -0.7810147 -0.332247 -1.0643762
-0.47723886 0.17120868 -0.77008927 -0.3098995 -0.34208935 -0.29181558 -0.67883164 -0.859147
-1.0146315 -0.3348723 -0.106152155 0.16022936 -0.07283542 -0.26516503 -0.743903 -0.94594055
0.5577997 -0.34073782 0.19233993 -0.10793491 -0.53581613 -0.44056237 -0.52928674 -0.3375217
-0.7460637 -0.4494914 -0.3216553 0.3395738 -0.008765644 -0.18075162 0.22724372 -0.96194375
0.5351532 -0.41005945 -0.03870479 0.39434668 -0.017436579 0.14511456 -0.12356696 -0.86542916
-0.47865233 0.11037115 0.03289603 -0.41073248 -0.32409912 -0.7916685 -0.43265018 0.028846424
-0.1692666 -0.42820266 0.24519406 0.09204581 -1.0936024 -0.14605589 -0.83007014 -0.20924899
-0.2961176 0.33202383 0.33107707 0.429956 0.0054723015 0.49101633 -1.771087 -0.8207273
0.16448925 -0.28671128 0.24419214 -1.1699693 -0.41332626 -0.24338245 -0.1476812 -0.8891763
0.005700957 -1.3754135 1.0175351 -0.65504867 -0.42938575 -0.0016619491 0.33827564 -0.93720895
-0.84338146 0.4933462 0.02233112 0.022028627 -1.297392 -0.23205318 0.38476497 0.22800562
-0.3236201 -0.35704574 0.19209856 0.4208875 -0.5369385 0.22574326 -0.36364973 0.00069392496
0.11383786 -0.494627 0.113418914 0.28409472 0.22551695 0.18273476 -0.6865179 0.2846179
-0.50303805 -0.10349457 0.4411584 -1.2844523 0.046379264 -0.21407896 -1.3637822 0.08167737
0.739931 0.215073 -0.6706206 -0.70319074 -0.24632928 -0.18494679 -1.6083097 -0.58037525
-0.5720569 0.22248748 0.4944923 -1.1263142 0.7054055 -0.1401951 0.036132473 -0.020162256
-0.77584946 -0.37214375 -0.3129869 0.485525 0.10226059 0.18708687 -1.0763319 -0.3008019
-0.29441902 0.2688654 0.22778459 0.010502206 -1.2655429 -0.61127645 0.033200085 -0.8031504
-0.29643175 -0.3165658 -1.8163663 -0.1284813 0.20828435 -0.2328672 -0.08208394 1.0186267
-0.5840997 -0.30413243 -0.25653797 -0.10863974 0.15717025 -1.7248836 -0.37237403 0.66303027
-0.9734495 -1.1108491 -0.23173125 -0.8113993 0.040466838 -0.4658337 0.28846827 -0.023531847
0.18978284 -0.2560737 -0.95846 0.36521786 -2.0080512 -0.6205639 -1.0422734 -0.01578687
-0.3253353 -0.47947964 0.34240124 -0.017677648 -0.028608525 0.099263 -0.18461654 1.0164346

bias f4 [256]
00000000: 7531 f8be e792 783e 93d6 153e 2e9a 03be
00000010: 4b49 d2bf e857 4bbf 52ab 5dbe 854e 87bd
00000020: 23cd 333e 1572 92bf 0ab9 5cbf 0f6c 2abf
00000030: a786 2abd 6f25 09bf d623 f6be e4a6 c7bd
00000040: 897c 363f 0bd3 77bf ae3d 85be 4c16 39bf
00000050: 219a 8dbe c0e0 49bf df92 85bf 4e16 f73e
00000060: 4eab acbf 96f1 1040 cfab 9bbf 2f15 2bbe
00000070: fb63 e43e 6108 85bf be78 afbd 90e1 a6be
00000080: f836 b4bf abfa e1be a81f d0bf b9c1 59bf
00000090: 6b32 c33e 1b3f f6bf 9ddf b9be 9554 133e
000000a0: 1bbe 4f3e 8635 28bf c460 a2bf 8e66 48bf
000000b0: 20a7 afbf b62d 98bf b9c8 3ec0 9c98 febf
000000c0: ddb3 563a 9921 9ebf 0c35 14c0 2898 52bf
000000d0: 5667 25bf 5b12 d3bf 1e28 28bf 3c24 1e3f
000000e0: 5a14 74bd 3ed8 823f 95c3 04bf b1c4 84bf
000000f0: d718 e4bf a74b 68bf ee78 4c3e 7265 95be
00000100: 7721 47c0 0f63 d0bf b4e8 d83f 8016 30c0
00000110: 4a19 83bf 9005 02bf 4f93 0b3d 42ec fcbe
00000120: 4e55 663d fb9c 823d 62e3 9fbf 5693 f83e
00000130: 5b34 3d3f cef8 12c0 508e 38bc fd94 2e3e
00000140: 9126 87bf 3e13 ae3f a8a8 e6bf d4e8 8abe
00000150: 4e79 64bf 0a04 16be 8bcf 93bf 59db 05c0
00000160: cd08 febd 627e 76bf 87f5 d0bd 49dc 2d3f
00000170: 40cf 8fbd 3fce 26bf 13fc fcbf 1bf2 7abe
00000180: 92c4 90bf cb7f 0cbe f93b 09bf e3cc b5bd
00000190: c066 9bbf 8984 493f 0aed 893d 5166 4fbf
000001a0: ca9b cfbf 8826 efbe 7bc6 7cbe ba6a 6dbf
000001b0: 1a68 ebbf ec60 8bbf 81cc c63e 31d4 5bbf
000001c0: c964 3cbf 511e 80bd ac8f c0bf 0396 90bf
000001d0: 05e9 88bf 637c 0e3f 635f dabf 87fd 28bf
000001e0: e681 51bf f02a 08bf 10ed 04c0 a368 7fbf
000001f0: 59ce c2bd e83a eebe 5839 d1bf 33fb 71bf
00000200: 3442 0bbf 5cef dbbd 08cd 8cbe a0ee 09bf
00000210: c9e6 10bf bc84 a2bf a703 9dbe 10ae 10bf
00000220: 4cf9 403f 1362 c5be 2fdb f9bf 0c21 58bf
00000230: e47a 39c0 a2ee 74be 98fe babd ba32 10bf
00000240: e86f 21c0 7551 f7bd 51bc 68bf efbd 8abf
00000250: fd30 b1bf c0f7 92bc 2504 b2bf 9e83 71bf
00000260: 16d4 99bd c92e 2b3f 2472 42bf 639e 26bf
00000270: 8506 98bf 4920 96bf 3618 203f a319 b83e
00000280: 19ff 85bf 80ff 5ebe 005b 12bf 12a7 9abe
00000290: a86c c4bf 2bdb 83bf d301 f4bf 77da 0dbf
000002a0: d432 97bd 35e3 17bf 73ec 8abd 6ffe 0c3f
000002b0: 920d 0140 c782 53bf e090 12bf 85e6 07c0
000002c0: 98bf 3ebf 694d 7bbf 0903 d5bf 8ada 6cbd
000002d0: 5d79 64bf 76ea 12be 4b45 81bf 6398 1bbe
000002e0: b064 1240 a2e5 b0be d63c 06c0 94dd 09c0
000002f0: c30d a0bf 053c a1bf a7fe cfbc 7853 39bf
00000300: ae52 6d3d 79c1 83bf d28e 9ebc 8b74 28bf
00000310: 22db 293e f364 bf3f 624a 913d 5a10 ae3f
00000320: d098 9b3f 5952 d5be f1ad 10bf ed12 263d
00000330: 095f 25be 5399 133e 8c08 54bf 1b44 c4be
00000340: 9ed7 4bc0 dc88 01bf e78b 19be 0d03 30be
00000350: 161e 35c0 a525 65bf c919 363e ec9b 6ebf
00000360: 8cf9 63bf 793f e2be 468d 41bf 86fa 41bf
00000370: a458 09c0 efc7 f8bf e8cc a7be 0d94 81bf
00000380: 7348 f9bf b6de 64bf c73e 3dbf ea78 81be
00000390: b55b d2be aae6 0abf 8265 5abf 3046 9a3e
000003a0: ab4f b1bf ae2c 8d3f bf63 c8be c8b5 93bf
000003b0: 3b3c 6dbf 28f3 b0bf 3651 8cbf 95a3 89be
000003c0: 7b6b 01bf de0a 22bf 9eb0 b8bd bd70 a63f
000003d0: 1d8e 79bf aea5 42bf 5149 453f 4bd6 473e
000003e0: 64de 13be 5bf9 82bf dde5 633e 5f4b 5dbf
000003f0: 02db 7ebf 73e4 183f c3ec c73e fe56 97bf
-0.48475233 0.24274789 0.14632635 -0.12851784 -1.6428617 -0.7943101 -0.21647385 -0.06606773
0.17558722 -1.1441065 -0.8621985 -0.66571134 -0.04163232 -0.53572744 -0.48074216 -0.09748629
0.71283776 -0.968064 -0.2602362 -0.7229965 -0.27656654 -0.78858566 -1.0435447 0.48259205
-1.3489778 2.2647452 -1.2161807 -0.167073 0.4460753 -1.0393182 -0.085679516 -0.32593966
-1.4079275 -0.44136557 -1.6259661 -0.8506122 0.38124403 -1.9238008 -0.36303416 0.14387734
0.20287363 -0.6570667 -1.268578 -0.78281486 -1.3722878 -1.188895 -2.9810011 -1.9890323
0.0008190254 -1.2354003 -2.3157377 -0.8226342 -0.64610803 -1.6489977 -0.65686214 0.6177404
-0.05958972 1.0222242 -0.51860934 -1.0372525 -1.782008 -0.90740436 0.19968006 -0.2917896
-3.1114175 -1.628023 1.6946015 -2.7513733 -1.0242093 -0.5078974 0.03407603 -0.49399
0.056233697 0.06377598 -1.2491267 0.48549908 0.73908013 -2.2964358 -0.011264399 0.17049022
-1.0558645 1.3599622 -1.802022 -0.2713076 -0.89247596 -0.14649978 -1.1547712 -2.091513
-0.12404022 -0.96286595 -0.102030806 0.67914253 -0.07021952 -0.65158457 -1.9764427 -0.24506418
-1.1309988 -0.13720624 -0.53607136 -0.0887697 -1.2140732 0.7871786 0.06734665 -0.810155
-1.6219418 -0.46709085 -0.2468509 -0.92740977 -1.8391144 -1.0888953 0.388279 -0.85870653
-0.73591286 -0.062557824 -1.5043845 -1.129578 -1.0696112 0.5565855 -1.706036 -0.6601185
-0.81838834 -0.5319052 -2.0769691 -0.9976904 -0.09512014 -0.46529317 -1.6345625 -0.94523925
-0.5439789 -0.107390136 -0.27500176 -0.5387974 -0.5660215 -1.2696757 -0.3066685 -0.565156
0.75380397 -0.38551387 -1.9520015 -0.84425426 -2.8981256 -0.23919156 -0.09130591 -0.563274
-2.5224552 -0.120760836 -0.9091235 -1.0839213 -1.3843075 -0.017940402 -1.3907515 -0.94341457
-0.07511155 0.66868263 -0.75955415 -0.6508543 -1.187699 -1.1728603 0.6253694 0.3595706
-1.0468475 -0.21777153 -0.57170105 -0.3020559 -1.5345659 -1.030126 -1.9063057 -0.55411476
-0.073827416 -0.59331065 -0.0678338 0.55075735 2.0164533 -0.82621425 -0.5725231 -2.1234448
-0.745111 -0.98164994 -1.6641551 -0.057825603 -0.89247686 -0.14347252 -1.0099272 -0.1519485
2.2873955 -0.34550196 -2.0974631 -2.154149 -1.25042 -1.2596442 -0.025389982 -0.7239299
0.057940178 -1.0293418 -0.019355211 -0.6580283 0.16587499 1.4952682 0.070942655 1.359874
1.215601 -0.4166439 -0.56515414 0.040545393 -0.16149534 0.14413957 -0.8282554 -0.3833321
-3.1850352 -0.50599456 -0.14994775 -0.17188664 -2.8299613 -0.89510566 0.17783274 -0.9320667
-0.89052653 -0.4418905 -0.7560619 -0.75772893 -2.1460352 -1.9436015 -0.3277352 -1.0123307
-1.9475235 -0.8940233 -0.73923916 -0.25287563 -0.41085592 -0.54258215 -0.8531114 0.30131674
-1.3852438 1.102926 -0.391386 -1.153985 -0.9267003 -1.3824205 -1.0962284 -0.26882616
-0.5055463 -0.6329783 -0.09018062 1.3003155 -0.9748247 -0.7603406 0.77064997 0.1951534
-0.14440304 -1.0232347 0.22255655 -0.8644313 -0.9955293 0.59723586 0.39047822 -1.1823423

weight f4 [8, 256]
00000000: a7be 523e 593f 20bd 86f4 64bf df7f e2bc
00000010: f05d 6dbf 3c78 f43f 450d 0a3d 54fa fdbc
00000020: cfcc eaba ce3a 10bf c093 2fbe 0d7c f8bf
00000030: 33a6 48be fc3f 9bbf 20b4 a73e b0df f9bd
00000040: 7e15 323e b3c5 e43c 4a9b 59be 3900 0a3e
00000050: de60 f7bc 2c80 51bd 0494 9bbd e16f 6e3c
00000060: b38c 003d 1100 093d cb8f debe 6357 b2bf
00000070: 6d81 c4bb 4547 c4bf e215 d7bf 4784 4dbe
00000080: 7970 7fbf f651 7a3e 9886 2cbf ebf7 963c
00000090: 40a5 5dbe 5b36 66bf 6a83 e839 c90b 3a3e
000000a0: 5c20 633e 0e89 1dbe 9f0b d83c 8db2 523f
000000b0: 69be ee3d 852d 7ebe 6e70 773f ec81 543f
000000c0: 9546 16be d4fe 653c 4fc8 dc3e e8ae 3ebf
000000d0: d54b 1ebe eb6a f93d 27b8 f23e f790 97bd
000000e0: 573b b93e a07b 1a3c 758f d53d 3ae0 94be
000000f0: 7310 e8bd 8475 e8bf 4744 a63e 09f7 1abe
00000100: 4616 2f3f d7db 173f dc6f 1dbd 082b 483e
00000110: da81 c2bf 6f5e 3fbe 94af aabf 2fa7 d53c
00000120: fc63 5dbc dd2b 433e 95a8 6a3e 44ba 503d
00000130: b9c4 123c dd22 e1bb 7379 7abd 90a8 d5bd
00000140: f368 1a3d bfc2 bf3c 88c9 c33d 0eb3 d23d
00000150: c0a6 5dbf a762 8a3d 69fc 78be a9ef 053d
00000160: 3185 0bbd 847a b93c a532 833c d097 54bd
00000170: c20e 1abf 8199 08bf f4fc 2ebd 2d00 75be
00000180: 00e8 6d3f c67a 1f3d 9d70 d8bd d281 393b
00000190: aac0 d7bf 6922 193e c851 d6be 6998 913f
000001a0: 7573 173c c03e 1e3f fd73 dbbc 8043 ef3f
000001b0: 4b98 093e c810 ffbf 1dfc abbd 280b 583f
000001c0: 38a8 98bf c262 d83d e151 91bb 453b b2bd
000001d0: 1565 c33e a5d9 76c0 afeb a6be 126e 583d
000001e0: ae55 0cbe a6c5 fa3d c37a c0bf a6f8 18be
000001f0: 9641 533d 5202 ebbe 09b6 333f 18da cb3d
00000200: 92da 173e 9069 703c e455 7ac0 2011 183e
00000210: 3efc e4bd 8c3d bdbc 6c7f 2a3e e147 99be
00000220: 69b4 7b3d c085 0ebe 4f6e 103e 1172 00bd
00000230: c9b0 35be 3b24 193e c69d d8bb 4fe0 31be
00000240: 49c1 153b 14bc 1a3d 7ae7 133d a558 2abc
00000250: 21d1 abbf 5f87 e0bc 4145 0940 ab36 08bf
00000260: 514c d6bc ed50 b63e 38bb 9e3f 6e06 dfbd
00000270: d174 783e 361c 503e 4a8f fd40 c118 15c0
00000280: fc93 e8bf b7d9 a2bf 56db 8c3d e85b fe3d
00000290: da82 883e 68ff c5bd 461b 963e 77a9 8ebc
000002a0: c63a b13d 0c39 d4bd 1c9f 653d 5b82 24bc
000002b0: 6ac2 1ebd eb11 02c0 c3a6 b6c0 07f3 1bbd
000002c0: 8076 aebe 76af 353c 12ae 03be e8ee a53d
000002d0: 8194 86bf cdc4 903d 0451 de3e f477 813c
000002e0: 395c 933d cbc4 2c3f a9d6 ed3e 2633 b33c
000002f0: d8c6 263d bd34 5cbe 8164 d73c 25ee 3cbf
00000300: a922 363d 33c9 e33d 77b0 5d3d 6551 ae3d
00000310: 652a 7f3e 443b 01be 3690 053f 11a6 f1bc
00000320: 63ae 2c3d c969 7c3c 18d2 0c3d 09d8 8cbe
00000330: 0021 abbd 28ad b4be ef46 5dbf d15c 0abf
00000340: 8fcc 3cbd 7e78 463e 7788 1fbf 0d45 973f
00000350: bb87 06bf 267c e93e cb19 063d fc83 97bc
00000360: 200f a13f 11ca 35bf 0779 efbd f6bc 6f3e
00000370: d808 a33d 8501 7b3d fb70 a23e a959 a9bc
00000380: 9903 ba3d 5aab 763c 9318 a13d ce96 e23c
00000390: 8a43 abbe b051 c8be 7095 b03e ebab d1be
000003a0: d3fb 263e 71dc 20bd ad27 bf3e 38f4 c33c
000003b0: 80d5 69c0 3d8a 473f e324 963f 1c02 b53e
000003c0: 65e0 c53d 4a89 843e fdb7 043d 4348 7dbd
000003d0: 4747 e0be 5162 acbe 0640 0b3d 68c3 b3be
000003e0: 98a6 9d3e a073 033e 07ef 1c3d 5944 143e
000003f0: f65d 793f 3e1b 85bc 1d82 99be 7fb5 073e
0.2058054 -0.039122913 -0.89435613 -0.027648864 -0.9272146 1.9099193 0.03370406 -0.031003155
-0.0017913821 -0.5633973 -0.17146206 -1.9412857 -0.1959465 -1.2128901 0.32754612 -0.12200868
0.17391011 0.027926302 -0.21250644 0.13476647 -0.030197557 -0.051147625 -0.07596591 0.014553041
0.03138418 0.03344733 -0.4346908 -1.3932918 -0.005996874 -1.533425 -1.6803553 -0.20069991
-0.99780995 0.24445328 -0.67392874 0.018428763 -0.21645069 -0.8992669 0.000443484 0.18168558
0.22180313 -0.15384313 0.026372729 0.82303697 0.116574116 -0.24822052 0.9665593 0.83010745
-0.14675362 0.014037807 0.43121573 -0.74485636 -0.15458615 0.12178596 0.47406122 -0.07400697
0.36178085 0.009428889 0.10427753 -0.2907732 -0.113312624 -1.8160863 0.32473966 -0.15133299
0.6839336 0.59319824 -0.038436756 0.19547665 -1.5195878 -0.18688367 -1.3334832 0.026080696
-0.013512608 0.19059701 0.22915871 0.050958887 0.008958035 -0.006870611 -0.06115098 -0.10432541
0.037697744 0.023408292 0.095599234 0.10288058 -0.86582565 0.06757098 -0.24315037 0.03269926
-0.034062568 0.022641428 0.01601536 -0.051902592 -0.6017877 -0.5335923 -0.042721704 -0.23925848
0.9293213 0.038935445 -0.10568354 0.0028306139 -1.6855671 0.14954533 -0.4185927 1.1374637
0.009243836 0.618145 -0.026788706 1.8692474 0.13437001 -1.9926996 -0.08397696 0.84392023
-1.1926336 0.105657116 -0.0044348096 -0.08702711 0.38163057 -3.857034 -0.32601687 0.052839346
-0.13704559 0.1224473 -1.5037464 -0.14938602 0.05157622 -0.45900208 0.7019964 0.099537075
0.14829472 0.014673606 -3.9114923 0.14850283 -0.11180924 -0.023100637 0.1665017 -0.29937652
0.06145135 -0.13918209 0.1410458 -0.031358782 -0.1774322 0.14955227 -0.006610605 -0.17370723
0.0022850803 0.03777702 0.036109425 -0.010397111 -1.3423196 -0.0274083 2.144852 -0.53208417
-0.026159437 0.35608616 1.2400885 -0.10889898 0.24263312 0.20323262 7.9237413 -2.3296359
-1.8170161 -1.2722691 0.068777725 0.124198735 0.26662332 -0.096678555 0.29317683 -0.017414792
0.08653788 -0.10362443 0.05605994 -0.010040845 -0.038759626 -2.0323436 -5.7078567 -0.038073566
-0.34074783 0.011089196 -0.12859371 0.081022084 -1.051407 0.07068787 0.43421185 0.015804268
0.071953245 0.6748778 0.46452835 0.021874975 0.040716976 -0.21504493 0.026293041 -0.7380088
0.04446665 0.1112236 0.054123368 0.085116185 0.24918516 -0.12620264 0.52173173 -0.029498132
0.042158496 0.0154060805 0.03438005 -0.27508572 -0.083559036 -0.35288358 -0.8643636 -0.54047877
-0.04609352 0.19381902 -0.62317604 1.1817948 -0.5255086 0.4560253 0.03273944 -0.018495552
1.2582741 -0.71011454 -0.11693006 0.23411927 0.07960671 0.061280746 0.31726822 -0.020672636
0.090827174 0.015055502 0.07866015 0.0276598 -0.33449966 -0.39124823 0.34489012 -0.40951476
0.16307001 -0.03927273 0.37334958 0.023920164 -3.653656 0.7794531 1.1730007 0.35353172
0.096619405 0.25885993 0.032402027 -0.061836492 -0.4380438 -0.3366876 0.033996604 -0.3511002
0.30791163 0.12837076 0.03831389 0.14479198 0.97409 -0.016248342 -0.2998208 0.13252829

bias f4 [8]
00000000: 07b2 c93e 19e1 49bf 416f 93be c420 0bbd
00000010: f8d1 ca3e 74ca cebe 9f5c 403c 102b 4e3d
0.39393637 -0.78859097 -0.28795817 -0.033966795 0.39613318 -0.40388834 0.011740833 0.050334036
