runs/AntRandom-v5_td3_2_action_1752885920/best_policy.pt (torch, 384069 bytes, 6 tensors)

weight f4 [256, 105]
00000000: 1eed 7ec0 8623 e6bf 7a18 b2c0 2a57 1d3f
00000010: 55d6 0240 84cb 91bf 04e2 5cbf 28b8 813f
00000020: fbde ba3d 8bf3 a33e ca8f 1b3f 9a49 6b3f
00000030: 3530 52be 2f7d e2bf 1d96 35be 6af3 2c3f
00000040: 732d 06be d018 adbe 3b98 cdbd 14ca 9d3e
00000050: 1682 4d3e 4588 9b3e ec12 8b3e 8087 fb3d
00000060: a60a 53be 93b9 113e 4992 4f3e 710f 18bf
00000070: d505 3040 6ac1 9c3f 0345 e43f c2da b33f
00000080: 45a6 06c0 388a 833d 4a88 9d3b 453b 37bd
00000090: 96ac 2f3d e571 19bd 4b18 b1bc 3619 8cbf
000000a0: 8bf5 653f a75d d4be 0193 283f 0521 303e
000000b0: bc48 df3f a26c 85be afec 8b3f 834b f23e
000000c0: 3a4f 323f 7acf 5a3d 90ca 1abc 1a42 863d
000000d0: 1d88 8f3d 5aaf 673d 4fea c2bc 1c5c 8ebb
000000e0: b777 a2bc 5ec2 7bbf 14e3 0d3f a6a5 5a3e
000000f0: 1338 a83f 0ddf c6bf ca08 b93f 3ce6 23bf
00000100: 56af 82bf a59a f13e 526d 9b3e 0f11 433f
00000110: e937 c2bd 65ec 423d aa11 b6bd 591f ae3d
00000120: 866f 83bd 6cce fc3c 1321 72bb 19c6 c13f
00000130: 613a aa3f ed76 083d 5f1a aebe 64a1 de3f
00000140: 0e26 11c0 abe3 edbe d4a8 723f e27e 2f3f
00000150: 7ef4 47be 6fcf 3dbe 2227 36bf 8dce 2c3d
00000160: bfb6 78bd 9b4d 53bd cc3d 1abc 055b 8cbd
00000170: 2cac 753d f0c3 083f 22aa 34bf 5336 b43c
00000180: f621 ef3e 16ce e6bf 95ba c3be 6f2d 35be
00000190: 7fb3 a0be 9b85 64be acb0 a2bf 49b4 813e
000001a0: 7d43 40bf 1a27 c640 932b 53bf aede 30c0
000001b0: b12e 8dc0 ae0c 7cbc 1808 90bd 5bb1 ccbd
000001c0: c6d5 6a3e 95b5 473d c42e ec3e 0a64 6d3f
000001d0: e7f3 94bc 58f2 13be 7545 c93d 4ba3 893b
000001e0: 92ad a23e 4ca0 50be bd09 bdbd 3be9 2c3c
000001f0: dc3e 30bd e94b 65bd 82c1 343d b77f 41bb
00000200: 637b 15bc 24e1 163d 7a03 fb3c bc75 34bd
00000210: fb97 36bd 5d21 eebe dfc5 cf3f c650 d93e
00000220: 69c5 88bf 3d5c 1dc0 8a9c c23d f646 f1bb
00000230: d639 bebd d8b3 70bc d08a 823d 3116 383d
00000240: 25ac f1bd a0d3 dfbe bbb3 0e3f 128a 18bf
00000250: 3298 0d3f 94e3 d4bf d817 183d 5176 95be
00000260: f1a5 3bbc 79c4 83bc c6f8 1cbe 164e 7cbe
00000270: 8ba2 91bd 8e8d 0b3b 9849 b93d a11d 0f3d
00000280: 24fa 84bd 22db 893d 2bde 8fbe e3bf f4be
00000290: 5f18 6cbf 2b0f 3e3e 7f2a b1be 23e5 38bf
000002a0: c668 043c f024 0d3e 3355 41bd e855 88bd
000002b0: 1591 e4bd c603 9abd 94bd b3bd 2afd 5aba
000002c0: c8d3 adbd bfd8 bb3b 142f 943d 1799 2a3d
000002d0: 2ef3 b03f 68c4 573f 36ba b63e eef0 1ebf
000002e0: 989a a6bf 55d6 7bbf a4aa 94bd fa9c 7c3d
000002f0: 7dc0 df3d f7d3 10be f00e a6bd 1375 94be
00000300: 6953 813d 7328 0f3d 9889 00bd 3acb 3fbd
00000310: 6e47 e33c e4ab 58bd 5173 0c40 4249 98be
00000320: b068 c6bf dbe8 11bf b4a4 56bf 9c4c 5cbf
00000330: 1950 15be 228b 623b d78f 813d e415 f0bc
00000340: 51ae 2fbd 039d 09bf db06 3ec0 8386 283f
00000350: 04e2 5bc0 103f 80c0 7b2b c43d 1cb5 c23e
00000360: e7a9 1fbf 063b 843f 2828 e2bf 72e5 d33e
00000370: ee87 dbbe 31cb 06bf 7dfb c5be 2c6d a23e
00000380: 0710 443e aa28 bbbf 47f7 25bf 90b2 0abf
00000390: b7dc 023e 621b 4ebd 4b4e 66bc a25f 4c3d
000003a0: b436 cbbd 5fd1 723b 7706 663d 5f3b 4fbd
000003b0: ab61 bdbd e893 a8bf 6587 463e 0c45 7bbf
000003c0: 1554 cebf 15d4 0bbe efad 56c0 6718 bebd
000003d0: 66f2 aa3d 7a80 0f3d ca16 5d3d 255e 2e3d
000003e0: de77 18bd 2f8f 2bbf d8a4 b1be ce7f 363f
000003f0: 63d8 70bf b9a1 843f 5c47 873f 7c32 22be
-3.9832225 -1.7979591 -5.565488 0.61461127 2.0443318 -1.1390233 -0.8628237 1.0134325
0.091245614 0.32021746 0.6076628 0.9190918 -0.20526202 -1.7694453 -0.17733045 0.6755892
-0.13103275 -0.33807993 -0.10038801 0.30818236 0.20069155 0.30377403 0.27162874 0.12281704
-0.20609531 0.14230947 0.20270647 -0.5939856 2.750356 1.2246525 1.7833561 1.4051135
-2.1038983 0.064228475 0.0048075067 -0.04473426 0.0428892 -0.037462134 -0.02161803 -1.0945194
0.89827794 -0.414777 0.6584931 0.17200096 1.7444072 -0.26059443 1.0931605 0.47323236
0.6965214 0.05342052 -0.009447709 0.065555766 0.070083834 0.056563713 -0.023793368 -0.0043444764
-0.019832475 -0.98343456 0.5542462 0.21352252 1.3142112 -1.553682 1.4455807 -0.64023185
-1.0209758 0.47188297 0.30356842 0.76197904 -0.0948332 0.047588725 -0.08890088 0.08502073
-0.06417756 0.030860148 -0.0036945983 1.513858 1.3299066 0.03331654 -0.34004495 1.7393003
-2.2679477 -0.4646276 0.9478886 0.6855298 -0.1952686 -0.18536161 -0.7115346 0.04218917
-0.060721155 -0.051587682 -0.009414148 -0.06853298 0.05997865 0.53423977 -0.705721 0.02199856
0.46705598 -1.8031642 -0.38228288 -0.17693113 -0.31386945 -0.22316591 -1.2710166 0.2533286
-0.7510298 6.192273 -0.82488364 -2.7635913 -4.4119496 -0.015383882 -0.07032794 -0.09994765
0.2293311 0.048757154 0.4612943 0.9273077 -0.018182708 -0.14447916 0.09827701 0.0042003742
0.3177305 -0.20373648 -0.09230373 0.010553653 -0.043028697 -0.055980597 0.044129856 -0.0029525587
-0.009123656 0.036835805 0.030641306 -0.044057593 -0.044578534 -0.4650983 1.623226 0.42444438
-1.0685245 -2.4587548 0.09502514 -0.0073631955 -0.09288375 -0.014691316 0.06374133 0.04494304
-0.11800412 -0.43716145 0.55742997 -0.5958568 0.55310357 -1.6631951 0.037132114 -0.2919183
-0.011453138 -0.016084896 -0.15329275 -0.24639162 -0.07111081 0.002129409 0.0904724 0.034940366
-0.06493023 0.067312494 -0.28099188 -0.47802648 -0.9222469 0.18560474 -0.34602734 -0.72224635
0.008081621 0.13783622 -0.047200393 -0.0665701 -0.11160485 -0.07520251 -0.087763935 -0.00083537644
-0.0848766 0.0057326253 0.07235542 0.041649904 1.3824213 0.8428407 0.35688943 -0.6208638
-1.3015928 -0.9837392 -0.072591096 0.061673142 0.10925386 -0.14143358 -0.08108318 -0.2899557
0.06314737 0.034950685 -0.03138122 -0.04682467 0.027744021 -0.052898303 2.1945384 -0.2974339
-1.5500698 -0.56995934 -0.8384507 -0.86054397 -0.14581336 0.0034567793 0.063262634 -0.029307313
-0.04289085 -0.53755206 -2.9691684 0.6583025 -3.43567 -4.007698 0.09578606 0.380288
-0.62368625 1.0330513 -1.7668505 0.4138599 -0.42877144 -0.52653795 -0.38668433 0.31723917
0.19146739 -1.4621785 -0.6483044 -0.54178715 0.12779509 -0.050319083 -0.014056752 0.04989589
-0.09922543 0.0037051064 0.05615851 -0.05059373 -0.09247144 -1.3170137 0.19387586 -0.9815223
-1.611941 -0.13655122 -3.354366 -0.09281998 0.08347015 0.035034634 0.05397681 0.042570252
-0.03722369 -0.67015356 -0.34696078 0.71288764 -0.9408018 1.0361854 1.0568652 -0.15839571

bias f4 [256]
00000000: e2a4 20c0 fa7e cebf 54d6 84bf 468e 19bf
00000010: 3c1b bbbf 1075 14be 3bd2 60bf 5b79 16bc
00000020: 23f8 afbf 34ad bcbe 9ad0 3abd 3274 f4bf
00000030: f315 2ec0 329d cfbf baad eebd de70 e7bf
00000040: e555 193f 7851 89be e707 67bf d2cf 10c0
00000050: 5565 74bf c1b7 cb3f 0be6 3dbf 8b6d c3bf
00000060: f7b2 95bf 2099 7dbf 4d64 c93e 9974 9dbf
00000070: 6057 e1bf e5a6 66be 2880 11c0 a888 b5bf
00000080: 48b3 53bf 527c 1ebf 4610 27bf 0728 d1bf
00000090: b10d 32c0 4b30 26bf 85e7 75bf e20a bdbe
000000a0: 4718 5abf 8434 f3bf 751b 88bf 18f0 02bf
000000b0: c320 a2bf 86ea 16c0 8b78 93be 3f3e debf
000000c0: f828 31bf 3c60 323e 2e3c 50bf 9203 92be
000000d0: 6b81 a4bf b55a ff3d 5345 e1be bfc8 a7bf
000000e0: 777b 0fc0 1cbe e5be f61e 9bbf 3725 dabf
000000f0: b40d 923f e51f d5be be79 23bf b297 b5bf
00000100: 1796 4cbf a527 68bf 1fca 22bf eb34 01bf
00000110: 78f5 c3be 1d79 d7be a1a2 94bf 7c2f 90bf
00000120: d228 f7bf f3af ccbf 18ce 61be 951b d9be
00000130: a4fd 913f 180b abbe c8c1 d0bf ce9a e1be
00000140: 6dc4 1cbf 76f6 37c0 e47e 1b3d 6a55 1ebf
00000150: 81f9 aa3f 557f 07bf 4694 773f eaf3 27bf
00000160: 5242 a4bf 0184 473f b315 a7bd 8983 5dbe
00000170: fbf5 28bf 8755 7abf 9881 17bf 959b 4bbe
00000180: 02ce b2bf 53b2 ddbf 36ea 5dbf ef54 e53e
00000190: 644d 7dbf 4d05 c53e 1343 a73e cec8 ccbe
000001a0: 84c1 22c0 3fd6 f7bf 95b7 89bf b742 46bf
000001b0: 16bb 25c0 501a e0bf 9f55 8c3e 3b88 92bf
000001c0: bced bfbf 11a1 debf c29f 8ebf 9c40 7b3f
000001d0: adde afbf 283a 0ebf 0833 e6bf 2919 43bf
000001e0: d6a8 cbbf 580e e7bf 8adb 1fbf 7608 08c0
000001f0: f971 4ebf 36fd bebe 60b0 98bf 2f12 47bf
00000200: 8016 0dbf 152f bfbf 32c6 15bf f9b5 2cbf
00000210: 6f2c 8dbf e17d 4dbe 5a8d d9bf 04e9 89bf
00000220: 9c63 f83e 173b 82bf e8d9 16bf f29d de3f
00000230: e9ec 48bf 4c29 c8bd 8140 84be 5aa8 fabf
00000240: 2728 a13e 4975 e0bf 3608 3fbd 53f0 98be
00000250: 6830 00bf 04fc 31bf e37e a5bf c298 0fc0
00000260: 4940 903e 92fa 19bd e336 39bf 0788 52bf
00000270: 63d6 be3e 8c62 03c0 8859 42bf 0c8c ecbe
00000280: 35a1 5b3e 2bc9 c13e 52ad 16bf 5d3e b6be
00000290: baf3 d5bf 5c40 d2bf 2b57 16bf ce83 11bd
000002a0: 2d7d 96bf 45aa bf3e a49f c73e c0a2 2dbf
000002b0: 08eb 32c0 c370 9ebf 23b0 07bf 7fd4 32bf
000002c0: 2a2a bdbf 8dcd 7fbe 3422 21c0 7939 a7bf
000002d0: 5b55 66bf a768 85bf c4f5 d2bf 4413 c2bf
000002e0: c4da 90bf e41a c3bf a554 abbe ac85 fcbf
000002f0: 833f 07bf bbab 3cbf 67c4 c93e 2160 ebbe
00000300: f064 003e 1f04 22c0 4589 abbe 792a b5bf
00000310: bceb 8abe 4121 a6be 53b5 24bf 38d2 8dbf
00000320: ae59 1bc0 7850 79bf 51b5 babe 1140 073f
00000330: 2444 d6bf 1e74 11bf 046b d1bf b2fe a3be
00000340: 5f37 8dbf fca2 84bd eda1 5dbf c06e 81be
00000350: aa94 543f 2521 bdbc 0b48 30be 8ea7 52bf
00000360: 6470 89bf e58e 45bf df45 963e 9ab1 a5bf
00000370: b4fa 73bf 35a8 0cc0 9979 553e c2d3 46bf
00000380: 3e3a 99bf f8fe 34bf a4d1 86be d963 56bf
00000390: 3988 dc3e a236 43bf b5fa d5bd e2b9 33bf
000003a0: af89 81be 7262 90bf 37bd d1be 16cd c4bf
000003b0: 4e8a 5ebf dc09 89bf e27a 91bf 77d6 c7be
000003c0: f8b3 bbbf 430b a0be bdc8 803f 259a d1bf
000003d0: 81bb 10bf b78d 91be 9e41 8cbf e642 1c3e
000003e0: f8cd 7ebf 061a f5be e7b8 b13f 98c2 8b3f
000003f0: 3da4 19bf 46cc 61bf d6c9 57bf 1b33 3ec0
-2.5100636 -1.61325 -1.0377908 -0.5998272 -1.4617686 -0.14497781 -0.87820786 -0.009184207
-1.37476 -0.36850893 -0.045609094 -1.909796 -2.7200897 -1.6219847 -0.116542295 -1.8081319
0.5989669 -0.26819968 -0.90246433 -2.2626843 -0.9546712 1.5915452 -0.7417914 -1.5267805
-1.1695241 -0.99061775 0.39334336 -1.2301208 -1.760479 -0.22524603 -2.273447 -1.4182329
-0.82695436 -0.6190845 -0.65259206 -1.634034 -2.7820857 -0.6491744 -0.96056396 -0.36922365
-0.85193294 -1.9000401 -1.0633379 -0.51147604 -1.2666248 -2.3580642 -0.28802904 -1.7362746
-0.6920314 0.17419523 -0.81341827 -0.2851835 -1.2851995 0.12468473 -0.43998203 -1.3108138
-2.2419107 -0.44871604 -1.2118824 -1.7042607 1.1410432 -0.41625896 -0.6385764 -1.4186919
-0.7991652 -0.9068549 -0.6358966 -0.5047137 -0.38273215 -0.4208459 -1.161213 -1.1264491
-1.9309332 -1.5991195 -0.22051275 -0.42403856 1.140553 -0.334069 -1.6309137 -0.4406342
-0.6123722 -2.8744178 0.03796281 -0.6184908 1.3357393 -0.5292867 0.9671062 -0.6560656
-1.2832739 0.77935797 -0.08158436 -0.21632208 -0.66000336 -0.97786754 -0.5918212 -0.19883569
-1.3969119 -1.7320045 -0.866855 0.44791362 -0.98946214 0.38480607 0.3266836 -0.39996952
-2.5430613 -1.9362258 -1.075915 -0.7744555 -2.5895438 -1.750803 0.27409074 -1.1447824
-1.4994426 -1.7392904 -1.1142504 0.9814546 -1.373983 -0.5555749 -1.7984324 -0.76210266
-1.59109 -1.8051252 -0.62444365 -2.1255164 -0.8064266 -0.3730256 -1.1928825 -0.7776212
-0.5511246 -1.4936243 -0.5850555 -0.6746517 -1.1029185 -0.2006755 -1.6996262 -1.0774236
0.48513496 -1.0174283 -0.5892625 1.7391951 -0.78486496 -0.09773502 -0.25830463 -1.9582627
0.31475946 -1.7535793 -0.04663869 -0.29870853 -0.5007386 -0.6952517 -1.2929348 -2.2436986
0.28174046 -0.037592478 -0.72349375 -0.8223881 0.3727294 -2.0528898 -0.75917864 -0.46200597
0.21448214 0.3784879 -0.58858216 -0.35594454 -1.6715004 -1.6425891 -0.5872676 -0.03552609
-1.1756951 0.37434593 0.38988984 -0.6782646 -2.7955952 -1.2378162 -0.5300314 -0.69855493
-1.4778492 -0.24980755 -2.5177126 -1.3064414 -0.8997399 -1.0422562 -1.6481252 -1.5162129
-1.1316762 -1.5242581 -0.33463016 -1.9728293 -0.52831286 -0.7369954 0.39407656 -0.45971778
0.12538505 -2.5315015 -0.33503166 -1.4153587 -0.27132976 -0.32447246 -0.6433918 -1.1079779
-2.4273486 -0.9738841 -0.36466458 0.5283213 -1.6739545 -0.56817806 -1.6360784 -0.32030255
-1.1032523 -0.06476399 -0.86575204 -0.25279808 0.83039343 -0.023087094 -0.17214982 -0.8228692
-1.0737424 -0.77171165 0.29350182 -1.2944825 -0.9530442 -2.1977665 0.20847167 -0.77666867
-1.1970899 -0.7070155 -0.26331818 -0.83746105 0.4307268 -0.7625524 -0.10448209 -0.7020551
-0.25300357 -1.1280043 -0.40964672 -1.5375087 -0.86929786 -1.0706134 -1.1365626 -0.3903081
-1.4664297 -0.31258592 1.006126 -1.6375166 -0.5653611 -0.28428432 -1.0957525 0.15259895
-0.99533033 -0.47871417 1.3884553 1.091876 -0.6001623 -0.8820232 -0.8429235 -2.9718692

weight f4 [256, 256]
00000000: 5cd7 b4bf 7586 a0bf 0695 29bd b91c 3bbe
00000010: 9ea8 24bf 975e 46bf ed64 64be fe30 843d
00000020: 9380 20bf ab9f 2dc0 ce39 ab3e b17f 49bf
00000030: ee48 7fbe f65f 4fbe abdc a63e b897 b6bf
00000040: 8f1c a9bf 6034 053f adfc 31bf b485 d2bb
00000050: 9a56 3abf 5a00 3c3e b732 503f 9344 1a3f
00000060: f4de e9bf cc3d 88bf a0d4 ddbf 6319 06bf
00000070: 9748 07be ba1e 6abf 1955 a4bf 91eb 62bf
00000080: a862 ff3e 606b debe cccc f0be 20e6 b0bf
00000090: 6c79 f5bf a43a 15bf 5949 143f 405c dbbd
000000a0: 405a e73d 8855 9fbf 562f 20bf de43 0abf
000000b0: 0227 bdbe 79f7 73bf eecc e0be 0e01 0dbe
000000c0: 54e5 cc3d 17dc a7be e2f3 6cbe 80bf 5bbf
000000d0: 1085 c9bc 6d12 59bd d036 19bf 4cc8 23bf
000000e0: edc2 5d3f 5dd0 a3be 309f acbe 33b2 54bf
000000f0: a61a e2bf fe52 fa3e be20 5fbf 1912 843f
00000100: 4ed8 89bf 39f0 253e 11f7 c23f 140c 38bf
00000110: ed35 11be a72d 18c0 58c1 3cbe 28c7 193e
00000120: 1448 20bf 088f 6dbe 24c3 efbe 19f4 74be
00000130: 7058 173d 8549 d0bd 1c98 f33f b1e1 4fbf
00000140: d931 a1bf dc9b d63e fb6e 86bf d7d9 40bf
00000150: d1be 1fbe 7f1e 2ebf bebc c3be d519 21bf
00000160: 6012 30be ca81 a3bf b73d 9abf 0eae b33d
00000170: 70c2 93bf 6a77 6ebf 6f66 9fbf 84bc b0bf
00000180: 67bd 113f d09d 1fbf 7a1d cfbe dfa5 f7be
00000190: a58b 9fbb 6afc f6be cd08 7ebf 41f3 25bf
000001a0: 692f 813f a2a1 c93c 4fb7 4d3e 7e3d 2e3f
000001b0: 44ef 0d3f a992 aebe d1d1 01bf a2f4 5a3e
000001c0: 4720 6bbf 21c4 0cbf 2278 a5bf 1951 8fbe
000001d0: 58e8 553d 1d91 a1be df5c 093d c194 d3bd
000001e0: 7b58 dbbf 6fae 08bf bb9c 9abf 4da9 a0bf
000001f0: 5e36 0dbe fb49 a4bf fef4 14bf 3154 8fbf
00000200: 02a8 4dbe a5c0 163b 3073 f5bc 2b8d 3cbf
00000210: 591c 89bf d73f 9abf b577 c2be ea29 05bf
00000220: e15c 48bf af46 433f 6668 a1be 1a00 50be
00000230: 287c 76be b65e babd 5351 44bf 2691 a33e
00000240: 792d e4bf 1c37 763d 1404 a3bf eed9 88bf
00000250: 9466 dd3e ef06 b7bf 6f53 b7be 8600 bbbf
00000260: 826d e8bd 43d1 b8be 8fe7 3abf bd97 683f
00000270: 70fb 3abe 1d94 99bf fbf8 41be 6a88 92be
00000280: 092e 1fbe 7646 ccbf 9821 7cbe 3d58 84bf
00000290: 8032 713f 7ce8 debe 2af0 c2be 3351 75bf
000002a0: a8fd 90bf 70b9 93bf f426 db3e f7ae 80be
000002b0: 476d 38bf a8c4 8a3c 2252 55bf 3abc c0be
000002c0: 89d6 0dbf 55cb 51be 3b22 d8be d3ce 843f
000002d0: 6646 bdbf f38d 9abf c5f2 49bf 90eb 62bf
000002e0: 9b62 34c0 be2f 9bbe f492 8cbf 17f1 25bf
000002f0: 2a46 80bf ee6c 7c3f 767f 19c0 9792 8bbf
00000300: fbf3 52be c12a bfbe 575d 23bf 29a2 193b
00000310: 4e8d 6cbe 6708 debe 2007 6d3f 4c03 a4be
00000320: a155 9abe 96de afbe 7a48 3b3f 2aea dfbe
00000330: 00be 353f 314e aebf a207 1ebd 9283 c1bc
00000340: e646 3fbf 7fdf 7ebf 5427 233f f927 fbbe
00000350: a34a 7bbf cd35 7bbe b692 65bf 4035 b5bf
00000360: b457 f0bf 85a1 e6bd 5454 3dbf 3c95 71be
00000370: 5d44 84bf d6d6 de3e e9ac 52bf f2be 90be
00000380: 6217 a63e 238b 97be 071f 143f 3e3e 123f
00000390: 4dc0 52bf ef9c 5dbf a18b 10bf b277 7dbe
000003a0: f408 bdbf 44fb 833f f96d 063e ab3d 2dbe
000003b0: 5fa5 b0bf 6368 00bf 4f3a 97bf d497 a93d
000003c0: 36ee edbe 0bac 4abf ae9b aabf f360 cbbf
000003d0: bad6 87be b448 8cbf c102 adbe e258 dbbf
000003e0: 93d6 9abf 69e4 493f 7eb1 7dbf 898e a23f
000003f0: f361 b4bf c10f bebe 797b d3be 8f94 15bf
-1.4128222 -1.2541033 -0.041401885 -0.18272676 -0.6431979 -0.7748808 -0.22304125 0.06454657
-0.6269619 -2.7128704 0.3344254 -0.78710467 -0.24930164 -0.2025145 0.3259023 -1.4265051
-1.321184 0.5203304 -0.6952618 -0.00642463 -0.72788393 0.18359509 0.81327385 0.60260886
-1.8271165 -1.0643859 -1.7330513 -0.5238249 -0.13211285 -0.91453135 -1.283847 -0.88640696
0.49879956 -0.43441296 -0.47031248 -1.3820229 -1.917768 -0.58292603 0.5792442 -0.10710955
0.11296511 -1.2447977 -0.6257223 -0.5400981 -0.36943823 -0.9529949 -0.4390635 -0.13769934
0.10004678 -0.32785103 -0.23139909 -0.8583908 -0.024599582 -0.052996088 -0.5984926 -0.63977504
0.8662556 -0.31994906 -0.337152 -0.8308441 -1.7664382 0.48891443 -0.87159336 1.0318023
-1.0769136 0.16204919 1.5231649 -0.7189343 -0.14180727 -2.3777864 -0.1843313 0.15017378
-0.6260998 -0.23199093 -0.46828568 -0.23921241 0.036949575 -0.10170273 1.9030795 -0.8120375
-1.2593337 0.41915786 -1.0502619 -0.753324 -0.15600134 -0.68015283 -0.38229936 -0.6293004
-0.1719451 -1.2773983 -1.2050084 0.08773433 -1.1543713 -0.9315096 -1.2453135 -1.380753
0.5692963 -0.6235018 -0.40452176 -0.48368737 -0.004868942 -0.48239452 -0.9923218 -0.648243
1.0092593 0.024613205 0.20089458 0.6806258 0.55443215 -0.34096268 -0.5071078 0.21382383
-0.91846126 -0.5498677 -1.2927287 -0.2799156 0.052223533 -0.31556025 0.033535834 -0.10331107
-1.7136377 -0.53391165 -1.207908 -1.2551666 -0.1379027 -1.2835077 -0.5818633 -1.1197568
-0.20083621 0.0023003009 -0.029962152 -0.73652905 -1.0711776 -1.2050732 -0.37981954 -0.5201708
-0.7826672 0.7627973 -0.31524962 -0.20312539 -0.240708 -0.09100096 -0.7668659 0.31946677
-1.7826377 0.06011115 -1.273562 -1.0691507 0.43242323 -1.4298991 -0.35805842 -1.4609535
-0.11349012 -0.36097154 -0.7300958 0.90856534 -0.18259978 -1.1998326 -0.18942635 -0.286197
-0.15544905 -1.5959003 -0.2462219 -1.0339428 0.9421768 -0.43536747 -0.38073856 -0.95827025
-1.132741 -1.1540966 0.42803156 -0.25133488 -0.72041744 0.016939476 -0.8332845 -0.37643605
-0.5540548 -0.20487721 -0.42213616 1.0375618 -1.4787109 -1.207457 -0.7888606 -0.8864069
-2.8185184 -0.30309862 -1.0982347 -0.64821 -1.0021412 0.98603714 -2.3984046 -1.0904111
-0.20600884 -0.37337306 -0.638143 0.0023442602 -0.23100778 -0.43365785 0.92588997 -0.32033765
-0.30143455 -0.34349507 0.73157465 -0.4373334 0.7099304 -1.3617612 -0.038581498 -0.023622308
-0.7471756 -0.9955978 0.63731885 -0.49053934 -0.9816076 -0.24532242 -0.8967699 -1.4156876
-1.8776765 -0.11261276 -0.739568 -0.23592085 -1.0333363 0.43523282 -0.8229509 -0.2827068
0.32439715 -0.2959834 0.57859844 0.57126224 -0.8232468 -0.86567587 -0.56463057 -0.24752691
-1.4768357 1.0311055 0.13127889 -0.16918056 -1.3800467 -0.5015928 -1.1814669 0.08280912
-0.46470803 -0.79168767 -1.332876 -1.5888962 -0.2653101 -1.0959687 -0.33791164 -1.71365
-1.2096733 0.7886415 -0.99098957 1.2699748 -1.4092392 -0.37121394 -0.4130514 -0.5842981

bias f4 [256]
00000000: 93f4 b7bf ef88 dcbf dbfa 21bf 5b58 b63d
00000010: 4d92 3abe ee2b ab3d c92c ee3d f9b6 4abf
00000020: 6cbe 9abf 777f 223f 3afd 2ebe 6b56 abbe
00000030: 3899 7d3f 3841 b8bf b107 dbbf 8482 83bd
00000040: 76af 31be 0ef4 d3bd 4369 f7be 63de 5b3f
00000050: 038c 0bbe d0e1 2abf 317d 983e 7f04 0bbf
00000060: f9e0 4bbc dc71 bebf ec08 b2bf 7295 8dbe
00000070: d231 adbf 647a 93bf b57a 86bf f1db 11bf
00000080: 2d6c 5dbf 647f 113f 7dd6 b4bf 72d4 7abf
00000090: 0a82 50bf f08f 8bbe ceb2 4cbf ce80 15be
000000a0: f414 35be 495f 673f 6d43 96bf aebe 46bf
000000b0: 3fd9 f1be 0110 86bf 35c9 80bf 3c8c 33bf
000000c0: ac0d 173e 0478 1abf 3417 a43e 96d4 9ebe
000000d0: ebeb 09be cb58 e2bf 86aa 88be 2786 c73f
000000e0: ca2f c4bf 910a 66bf c7a9 a5be 168e 68bf
000000f0: 54e1 ad3f 35b8 28be cdf8 23bd 9d0d 31bf
00000100: 147e 99bf 72e5 c0bf 88c2 db3d 720e 953e
00000110: 71f5 0c3f fb1b f8be db3c 4fbf c862 e5bf
00000120: 9753 a9be c14e 75bf 66b2 16bf 2edf 61be
00000130: ea61 543f 4ea5 51bf a060 8c3c 7609 cebf
00000140: b881 8ebf 82d5 35bf 8cd1 52be 70c3 93bf
00000150: 8824 0ebe 59f8 a0bf a168 12bf d18d e1be
00000160: 9167 5ebf 3228 1ebf b515 84bf b5b7 90bf
00000170: c7b7 52bf a6c7 6bbf 1f8d 94bf 4146 1cbe
00000180: ce4a cbbf 21cc 693f 1d1b 06be 0e7f 09c0
00000190: 8c76 ff3d 0f8a 6abf 7118 af3f 5744 3abf
000001a0: 3cd4 0a3f dd2b 73bf 93d0 f63d efac 19bf
000001b0: ea18 f33e 9960 0ebe e287 81be 392a 983c
000001c0: f12b adbf 20ad 6ebe 4636 cbbe b43c debe
000001d0: ac95 fdbe df5f 44bf 0cbb be3f 6592 50be
000001e0: f6bf 57bf 347e 85bf 85bc d5be 9182 78bf
000001f0: 812f 80bf 0ea5 623e 1b1d 95bb be43 c9bf
00000200: b06f 8abf b55d ebbf 8293 6fbf a00b fbbd
00000210: 5112 86bd e9d7 8ebf 02c1 1fbf 033e f0bd
00000220: 5d10 843e 9611 08bf b061 44c0 d250 0fbe
00000230: 11bf 99bf b95f 54bf 97a0 09be 0875 84bf
00000240: 3714 803e 21ed 37bf c7df 1cbc 19ec 60bf
00000250: b95c ed3c cfc5 14c0 beb8 803c 4a46 f9bd
00000260: 3200 22bf cc8f f2be a82a 0b3f 2ef1 4bbe
00000270: 6b94 afbe 2d72 7c3e ca3f 1dc0 243e d5bf
00000280: 0c15 54bf 9bc4 ebbe dc33 0c3e 7fa9 54bf
00000290: 8af5 fdbe 7722 efbe f989 803f a5d3 d73f
000002a0: 6b01 5ebf 9abc 89be 86fd b8bf f3dd d2bf
000002b0: d0dc 8bbf 6a92 f5bd 67a3 1cbf 74f1 473f
000002c0: 8779 a9bf 1fa2 533f 751c 8ebf 743e d13e
000002d0: 8c77 2cbf 3936 c6bd 8aea f6be a412 83bf
000002e0: e56e d9bf da93 9abf f194 d53e 38a5 b33f
000002f0: e1ec 1c3f 4c6a 1bbf 25a1 82bf d192 5a3e
00000300: a36d 62be 3dd0 90bf 23ee 98be 959f 25bf
00000310: cf03 9cbf 9d48 f8be b149 473f 461d b1bf
00000320: 8e08 5abe a1d4 a0bf 311e b8be 17b4 3fbf
00000330: 56a8 6bbf 5b8c 463d f351 01c0 a0e2 4abe
00000340: cf64 59bf a95f 173f 4009 9c3f 4f21 503d
00000350: c926 56bf 6b6f 64be 2292 b4bf ac2a 76bf
00000360: 9f5c a7bf a0ce 4abf aefc 20bf 5407 a43d
00000370: 2cdc 85bf b266 b23e 64dc 053e a6f1 2fbf
00000380: 574d f6be edb9 9bbe 81f2 81bf a3d1 d1bf
00000390: 621d 16be 14b0 37bd 80d6 23bf 45ce 9ebd
000003a0: 8e54 1fbe c2fd 43bf de3b 87bf e241 b0be
000003b0: 68f2 57bf 05d3 493e b42a 28be a651 f53d
000003c0: 4952 15bf 5267 7bbe af2b 8bbf 5f79 56be
000003d0: bcf3 41be fd61 893d efdf 37bf 7740 083e
000003e0: 4446 39bf 6225 e2bd 109f 4f3f d814 65bf
000003f0: 4222 e5be 8976 4cbf 147b 133e 4254 403d
-1.4371513 -1.7229289 -0.632734 0.08903571 -0.18219872 0.08357988 0.11629636 -0.79185444
-1.2089362 0.63475746 -0.17088786 -0.3346437 0.9906192 -1.4394903 -1.7111722 -0.06421378
-0.1735209 -0.10349284 -0.48322496 0.8588621 -0.13627629 -0.6675081 0.29783013 -0.54303735
-0.012443774 -1.4878497 -1.3908973 -0.2765308 -1.3530829 -1.1521726 -1.0506197 -0.5697623
-0.8649319 0.5683501 -1.4127957 -0.97980416 -0.81448424 -0.27258253 -0.79960334 -0.14599916
-0.17683774 0.9037977 -1.1739327 -0.77634704 -0.47236058 -1.0473634 -1.0061404 -0.70135856
0.14751309 -0.6033938 0.32048953 -0.31021565 -0.13468902 -1.7683347 -0.266926 1.5587815
-1.5327084 -0.89859873 -0.32356092 -0.90841806 1.358439 -0.1647652 -0.040032197 -0.691614
-1.1991601 -1.5070021 0.10730463 0.29112583 0.55062014 -0.48458847 -0.80952233 -1.7920771
-0.33071586 -0.95823294 -0.58865964 -0.22057793 0.82961905 -0.8189286 0.017135918 -1.6096637
-1.1133337 -0.7102891 -0.20587748 -1.1544018 -0.13881123 -1.257579 -0.571909 -0.4405351
-0.8687678 -0.61780083 -1.0319124 -1.1306063 -0.8231167 -0.92101514 -1.1605567 -0.15261175
-1.5882204 0.913271 -0.1309628 -2.1483798 0.12473783 -0.9161691 1.3679334 -0.7276053
0.54230094 -0.94988805 0.12051501 -0.600295 0.47479945 -0.13904037 -0.25298983 0.01857482
-1.3529035 -0.2330823 -0.39689845 -0.43405688 -0.49528253 -0.7670879 1.4900832 -0.20368345
-0.84277284 -1.0429139 -0.4174539 -0.9707423 -1.0014497 0.22133276 -0.004550589 -1.5723798
-1.0815334 -1.8387972 -0.93584454 -0.12258077 -0.06546462 -1.115964 -0.6240388 -0.11730578
0.25793734 -0.53151834 -3.0684624 -0.13995674 -1.2011434 -0.8295856 -0.13440166 -1.0348215
0.25015423 -0.71846205 -0.009574837 -0.87860256 0.028974878 -2.3245733 0.015713092 -0.1217161
-0.6328155 -0.47375333 0.54361963 -0.19916221 -0.3429292 0.2465293 -2.4570184 -1.6659589
-0.82844615 -0.46048436 0.13691658 -0.8307113 -0.49601394 -0.46705982 1.0042106 1.6861464
-0.86720914 -0.26901704 -1.4452369 -1.6473984 -1.0926762 -0.11990817 -0.6118683 0.78102803
-1.3240212 0.8266925 -1.1102434 0.4086796 -0.67369914 -0.09678311 -0.48225814 -1.0240064
-1.6986967 -1.2076371 0.41715196 1.4034796 0.6129895 -0.6070907 -1.0205427 0.21345069
-0.22112136 -1.1313549 -0.29869184 -0.6469663 -1.2188662 -0.484929 0.7784682 -1.3837059
-0.21292326 -1.2564889 -0.35960534 -0.7488417 -0.92053735 0.048473697 -2.0206268 -0.19813013
-0.84919447 0.5913034 1.2190323 0.050813016 -0.8365293 -0.22308128 -1.4107096 -0.9615886
-1.3075141 -0.79221535 -0.6288556 0.0800921 -1.0457816 0.34843975 0.13072354 -0.687281
-0.4810588 -0.30415288 -1.0152131 -1.6392101 -0.14659646 -0.044845656 -0.63999176 -0.077541865
-0.15559599 -0.7655908 -1.0565145 -0.34425265 -0.8435426 0.19709404 -0.1642254 0.11978464
-0.5832868 -0.24551132 -1.0872706 -0.20944737 -0.18940634 0.06708143 -0.7182607 0.13305841
-0.7237284 -0.110422865 0.81102085 -0.8948493 -0.447527 -0.7986837 0.1440242 0.046955355

weight f4 [8, 256]
00000000: aa99 b3be 0e94 dc3f 4658 ad3d e673 ec3c
00000010: c890 79bb a216 a9bf 4cfe 713c 4b92 dabc
00000020: 8e4c 123d 1324 11bf 63dc 1b3e 2837 8abc
00000030: 2832 c6bd abdf 963e 300f 38bd 2f95 c73f
00000040: 043c d53d 9859 b4bf 80ce fdbe 5fcc ccbd
00000050: f4b0 ce3c a9b4 4dbe c5d2 15bc bce6 ddbd
00000060: 2ab2 16bd 930e b93d 28c3 6ebc a474 3b3e
00000070: 79d0 50bd e74a dabe daa6 183f e7a6 9e3f
00000080: afb3 e63d f267 15bd 85c7 80bd ed24 b2bf
00000090: e829 e73e 9435 283e 5524 283f 23d9 9e3d
000000a0: 0b53 abbe de36 9cbb ec3e 2fbf f426 10bd
000000b0: d775 933d 8d94 863e 300a f8be fe58 b6bf
000000c0: b099 e43c ab5f bebc 1d3b 2abe 0405 193d
000000d0: fd36 59bc 7b2e 9cbe b91d fabd bd47 cdbc
000000e0: 1269 7abe 40c2 183d 4868 413f 3247 74bf
000000f0: c345 a93c 7e91 a53c 45fd 88bd 2c96 a9be
00000100: 434b 5abe fcd6 e5bb e60e bdbe 92d7 473b
00000110: 27d6 acbe 001c a43f 09ee 9cbf ae32 f7bd
00000120: 2e2b 8ec0 e298 263f acf1 4ebe ac91 a43c
00000130: a290 3abe 6608 62bb 74e5 91bf a386 5dc0
00000140: fc12 37be 9e4b 32be 3b65 6cbf 3e6f ea3f
00000150: 479e 483d eb33 c53e 782b 8bbe 1d99 6a3e
00000160: b519 773f 614a 2fbf 7c0a 1abf 1d11 023e
00000170: 6b99 5f3e 85f0 49be 2397 a03f 84a9 943d
00000180: 9bd0 33be e4db 333d 1c2b 3dbd e8a7 6fbe
00000190: 117e 0fbf 8633 6f3e 0655 8b3a 0da5 e3be
000001a0: 4c9d 683e 0b19 cfbc c728 983c 1579 5f3f
000001b0: 6f03 b0bc c943 96bc e267 153e 4748 e5bc
000001c0: 1160 41bf 6cca a63f af7b ccbd 261e 793f
000001d0: a3e2 63be dde9 a13c 8d3f 43bd 0485 303b
000001e0: 426b 09be 67d0 81bd 81fd 8dbd 6a4a 903e
000001f0: 281b e63f 7c49 39bb efec df3d 4cc1 063e
00000200: aac8 e73d a17a 48be 35da 8ebf 20f1 19bd
00000210: f509 9abc 8c0c cdbf 261a 48be 19bc 86bc
00000220: 87a2 a33f 45a2 193f 8c33 cdbc 1776 8f3d
00000230: 681f 14bd 3216 5c3e d116 a03d 9860 993d
00000240: 3b5a 063f 656b 323e d2aa 2cbc 1dac 1b3f
00000250: a717 553e 2b27 be3e 6cd3 febe 2076 dbbd
00000260: 4b35 833d d19f 473f 901f 03bd 6124 823d
00000270: 796d 313e ab4c 70bc 28b5 483f 8f88 5ebf
00000280: 015d 17bd d2d1 9dbc 91e6 4cbe 437a 673e
00000290: dab7 80be 84d5 5ebe 0ef4 2fbc c343 4b3b
000002a0: b030 e53f 8c19 e2bd 7ca3 bbbf 3f9f fc3c
000002b0: 98c0 f0be fd23 bf3e 7070 e0bb 2171 d3bc
000002c0: 70c5 78bd 5ffb 7a3d 2377 1fbf bff4 17bd
000002d0: 0b3c dcbe fdd9 c7bc 0efb c03c 7c3b 7bbf
000002e0: c3b0 5fbf 66a8 23be 64bf 7ebe 4d5e 813c
000002f0: 49ce 85bd b20e df3b 1dca de3f 670d d73c
00000300: d9de 993e b2f1 0c3e cd33 4a3d c0b3 6fbd
00000310: 65dc b73e 5b0a 2fbc 178c d13a f6b2 40bd
00000320: d10a 18bf f2df e1be dcf2 23bf a725 603e
00000330: 6b16 54be 0e11 17bf fbb2 14bc b9e0 30bd
00000340: f37d 7f3e e97f 2c3c aada 013d 38d1 313e
00000350: 6d96 4340 2401 733f 48d3 0f3c 9513 4c3f
00000360: 16ab 653e 0613 07bf 0106 81bf 7c73 3dbc
00000370: ca1d 96be 43ca c23b dd3b 763d 1f4c a73f
00000380: ab88 01be 5c9d 4bbd 69cb e5be 421c babd
00000390: 052a 03bc 167d 263f c241 ccbd 2fa4 e7bc
000003a0: 3fcd f53c 17f4 b4bd 79ab efbe e3d4 093d
000003b0: 4844 2dbf 8c9b c0bf 2f08 db3f 6138 623e
000003c0: 017d 1a3e 48d1 213e bef4 8ebe ba8c 86bb
000003d0: b0fe 0cc0 916a 05be cbee a13d 2ea9 9b3a
000003e0: 8ed5 f73c 4915 27be 3ac9 b9bc e4db b33e
000003f0: 169f 993f 13a3 423e d05d 0b3f 2de3 7bbc
-0.35078174 1.7232683 0.084641024 0.028863858 -0.003808068 -1.3210032 0.014770102 -0.026681086
0.03571754 -0.5669567 0.1522079 -0.016872004 -0.09677535 0.2946752 -0.04493636 1.5592402
0.10411838 -1.4089842 -0.4957161 -0.09999918 0.025230862 -0.20088448 -0.00914449 -0.10835025
-0.036791004 0.09035983 -0.014572896 0.18306214 -0.050980065 -0.4263527 0.59629595 1.2394685
0.11264741 -0.036476083 -0.06288055 -1.3917519 0.4514916 0.16426688 0.6568044 0.07756259
-0.33461794 -0.004767283 -0.68455386 -0.0351934 0.072002105 0.2628521 -0.48445272 -1.4245908
0.027905315 -0.023238977 -0.16624112 0.0373583 -0.013257739 -0.30504212 -0.122127004 -0.025058622
-0.24454144 0.037294626 0.75549746 -0.95421135 0.020663148 0.020210978 -0.06688932 -0.33122385
-0.21317773 -0.0070141535 -0.3692543 0.003049348 -0.33757135 1.2821045 -1.2260143 -0.12070213
-4.442771 0.6507703 -0.20209378 0.020088993 -0.18219236 -0.003448987 -1.1398149 -3.4613426
-0.17878336 -0.17411658 -0.92341965 1.8315198 0.04897907 0.38516173 -0.27181602 0.2290997
0.965236 -0.6847287 -0.6017225 0.1270184 0.21835868 -0.19720657 1.2546123 0.07258895
-0.17560045 0.043910876 -0.04618369 -0.23403895 -0.5605174 0.23359498 0.0010630197 -0.4446186
0.22716254 -0.025280496 0.018574132 0.8729413 -0.021486012 -0.01834287 0.1459041 -0.027988566
-0.7553721 1.3030524 -0.09984528 0.9731163 -0.22254424 0.019764835 -0.04766803 0.0026934752
-0.13419822 -0.06338578 -0.06933118 0.28181773 1.7977037 -0.002827256 0.10933863 0.13159674
0.113175705 -0.19578029 -1.1160342 -0.03758347 -0.018803576 -1.6019454 -0.19541225 -0.016447114
1.2783974 0.6001323 -0.025048994 0.07004946 -0.036162764 0.21492842 0.07816852 0.07489127
0.5248143 0.1742378 -0.010538774 0.608095 0.20809804 0.37139258 -0.49770677 -0.1071589
0.06406649 0.77978235 -0.032012522 0.06354595 0.17326917 -0.014666717 0.7840142 -0.8692712
-0.03695393 -0.01926509 -0.20009829 0.22605233 -0.25140268 -0.21761137 -0.0107393395 0.003101573
1.7905483 -0.11040029 -1.4659266 0.030837653 -0.47021937 0.37332144 -0.006849341 -0.02581078
-0.060735166 0.061274882 -0.62291163 -0.037098642 -0.4301456 -0.024395937 0.023557212 -0.9813764
-0.8737909 -0.15982208 -0.24877697 0.015792036 -0.065334864 0.0068071717 1.740543 0.026251508
0.30052832 0.13764074 0.049365807 -0.058521032 0.35910335 -0.010683621 0.0015987185 -0.04704567
-0.59391505 -0.4411617 -0.6404245 0.21889363 -0.20711677 -0.590104 -0.009075875 -0.043183062
0.2495039 0.010528543 0.031702675 0.17364967 3.0560563 0.94923615 0.008778401 0.7971738
0.22428545 -0.527634 -1.0079957 -0.011563178 -0.29319602 0.0059445216 0.060115684 1.3070105
-0.12649791 -0.049710616 -0.44881752 -0.09087421 -0.008005624 0.65034616 -0.0997348 -0.028276531
0.030005096 -0.08835619 -0.4681051 0.03365029 -0.67682314 -1.5047469 1.7111872 0.2209182
0.15086748 0.1580249 -0.27921098 -0.0041061314 -2.203045 -0.13028933 0.07906874 0.0011875981
0.030253198 -0.16316713 -0.02267896 0.351287 1.2001674 0.1900752 0.5444002 -0.015373987

bias f4 [8]
00000000: 4bcc 82bd bf10 653e 30f0 733e 4b7c 6d3e
00000010: 55f0 163e 12a1 953e edc8 203f b196 eabe
-0.06386622 0.2236967 0.23822093 0.23191945 0.14740117 0.2922445 0.6280659 -0.45818093
