runs/AntRandom-v5_td3_3_action_1753032245/best_policy.pt (torch, 384069 bytes, 6 tensors)

weight f4 [256, 105]
-1.5884913 -0.8133759 6.3011003 2.8657832 -0.72877765 0.02144117 -0.11968 -0.685538
-0.20472102 -1.4555265 0.67238843 0.10568373 0.14099209 -0.0846111 -0.34347194 1.2689193
0.99583226 -1.5538534 -0.47076046 -0.021507502 -0.41568175 0.027359268 -0.19132827 -0.054585733
-0.14185804 -0.06550467 0.04926283 0.5150428 -2.1386843 0.3253947 -0.8644313 -0.15471552
-0.6342847 -0.08752811 -0.084582075 -0.048022598 -0.02564159 -0.09674596 -0.04569043 -0.9140339
0.44282058 0.99225783 0.07317291 0.18937613 -1.2228614 -0.03356165 0.53216124 0.53244245
0.22753768 -0.3146935 -0.5287726 -0.039405636 -0.0138452705 0.086237304 0.06269541 0.024332551
-0.035007134 0.9774686 -0.14641595 -0.5712576 -0.3343294 -1.0719941 -1.763365 -0.18891318
0.2628551 0.16331421 0.9241489 0.163659 -0.7262906 0.04364462 0.02099257 0.08041085
-0.044268787 0.0014552864 0.059966236 -0.12757531 0.5452983 0.06873818 -0.1632566 0.6701965
-0.53158444 0.4297077 -0.2102421 -0.46724325 0.27376413 0.34565073 -0.8857218 -0.08612135
-0.064854816 -0.033278536 -0.039683726 0.028824985 -0.08183062 0.14232668 -1.003436 -0.43917838
2.5133245 -0.063651875 -1.1821848 0.78537655 0.72954845 -0.7596722 0.56237626 -0.7967365
-0.63579315 0.48190695 -0.079397984 -1.3935906 -14.689444 1.3082407 -0.27926624 -0.46248746
-0.17650399 -2.263261 0.31740096 -0.4674994 0.42305145 2.1909 -0.24529754 -0.009875598
-0.106463335 -0.21702103 -0.22525223 0.3014454 0.035618518 0.03946266 0.07396901 -0.158405
0.05254128 -0.12690684 9.70518e-05 0.07868595 0.28125152 -0.55938274 0.29526922 -0.801652
-0.5533945 -4.1428823 -0.09182108 -0.012922968 -0.09402944 0.0011955654 0.0043089124 0.03176052
2.196031 0.81767106 -0.0041430383 1.2929449 0.31732744 -6.1500645 0.15900671 0.07242242
-0.11190913 -0.16960657 0.0046282266 0.04232878 0.073468514 0.0033384112 0.024731666 -0.03541389
-0.07822249 0.009338913 -0.0480234 -1.3655434 2.04608 -0.5830322 -0.25945705 0.5466543
0.039024267 -0.14993364 0.03320896 0.018278882 0.24982494 0.4495643 0.010732482 0.045060698
-0.050400306 0.07101948 0.06507758 -0.04901074 -0.19266176 -0.50526685 2.1550443 0.11679012
1.8297423 -3.177162 -0.33167705 -0.11078769 0.034465477 -0.3649488 -0.11303753 -0.16018075
-0.054965552 0.010205421 0.03528654 0.052418053 0.0055062 0.023021463 1.3872494 -0.72508126
-0.06879386 0.12755235 0.383887 -3.4402876 -0.28626496 -0.025972765 -0.13452888 -0.27993056
-0.23494664 -0.01753402 -1.7740705 -2.1785076 -1.9405531 -7.6001334 -3.0345433 -3.2098289
0.76078546 -3.6149676 0.8299953 1.5334538 0.21893723 -0.78922683 0.82358235 -2.5708394
-0.86514544 0.75699055 0.14880316 0.3191775 -0.40024063 0.4091137 0.019224059 -0.5469553
0.3712272 0.22636765 -0.29720172 0.6916763 -0.35181397 1.9500456 -0.17095643 -1.6123384
-0.5389206 1.0386559 -1.3212137 -0.010573544 0.036582187 0.06259023 0.023117976 0.06305398
-0.030484976 -0.4232182 -1.0844041 0.29054776 0.70984966 0.12668486 -1.3897073 0.72363853
00000000: af53 cbbf 6739 50bf 9da2 c940 fe68 3740
00000010: 2c91 3abf 64a5 af3c ca1a f5bd 6b7f 2fbf
00000020: 63a2 51be b14e babf a621 2c3f b670 d83d
00000030: 3b60 103e 9648 adbd 8edb afbe f36b a23f
00000040: ddee 7e3f abe4 c6bf 8407 f1be 8030 b0bc
00000050: 3dd4 d4be 8b20 e03c 8feb 43be 4a95 5fbd
00000060: 3c43 11be 5027 86bd d2c7 493d d8d9 033f
00000070: 34e0 08c0 229a a63e 5f4b 5dbf bf6d 1ebe
00000080: 7b60 22bf f041 b3bd 5e39 adbd 58b3 44bd
00000090: 500e d2bc bf22 c6bd e325 3bbd 20fe 69bf
000000a0: 61b9 e23e 9c04 7e3f aedb 953d d1eb 413e
000000b0: b986 9cbf f177 09bd b83b 083f 264e 083f
000000c0: a3ff 683e 821f a1be a45d 07bf ce67 21bd
000000d0: 46d7 62bc 2f9d b03d 7366 803d 0f55 c73c
000000e0: a463 0fbd 623b 7a3f 10ee 15be f03d 12bf
000000f0: 392d abbe 1a37 89bf f2b5 e1bf 7572 41be
00000100: f294 863e d73b 273e 0695 6c3f 3a96 273e
00000110: 2eee 39bf b3c4 323d 9cf8 ab3c 72ae a43d
00000120: 3053 35bd 4fbf be3a 289f 753d 1aa3 02be
00000130: ab98 0b3f 9ac6 8c3d bd2c 27be ff91 2b3f
00000140: eb15 08bf a602 dc3e b449 57be 823a efbe
00000150: d02a 8c3e 22f9 b03e aabe 62bf 6460 b0bd
00000160: 9ad2 84bd 134f 08bd 678b 22bd 6022 ec3c
00000170: d096 a7bd 16be 113e 9770 80bf fddb e0be
00000180: 4fda 2040 ea5b 82bd d551 97bf 700e 493f
00000190: b0c3 3a3f e179 42bf e4f7 0f3f ecf6 4bbf
000001a0: 57c3 22bf 82bc f63e 699b a2bd 2d61 b2bf
000001b0: f607 6bc1 6e74 a73f fcfb 8ebe 28cb ecbe
000001c0: 76bd 34be 45d9 10c0 6182 a23e 155c efbe
000001d0: 339a d83e b537 0c40 472f 7bbe 43cd 21bc
000001e0: 7309 dabd c33a 5ebe 85a8 66be 0d57 9a3e
000001f0: b9e4 113d 99a3 213d 107d 973d ec34 22be
00000200: 8635 573d def3 01be 4a88 cb38 1926 a13d
00000210: 3300 903e b533 0fbf 872d 973e 1139 4dbf
00000220: 43ab 0dbf 7e92 84c0 b10c bcbd dbba 53bc
00000230: 8292 c0bd 85b4 9c3a c731 8d3b 5217 023d
00000240: c68b 0c40 e452 513f 53c2 87bb 387f a53f
00000250: be78 a23e 54cd c4c0 a8d2 223e 3552 943d
00000260: 9d30 e5bd 58ad 2dbe 61a8 973b f160 2d3d
00000270: a976 963d 3fc9 5a3b 109a ca3c 280e 11bd
00000280: 1d33 a0bd 3d02 193c 2fb4 44bd 20ca aebf
00000290: faf2 0240 9941 15bf 8ed7 84be 89f1 0b3f
000002a0: e9d7 1f3d 3488 19be 1e06 083d 98bd 953c
000002b0: 1cd2 7f3e 4b2d e63e 4bd7 2f3c 9191 383d
000002c0: 8d70 4ebd a972 913d 6547 853d 7cbf 48bd
000002d0: 2049 45be 2b59 01bf 3fec 0940 a92f ef3d
000002e0: ff34 ea3f 9f56 4bc0 93d1 a9be a8e4 e2bd
000002f0: ac2b 0d3d 92da babe 3880 e7bd 6c06 24be
00000300: 8f23 61bd a334 273c 9e88 103d 50b4 563d
00000310: 5a6d b43b 8297 bc3c 6391 b13f ed9e 39bf
00000320: cce3 8cbd 159d 023e d68c c43e ac2d 5cc0
00000330: 5291 92be d6c4 d4bc f0c1 09be 0f53 8fbe
00000340: da95 70be 81a3 8fbc be14 e3bf ab6c 0bc0
00000350: 0b64 f8bf 4b34 f3c0 f535 42c0 d66d 4dc0
00000360: d6c2 423f a15b 67c0 927a 543f 3748 c43f
00000370: 1531 603e c50a 4abf 4bd6 523f a288 24c0
00000380: 2c7a 5dbf 22ca 413f db5f 183e 3c6b a33e
00000390: 57ec ccbe 5a77 d13e c67b 9d3c 4305 0cbf
000003a0: 7e11 be3e eccc 673e d32a 98be b311 313f
000003b0: f620 b4be 189b f93f 340f 2fbe 1b61 cebf
000003c0: b3f6 09bf adf2 843f 881d a9bf a83c 2dbc
000003d0: 34d7 153d 4e2f 803d e961 bd3c 7222 813d
000003e0: a1bb f9bc 0eb0 d8be c1cd 8abf adc2 943e
000003f0: b5b8 353f adb9 013e eee1 b1bf 6040 393f

bias f4 [256]
-0.5724247 -1.2159449 -1.2080421 -0.85626304 -0.71255475 0.57984376 -1.2787666 -3.1577117
-0.8472484 -1.6688615 -0.27593112 -0.5269856 -0.809859 -1.7953659 -1.9535078 -1.6070458
-2.256361 -1.625344 -1.2607255 -0.026008569 -1.2323132 -1.5041037 0.37210867 -0.7561852
-1.3766987 -1.1761358 -0.17368516 0.5369927 -1.0094093 -0.73011327 -1.3851973 0.27146313
-1.577204 -0.6708591 -1.5347403 -2.7487872 -0.16272503 0.33982575 -1.2785414 -1.7586359
-1.58876 -2.909343 -0.9974987 -0.9352403 -0.59164053 -1.2139121 -0.83225095 -2.4518697
-3.146213 -1.6307153 -0.62062377 -0.26673052 -0.1872142 0.051903095 -2.0714068 -1.6690763
0.3296816 -1.337097 -5.8232293 -0.34969115 -0.33362275 -1.4288173 -1.4133098 -1.1432176
-0.5897363 -1.9956526 -0.8960401 -1.8962548 -1.3805199 -1.8249598 -0.87479043 -0.7694262
-1.096055 -0.16412969 -0.7369757 -1.70697 -1.0380236 -0.6604596 -0.6641243 -1.6991681
0.79067427 -1.4408714 0.083436 -1.6641681 -2.9812636 -2.2276778 -0.066053286 -1.0012201
-0.23794176 -2.0004354 -2.6463137 0.53899837 -1.4069216 -0.75701934 -0.8093481 -1.8592225
-0.6736554 -0.81638354 -0.41427726 -2.1086109 -0.2710398 -1.3843092 0.15633248 -0.93255687
-1.5103624 -1.5953124 1.0469036 -0.11243948 0.043563437 -1.2484764 0.10152277 -0.39716178
-1.2838823 -1.5187129 0.67880577 -1.4219903 -2.8601892 -0.11146648 -0.5659838 -0.45667323
-1.4346606 -0.22523771 -1.9380164 -1.3643426 0.6108499 -1.5602988 -0.9851101 -1.6504751
-0.3094681 0.90862644 1.9039963 -0.9366411 -0.3069316 -0.8999551 0.30424634 -1.3331636
0.04047531 -0.89818454 -0.8878052 -1.8817257 -0.5662224 -1.9368441 -0.83447695 -1.3704699
-1.9504548 -2.5149837 -0.1518455 -0.39122817 -1.1371559 -0.2978789 -2.7645524 0.31816941
-1.0827653 -2.6527236 -0.8658013 -2.8671734 -1.7020055 -1.9658656 -2.532128 -0.1423945
-1.1932831 -1.6987368 -1.3762698 -1.1823026 -1.0526917 -0.5826461 -1.767527 -0.041758843
-0.20124504 -0.27043423 -0.667066 -1.5140821 -3.0690515 -0.8079932 -2.1924772 -1.2528421
-1.503171 -1.21237 -2.160961 1.165012 0.25675777 -2.5884516 -1.4623543 -0.794076
-2.0774453 -0.74995524 -1.266012 0.58586895 -1.3276767 -0.0480689 0.9365673 -2.0674877
-0.24936807 -0.4775166 -1.0819423 -1.5730245 -0.7433397 0.80010223 0.29016715 -0.09806488
-1.2697333 1.5139753 -0.7846618 0.09549856 -0.46913365 -1.9174695 -0.25102335 -0.44252834
-0.53731304 0.30016798 -0.24804896 -1.5919075 -0.32967305 -2.3480268 -0.28361064 -0.75262153
-0.59122306 -1.980308 -1.4413964 -1.8530862 -1.132884 -0.4681286 -0.87474144 -0.5048705
-0.43403625 -2.3743896 -1.0464859 -1.2716608 -0.944298 0.62464774 -1.5553067 -1.1655178
-1.6932343 -1.3345608 -1.672505 -0.3099064 0.16284281 -0.30362254 -1.8059069 -1.1059729
-0.4036852 -1.4169977 0.80566317 -1.5129657 -1.5804774 -1.2318624 -2.213938 -1.401281
-1.3435367 0.46254715 -1.2157279 -1.1954398 -1.3799856 -1.3176552 -1.7846073 0.19018662
00000000: 6d8a 12bf 15a4 9bbf 20a1 9abf 0e34 5bbf
00000010: fd69 36bf a470 143f a0ae a3bf f317 4ac0
00000020: 45e5 58bf 419d d5bf d846 8dbe 87e8 06bf
00000030: eb52 4fbf 8dce e5bf 8b0c fabf adb3 cdbf
00000040: 3868 10c0 460b d0bf 745f a1bf ec0f d5bc
00000050: 70bc 9dbf 7886 c0bf 0785 be3e 5a95 41bf
00000060: aa37 b0bf 9e8b 96bf 86da 31be 5b78 093f
00000070: 5334 81bf b4e8 3abf 254e b1bf 37fd 8a3e
00000080: d2e1 c9bf 6cbd 2bbf 5f72 c4bf 21ec 2fc0
00000090: 64a1 26be a4fd ad3e 3fa7 a3bf fb1a e1bf
000000a0: 7d5c cbbf ad32 3ac0 135c 7fbf e96b 6fbf
000000b0: c175 17bf 7961 9bbf 660e 55bf 6feb 1cc0
000000c0: 8e5b 49c0 47bb d0bf 33e1 1ebf e790 88be
000000d0: 14b5 3fbe 5798 543d ee91 04c0 4ba4 d5bf
000000e0: 07cc a83e ff25 abbf e557 bac0 b80a b3be
000000f0: 9ad0 aabe 7ce3 b6bf 56e7 b4bf f454 92bf
00000100: f5f8 16bf 8b71 ffbf e262 65bf 7ab8 f2bf
00000110: e0b4 b0bf 4898 e9bf 44f2 5fbf 1ef9 44bf
00000120: 884b 8cbf 9d11 28be 71aa 3cbf fe7d dabf
00000130: f5dd 84bf e113 29bf 0d04 2abf 577e d9bf
00000140: a169 4a3f 796e b8bf 7ee0 aa3d 7603 d5bf
00000150: 06cd 3ec0 4692 0ec0 f246 87bd fb27 80bf
00000160: 01a7 73be 2207 00c0 345d 29c0 ccfb 093f
00000170: 0216 b4bf 05cc 41bf 7031 4fbf 01fb edbf
00000180: ae74 2cbf 83fe 50bf 261c d4be 7bf3 06c0
00000190: bbc5 8abe 0b31 b1bf 9f15 203e 0cbc 6ebf
000001a0: 8e53 c1bf 3233 ccbf f000 863f ac46 e6bd
000001b0: 936f 323d 13ce 9fbf 2ceb cf3d ca58 cbbe
000001c0: 4156 a4bf 2f65 c2bf 37c6 2d3f c703 b6bf
000001d0: 570d 37c0 8a48 e4bd 50e4 10bf 13d1 e9be
000001e0: f5a2 b7bf b7a4 66be ec10 f8bf c7a2 aebf
000001f0: a960 1c3f dfb7 c7bf 2d30 7cbf c542 d3bf
00000200: 9a72 9ebe be9b 683f 27b6 f33f b6c7 6fbf
00000210: 2426 9dbe 7563 66bf 2dc6 9b3e 1ba5 aabf
00000220: 70c9 253d 6cef 65bf 3447 63bf 63dc f0bf
00000230: f4f3 10bf 82ea f7bf 48a0 55bf 8f6b afbf
00000240: 81a8 f9bf 7ef5 20c0 637d 1bbe 0f4f c8be
00000250: 538e 91bf 9583 98be 6dee 30c0 1ae7 a23e
00000260: 0e98 8abf 39c6 29c0 27a5 5dbf c57f 37c0
00000270: 51db d9bf 7ca1 fbbf 630e 22c0 ddcf 11be
00000280: 80bd 98bf 3570 d9bf 9c29 b0bf b155 97bf
00000290: 9abe 86bf 4b28 15bf 533e e2bf 520b 2bbd
000002a0: 2e13 4ebe 5b76 8abe d6c4 2abf 71cd c1bf
000002b0: 576b 44c0 a4d8 4ebf 8c51 0cc0 215d a0bf
000002c0: e867 c0bf f12e 9bbf 2f4d 0ac0 1d1f 953f
000002d0: c175 833e 31a9 25c0 6d2e bbbf 9148 4bbf
000002e0: ddf4 04c0 11fd 3fbf ae0c a2bf 82fb 153f
000002f0: 4ff1 a9bf e5e3 44bd e0c2 6f3f b851 04c0
00000300: 585a 7fbe 0e7d f4be 167d 8abf de58 c9bf
00000310: 834b 3ebf 80d3 4c3f ca90 943e 3dd6 c8bd
00000320: 9f86 a2bf f1c9 c13f 99df 48bf c094 c33d
00000330: 4932 f0be a46f f5bf 2286 80be 1393 e2be
00000340: 598d 09bf 9eaf 993e 8c00 7ebe a0c3 cbbf
00000350: e8ca a8be 1246 16c0 6a35 91be ceab 40bf
00000360: 655a 17bf bc7a fdbf ad7f b8bf ee31 edbf
00000370: 5802 91bf 8dae efbe 0eef 5fbf 313f 01bf
00000380: 003a debe 00f6 17c0 40f3 85bf c8c5 a2bf
00000390: 84bd 71bf eae8 1f3f 4a14 c7bf b02f 95bf
000003a0: e7bb d8bf e3d2 aabf a514 d6bf 0dac 9ebe
000003b0: 44c0 263e 6a74 9bbe f527 e7bf 8590 8dbf
000003c0: d4af cebe 2e60 b5bf f13f 4e3f dca8 c1bf
000003d0: 154d cabf abad 9dbf 29b1 0dc0 2d5d b3bf
000003e0: 03f9 abbf fbd2 ec3e f99c 9bbf 2c04 99bf
000003f0: 5ea3 b0bf eda8 a8bf 036e e4bf 48c0 423e

weight f4 [256, 256]
-0.0716225 -0.6699773 -0.31981826 -0.35566992 -0.80262804 -0.6217488 -0.5021448 0.94632757
-0.26931655 -0.26026487 0.24488033 0.032539304 0.09220882 -0.7040787 0.7089266 0.45399672
-0.41284847 -0.19068173 -0.58658034 -2.1874673 -0.671386 -0.59521073 -0.84759116 0.8803424
-0.09776547 -0.41329086 -0.5138391 -0.5385295 -0.9868853 -0.5101618 -0.89709187 -0.14553693
-0.53526217 0.45435315 -0.42216796 0.0397797 0.096225806 -0.9773191 -0.010200801 0.36077255
0.3714741 0.41820553 0.063830785 -0.6572144 -0.25352904 0.3066853 -1.0080882 0.22143473
0.2731638 -0.13245861 -0.42459935 -0.35263282 -0.6439556 0.5319808 -0.10818505 0.9354325
0.010650269 -1.0722136 -0.15566781 -1.1227844 -0.75068617 -0.51760775 0.092387766 0.1944831
0.21971849 -0.42115834 -0.60915405 0.10512241 -0.41952994 -0.1778013 -1.4197696 -0.6917306
0.0047425656 -0.6843388 -1.1355853 -0.38057932 -0.28393343 -0.041321788 0.48113394 0.17839848
-0.10335595 -0.019413479 -1.2040017 0.57136476 -0.15650187 -0.008433602 -1.0105095 -0.5333569
-0.5758893 -0.7750851 -0.28900877 -0.34190747 -1.0790285 -0.28358704 -1.288536 0.30604237
0.91073567 0.10339606 0.1996377 0.92417145 -0.04287506 0.14091325 -0.8029384 0.056239136
-0.30739298 -0.07376509 -0.68771726 -0.1206746 -0.77049357 -0.028430633 0.30958894 0.9716415
0.09486645 0.32668936 0.23517902 0.18554011 -0.6685067 0.25638452 0.19606695 0.062095605
-0.7127132 -0.31567803 -0.061743196 -0.77131885 -0.4460637 -0.89006007 0.54062206 -0.16158922
-0.6034276 1.163946 -0.9158434 0.10075678 0.7892112 -1.1532803 -0.7220348 -0.79194474
-0.0705043 0.031282037 -0.5154873 -0.652205 0.4884741 -0.80161226 -0.8685523 -0.4351944
-1.5383866 -0.7360101 -1.0604947 -1.3385334 0.5231386 -0.4011958 -0.56982255 -0.0023838775
0.9152892 0.17485069 -0.7150105 -0.21058896 -0.5670545 0.9799364 -0.9461786 -0.0076368805
-0.934988 -0.40864727 0.07036609 0.10445992 -0.6287576 -1.007337 0.22820742 0.7088205
0.032353614 -0.016148722 -0.13057093 -0.07091201 -0.76810664 -1.0756304 -0.14331545 -0.7265288
-0.86218065 -0.17961971 -0.3290568 -0.69819355 -0.68572557 -0.16676927 0.29285145 0.12694535
0.5517296 -1.7444721 -0.13349414 -1.7777879 -0.37880328 -0.5048646 -0.8238013 -0.38676775
-0.9438887 0.10962249 -0.22381482 -0.51302344 0.13489605 -1.158331 0.39449224 -0.39563775
-0.47714478 -0.08770642 -0.12894362 -0.21933602 0.13733938 -0.15937634 -0.7707019 -0.5971505
0.14573313 -0.3244877 0.19094998 -0.91599375 0.3868255 0.56402457 -0.5714402 -0.88207304
0.5084839 -0.48687392 0.08023194 -1.0087116 0.009911407 0.5831317 -0.87516826 -0.8214535
-1.4291171 -1.2875884 -0.903407 -1.2154341 -0.12108301 -0.3505153 -0.58526665 0.39101386
0.5676575 -0.531872 -0.77712727 1.5645074 -0.3351153 -0.82862437 0.8136072 -1.0712845
-0.034418296 0.23209755 -1.1966935 0.80132556 -0.7764859 -0.22802195 0.9293728 -0.7521792
0.39623088 0.2509209 0.16404605 0.3898244 -1.1026847 -0.00044737232 -0.53193855 -0.64128363
00000000: d1ae 92bd a283 2bbf 38bf a3be 5e1a b6be
00000010: 0879 4dbf ee2a 1fbf 908c 00bf 8642 723f
00000020: dce3 89be 7041 85be e9c1 7a3e ef47 053d
00000030: fad7 bc3d 803e 34bf 377c 353f 4272 e83e
00000040: e060 d3be 1242 43be 212a 16bf 77ff 0bc0
00000050: f4df 2bbf bb5f 18bf bcfb 58bf 1f5e 613f
00000060: 4339 c8bd dc9a d3be f68a 03bf 12dd 09bf
00000070: 84a4 7cbf f799 02bf d0a7 65bf a207 15be
00000080: f106 09bf faa0 e83e 6626 d8be 0af0 223d
00000090: 0912 c53d 9631 7abf 4321 27bc 2eb7 b83e
000000a0: da31 be3e 091f d63e b7b9 823d 343f 28bf
000000b0: 8fce 81be db05 9d3e 0909 81bf c9bf 623e
000000c0: 20dc 8b3e 3ba3 07be 1665 d9be 4a8c b4be
000000d0: 46da 24bf e52f 083f 2090 ddbd 8178 6f3f
000000e0: 777e 2e3c 4c3e 89bf 6267 1fbe 66b7 8fbf
000000f0: f82c 40bf f181 04bf cc35 bd3d 9426 473e
00000100: e2fd 603e 11a2 d7be 85f1 1bbf 6b4a d73d
00000110: a1cc d6be 8b11 36be 03bb b5bf 4215 31bf
00000120: 8667 9b3b d430 2fbf dc5a 91bf 4bdb c2be
00000130: b95f 91be 0941 29bd 3057 f63e 17ae 363e
00000140: 49ac d3bd 0409 9fbc ba1c 9abf f644 123f
00000150: 0742 20be 172d 0abc 6058 81bf 148a 08bf
00000160: 7b6d 13bf fa6b 46bf f5f8 93be 7f0e afbe
00000170: 9b1d 8abf 5232 91be bfee a4bf 96b1 9c3e
00000180: f925 693f 50c1 d33d d36d 4c3e 8096 6c3f
00000190: c29d 2fbd 904b 103e 5f8d 4dbf 025b 663d
000001a0: 9d62 9dbe 2712 97bd 3d0e 30bf 3f24 f7bd
000001b0: 113f 45bf 5ce7 e8bc 7182 9e3e 7fbd 783f
000001c0: 5749 c23d d443 a73e c5d2 703e 3afe 3d3e
000001d0: 4123 2bbf d544 833e c6c5 483e f657 7e3d
000001e0: 5f74 36bf 8da0 a1be 6fe6 7cbd 2775 45bf
000001f0: 7662 e4be fada 63bf 3566 0a3f a577 25be
00000200: 3b7a 1abf 2ffc 943f b774 6abf 9259 ce3d
00000210: bf09 4a3f b09e 93bf 46d7 38bf e4bc 4abf
00000220: 8f64 90bd 9821 003d faf6 03bf e8f6 26bf
00000230: 4719 fa3e 7636 4dbf 7259 5ebf cdd1 debe
00000240: dae9 c4bf 286b 3cbf 4abe 87bf 1055 abbf
00000250: 69ec 053f 8969 cdbe e4df 11bf d43a 1cbb
00000260: 6550 6a3f 0f0c 333e ee0a 37bf a2a4 57be
00000270: 7c2a 11bf 1ddd 7a3f c338 72bf cc3e fabb
00000280: 605b 6fbf 373a d1be 191c 903d 15ef d53d
00000290: 42f6 20bf 6bf0 80bf 35af 693e 4375 353f
000002a0: 3985 043d 534a 84bc 63b4 05be 513a 91bd
000002b0: a3a2 44bf 42ae 89bf 49c1 12be cbfd 39bf
000002c0: dfb7 5cbf 3bee 37be 227a a8be d0bc 32bf
000002d0: b68b 2fbf 90c5 2abe a0f0 953e f6fd 013e
000002e0: 273e 0d3f dd4a dfbf b0b2 08be 8e8e e3bf
000002f0: 81f2 c1be ce3e 01bf a4e4 52bf 6c06 c6be
00000300: b1a2 71bf c281 e03d b62f 65be 8155 03bf
00000310: 3122 0a3e 3144 94bf e3fa c93e 0891 cabe
00000320: 524c f4be 6c9f b3bd cc09 04be 9f99 60be
00000330: b2a2 0c3e 8d33 23be b84c 45bf dbde 18bf
00000340: 113b 153e 4023 a6be 6488 433e 917e 6abf
00000350: fe0d c63e ea63 103f e849 12bf 8acf 61bf
00000360: 002c 023f 8a47 f9be a550 a43d 761d 81bf
00000370: 7463 223c 1e48 153f 070b 60bf c74a 52bf
00000380: 4fed b6bf b2cf a4bf ae45 67bf 5893 9bbf
00000390: 5ffa f7bd be76 b3be 09d4 15bf f832 c83e
000003a0: 0052 113f c328 08bf d0f1 46bf c741 c83f
000003b0: 3c94 abbe ba20 54bf 9048 503f da1f 89bf
000003c0: 33fa 0cbd fbaa 6d3e 412d 99bf ac23 4d3f
000003d0: c8c7 46bf 967e 69be 60eb 6d3f d18e 40bf
000003e0: c6de ca3e b478 803e b0fb 273e 1097 c73e
000003f0: c624 8dbf 4c8d eab9 202d 08bf 2a2b 24bf

bias f4 [256]
-1.507626 -0.5244406 -1.9621669 -0.9174475 -1.040642 -0.21901661 -0.026020497 -0.41916603
-1.7411975 -0.26069355 -1.1570153 -0.7869937 -0.76600575 1.2178493 -0.7525894 -2.072549
-0.30909532 -0.16796292 -0.089392334 -1.6056633 -0.4530247 1.3702402 -1.4259567 -0.38821366
-0.05878408 -1.360233 -0.15690891 -0.13939661 -0.7226678 -1.5492132 -1.002056 -0.24023928
-0.36018172 -0.58386844 0.029939001 0.00597482 -0.5504435 -0.49246258 -0.6119367 -1.0375675
0.4953838 -0.9817021 -0.14303072 -0.6396684 -1.3003362 -1.3265445 -0.2182683 -0.73343545
0.02419442 -0.8583626 -0.08107872 -1.8995777 -1.3993838 -0.67267954 -0.20554908 0.51628655
-0.3316281 -0.06376278 -0.96559745 -0.47460118 -1.0995746 -0.72424656 -0.14308953 -0.8496615
-0.21444418 0.58043736 -0.49499065 -0.016677456 -0.8467356 -0.19341636 -0.5015933 0.040118136
-1.1077031 0.5551842 -1.433623 -0.72939414 -0.76514435 -0.32173815 -1.1342074 -1.070802
-1.6313368 -0.95762515 -1.0329382 -0.9868532 -0.38362905 -0.8464655 -0.73570174 -0.9167191
-0.6748491 -0.13482712 0.14602725 -1.0564839 -1.4910234 -0.27573052 1.4334099 -0.15741909
0.47516447 -0.19367892 -0.6370334 0.99323237 -0.3168094 -1.1401649 -0.36542413 -0.31221375
-0.23737814 0.8681506 -0.76319253 -0.64226407 0.17121165 -1.8795626 -0.8867326 -1.3133445
-0.6712255 -1.7269225 -0.7839645 -1.4446684 -0.6771785 0.5238544 0.18913361 -0.6033487
-0.4223333 -1.5463923 0.10823803 -0.3982757 -0.6220306 0.64081115 -0.5309553 -0.58674926
-0.5440918 -0.45078766 -0.07317104 -0.27691284 -0.84309876 -1.0447338 0.49039754 -1.3759649
-0.44404414 -1.1480206 -1.080407 1.0072025 -0.19909222 -0.577107 -2.0676138 -1.3090694
-0.28662786 -0.55912465 -0.9820306 -0.5654543 -0.37449488 -0.7912151 -0.49145994 -0.18630658
-0.057367977 -2.325246 0.2442787 -0.40234703 -0.40424228 -0.9672967 0.6434965 -1.6161202
1.4095911 -1.5105057 -1.2507335 -0.96479464 0.26032934 -0.9820349 0.25731343 -0.3068473
-0.60492355 -0.15879759 0.26687133 -0.45107216 2.1259048 -1.0607839 -0.5407156 -0.16472161
-0.13382734 -0.45055595 -0.9000767 -0.09165577 -0.67464054 0.70328015 0.13424991 -0.90876025
0.28480598 -0.31152505 0.14201966 -1.1165918 -1.3964857 -0.14059053 -0.923498 -1.1225262
-0.7129246 -0.6647973 -0.71507204 -0.11217065 -0.5494207 -0.09666476 -0.44449425 -0.7588935
-1.1384512 -0.16640781 -1.0192388 0.82215255 0.006406442 -0.4815846 -0.28493023 -0.50632846
-0.91000843 -1.2992889 -1.4216293 -0.97419876 -0.59220564 -1.2084389 -0.25691327 0.33998337
-0.32438633 -0.72106165 -0.5754285 -0.5836801 -0.0062087313 -1.4732748 -0.82763255 -1.1087004
-0.22873853 -1.1290398 -0.929843 -0.92951554 -0.11517282 0.16717488 -0.99745005 -1.5896573
-1.0198563 0.38967997 0.45038533 -2.8294315 -0.115252875 0.6744457 -1.9019731 -1.3195095
0.83729076 -1.7842743 -0.2071781 -1.6856898 0.11766812 -0.39218822 -1.3132082 -0.9296469
-0.86038375 -1.2135837 -0.12364807 -1.1587127 -0.22371694 -0.45967817 0.12888695 -0.19097832
00000000: e4f9 c0bf bd41 06bf 4928 fbbf d7dd 6abf
00000010: c233 85bf e445 60be f028 d5bc ee9c d6be
00000020: 8fdf debf a079 85be 1419 94bf 6b78 49bf
00000030: f418 44bf 7ce2 9b3f b3a9 40bf a5a4 04c0
00000040: be41 9ebe 79fe 2bbe 5413 b7bd 6086 cdbf
00000050: daf2 e7be 0864 af3f c085 b6bf f1c3 c6be
00000060: 93c7 70bd 1d1c aebf bbac 20be fcbd 0ebe
00000070: c200 39bf 9e4c c6bf 5f43 80bf 4901 76be
00000080: bd69 b8be 6778 15bf a342 f53c 6cc8 c33b
00000090: dde9 0cbf 0e24 fcbe e2a7 1cbf 03cf 84bf
000000a0: f2a2 fd3e d450 7bbf a576 12be 4fc1 23bf
000000b0: 6b71 a6bf 36cc a9bf ba81 5fbe 6dc2 3bbf
000000c0: 6033 c63c a7bd 5bbf 9a0c a6bd 5d25 f3bf
000000d0: 021f b3bf ba34 2cbf 757b 52be 5b2b 043f
000000e0: 29cb a9be 0f96 82bd 6531 77bf edfe f2be
000000f0: dcbe 8cbf 3968 39bf 1086 12be 6b83 59bf
00000100: 4197 5bbe 8b97 143f 6a6f fdbe 299f 88bc
00000110: aac3 58bf f00e 46be 6b68 00bf ea52 243d
00000120: 37c9 8dbf 8d20 0e3f f580 b7bf 93b9 3abf
00000130: 80e0 43bf ddba a4be b52d 91bf 0a10 89bf
00000140: a5cf d0bf ec26 75bf 5237 84bf 69a2 7cbf
00000150: 076b c4be f7b1 58bf f356 3cbf 1aae 6abf
00000160: e9c2 2cbf 1f10 0abe 2b88 153e dd3a 87bf
00000170: dbd9 bebf 8d2c 8dbe fa79 b73f 7832 21be
00000180: c248 f33e c453 46be 9f14 23bf 7a44 7e3f
00000190: d734 a2be ecf0 91bf df18 bbbe 7bda 9fbe
000001a0: 4113 73be 1e3f 5e3f 9660 43bf 6b6b 24bf
000001b0: 1b52 2f3e 8295 f0bf e800 63bf ac1b a8bf
000001c0: 6fd5 2bbf cc0b ddbf e6b1 48bf e5ea b8bf
000001d0: 925b 2dbf 521b 063f 3eac 413e 0f75 1abf
000001e0: 123c d8be 2ff0 c5bf e6ab dd3d cbea cbbe
000001f0: 663d 1fbf 330c 243f b0ec 07bf 3335 16bf
00000200: 9a49 0bbf a4cd e6be b3da 95bd 85c7 8dbe
00000210: 52d5 57bf d6b9 85bf 6315 fb3e 9e1f b0bf
00000220: c159 e3be 57f2 92bf c74a 8abf 03ec 803f
00000230: d5de 4bbe 49bd 13bf c953 04c0 968f a7bf
00000240: e3c0 92be cb22 0fbf 5b66 7bbf 9dc1 10bf
00000250: cbbd bfbe 138d 4abf a3a0 fbbe 27c7 3ebe
00000260: affa 6abd d5d0 14c0 3224 7a3e 6e00 cebe
00000270: d8f8 cebe c2a0 77bf 30bc 243f 07dd cebf
00000280: 7b6d b43f 4058 c1bf 0918 a0bf c8fc 76bf
00000290: e349 853e a466 7bbf 96be 833e 171b 9dbe
000002a0: 45dc 1abf d69b 22be 5ca3 883e eef2 e6be
000002b0: d30e 0840 c4c7 87bf 566c 0abf c8ac 28be
000002c0: 090a 09be 45af e6be 6d6b 66bf 05b6 bbbd
000002d0: 3eb5 2cbf 2b0a 343f cf78 093e 83a4 68bf
000002e0: 17d2 913e 3680 9fbe 9a6d 113e 7bec 8ebf
000002f0: 0bc0 b2bf f7f6 0fbe 5d6a 6cbf f0ae 8fbf
00000300: 3a82 36bf 2830 2abf f60e 37bf bab9 e5bd
00000310: d6a6 0cbf 2cf8 c5bd c094 e3be d846 42bf
00000320: c5b8 91bf cf66 2abe 6b76 82bf 9778 523f
00000330: 21ed d13b 4292 f6be 60e2 91be be9e 01bf
00000340: 50f6 68bf 194f a6bf f3f7 b5bf 1765 79bf
00000350: ca9a 17bf 20ae 9abf 238a 83be 4d12 ae3e
00000360: f715 a6be 7f97 38bf 484f 13bf 0f6c 15bf
00000370: 9d72 cbbb 4594 bcbf badf 53bf e5e9 8dbf
00000380: 6f3a 6abe 6084 90bf 310a 6ebf bbf4 6dbf
00000390: badf ebbd e42f 2b3e e358 7fbf e479 cbbf
000003a0: a78a 82bf 2284 c73e e898 e63e 6815 35c0
000003b0: b309 ecbd 79a8 2c3f db73 f3bf b0e5 a8bf
000003c0: b058 563f 1a63 e4bf 7f26 54be afc4 d7bf
000003d0: fcfb f03d e5cc c8be 3517 a8bf 57fd 6dbf
000003e0: 1c42 5cbf b656 9bbf 333b fdbd b350 94bf
000003f0: 0e16 65be f05a ebbe f1fa 033e d28f 43be

weight f4 [8, 256]
-0.09675811 1.7040671 -0.06616848 0.008084042 -0.10966187 0.31433648 0.16652636 -0.16344231
0.14735988 1.4980754 0.547857 -1.2371404 0.99909437 0.004205695 0.09161353 0.72803247
-0.93676275 0.29188746 -0.12592909 0.05334042 -0.18193372 -0.12244778 0.019925896 -1.6228548
0.014135906 0.21675093 0.009163997 -0.14970927 0.03216494 1.5746626 0.07680768 0.50610733
-0.004906768 1.6497568 -0.5696803 0.022782851 -0.119229816 0.15569654 -0.12608184 0.05118772
0.09356963 -0.055108257 0.004451917 0.20408197 1.9179363 1.0731578 -0.9888423 -0.161111
-1.1826998 -0.33420983 2.6757953 0.48487574 1.2446932 -0.00013645295 0.20353816 3.1257918
-0.15460722 -1.8864576 -0.6080556 0.09502895 4.6008897 -1.0636268 0.704357 0.1379338
-2.0880601 2.0905993 1.3732345 0.062469263 -0.3745016 0.08368002 0.1679727 0.32174072
-0.21832204 -0.2641963 0.07427994 -0.021187248 -0.0020247025 0.14420025 -0.04531472 -0.4091772
-0.018965783 0.24855092 1.5116706 0.19536632 0.84590054 0.051462613 0.059266567 -0.036404755
-0.1359818 0.050851177 -0.64547765 0.26756135 1.6203519 0.054930795 0.0006917836 0.6644191
-1.5935996 -1.5862348 0.20965426 -0.027501438 0.9933897 -0.02312089 -0.4897441 0.11658582
-0.010469222 -0.03792825 -0.086203344 -0.062187325 -0.1843017 -0.035198778 0.2788155 -0.042622574
0.088993914 -0.08960276 0.36658794 -2.4440074 0.06927898 0.16376217 -0.12754208 0.068039455
0.010271717 -0.36009935 0.3220057 -0.28502747 -0.18325119 0.07865678 -5.9860005 1.1543915
-0.6969146 -1.7043507 0.03385053 -0.034945738 -0.12491352 0.10673044 0.31699237 -0.45689836
0.0075816116 1.9072653 1.0438411 0.042859543 0.034066707 1.3555957 -0.13838887 -0.010983809
0.08179078 0.92831093 0.53299385 -0.20572266 0.7838512 0.027734172 -0.19907293 -0.3454931
0.029969146 0.3142039 -0.05923108 0.05290448 0.15751259 0.008333721 -0.03651046 -0.018225405
-0.0017591282 -0.20329212 0.33985677 0.3952957 -0.17163686 -0.31407756 0.36786833 0.5602074
0.02335338 -0.08098963 -0.67017984 -0.1026875 -0.063242435 0.53037333 -0.028761853 0.015033687
-0.006161471 0.2566951 0.056090098 -0.023433292 0.34801146 0.8393492 -0.0070220553 0.027983887
0.01722243 0.18409348 -0.026183788 -1.1639564 0.20899777 -0.4234412 -0.0015809067 -0.018440835
0.1100474 1.0424137 0.060564935 -0.032069366 -0.013137338 -0.4314106 -0.002963947 -0.41274178
0.5265452 -0.8993302 -0.064397976 0.088554405 -0.05556828 0.014897974 -0.04719176 0.09184471
1.6159332 -0.09316678 -4.3588543 -0.41000178 -0.22312392 0.050127435 -1.454801 0.02405625
-0.86097634 -0.002741238 0.5441448 -0.093465626 0.057584185 0.043468654 0.18438919 0.08924629
0.0029363958 -0.16517235 -0.083683304 0.118971825 0.061603937 0.037995283 -2.695093 0.4832701
-0.11843818 0.028812928 -0.15034309 0.54216695 0.007870809 -0.09380312 -1.4519978 -0.054264948
-0.092300236 0.08308212 -0.073519334 1.3324025 -0.20800273 -1.023205 0.17634523 -0.108868755
0.22758737 -0.08447509 3.180493 -0.41601273 0.15625405 0.06688103 -0.0118518965 0.02436768
00000000: 1e29 c6bd df1e da3f 5783 87bd ee72 043c
00000010: 6796 e0bd b6f0 a03e e385 2a3e 6c5d 27be
00000020: 82e5 163e efc0 bf3f 5b40 0c3f 9e5a 9ebf
00000030: a6c4 7f3f edcf 893b e09f bb3d 5660 3a3f
00000040: afcf 6fbf 4672 953e 8ef3 00be 7c7b 5a3d
00000050: d54c 3abe e7c5 fabd a23b a33c b5b9 cfbf
00000060: 499a 673c f5f3 5d3e 9724 163c 634d 19be
00000070: 62bf 033d 8b8e c93f 584d 9d3d 4090 013f
00000080: f4c8 a0bb 3b2b d33f 91d6 11bf 1aa3 ba3c
00000090: c32e f4bd ea6e 1f3e 991b 01be 37aa 513d
000000a0: 6fa1 bf3d 32b9 61bd 63e1 913b ddfa 503e
000000b0: f07e f53f 3c5d 893f c524 7dbf 48fa 24be
000000c0: b562 97bf 8d1d abbe 3b40 2b40 a241 f83e
000000d0: 1b52 9f3f cf14 0fb9 4f6c 503e f90c 4840
000000e0: 5b51 1ebe 7177 f1bf 88a9 1bbf 8a9e c23d
000000f0: 7d3a 9340 ec24 88bf be50 343f 853e 0d3e
00000100: c7a2 05c0 61cc 0540 26c6 af3f c5df 7f3d
00000110: acbe bfbe 6e60 ab3d 0901 2c3e 33bb a43e
00000120: d08f 5fbe bd44 87be 1520 983d e190 adbc
00000130: dfb0 04bb 3ba9 133e ee9b 39bd ad7f d1be
00000140: 215e 9bbc 2284 7e3e 6c7e c13f 1c0e 483e
00000150: f08c 583f 76ca 523d 80c1 723d 271d 15bd
00000160: d03e 0bbe 5349 503d 063e 25bf cdfd 883e
00000170: b167 cf3f 1dff 603d d058 353a 5f17 2a3f
00000180: 12fb cbbf be09 cbbf 9baf 563e b24a e1bc
00000190: ca4e 7e3f 0568 bdbc bdbf fabe 8cc4 ee3d
000001a0: 1a87 2bbc a75a 1bbd 618b b0bd 23b8 7ebd
000001b0: 96b9 3cbe 982c 10bd e8c0 8e3e 0295 2ebd
000001c0: 7142 b63d a781 b7bd 6ab1 bb3e 9e6a 1cc0
000001d0: 23e2 8d3d 45b1 273e 649a 02be 4558 8b3d
000001e0: b44a 283c f15e b8be eedd a43e 1fef 91be
000001f0: 33a6 3bbe ce16 a13d 518d bfc0 1ac3 933f
00000200: ff68 32bf 2a28 dabf daa6 0a3d 4323 0fbd
00000210: a9d2 ffbd 7d95 da3d d34c a23e 95ee e9be
00000220: 2b6f f83b 4521 f43f 969c 853f 7d8d 2f3d
00000230: 8889 0b3d 2984 ad3f d0b5 0dbe 6ff5 33bc
00000240: ed81 a73d c9a5 6d3f 4972 083f f6a8 52be
00000250: 79aa 483f c632 e33c c6d9 4bbe 79e4 b0be
00000260: db81 f53c 55df a03e 4a9c 72bd 5eb2 583d
00000270: fb4a 213e 298a 083c fe8b 15bd 724d 95bc
00000280: 8c92 e6ba cf2b 50be b501 ae3e 3364 ca3e
00000290: 93c1 2fbe c6ce a0be 3d59 bc3e c169 0f3f
000002a0: 964f bf3c e4dd a5bd e890 2bbf d34d d2bd
000002b0: 4085 81bd 8cc6 073f fa9d ebbc db4f 763c
000002c0: 2ae6 c9bb 8a6d 833e bbbe 653d 2df7 bfbc
000002d0: 8f2e b23e 97df 563f 4519 e6bb 773e e53c
000002e0: 0e16 8d3c 0083 3c3e 627f d6bc 86fc 94bf
000002f0: 8303 563e 49cd d8be 6d36 cfba 3c11 97bc
00000300: 8860 e13d d06d 853f f012 783d 2b5b 03bd
00000310: fd3d 57bc dae1 dcbe c73e 42bb e452 d3be
00000320: abcb 063f 813a 66bf 16e3 83bd 035c b53d
00000330: 919b 63bd a216 743c 264c 41bd 1419 bc3d
00000340: e6d6 ce3f 3ace bebd bc7b 8bc0 c1eb d1be
00000350: 997a 64be 6d52 4d3d eb36 babf 9d11 c53c
00000360: f268 5cbf 58a6 33bb 134d 0b3f e86a bfbd
00000370: 65dd 6b3d 300c 323d 85d0 3c3e c2c6 b63d
00000380: 8c70 403b f122 29be 2762 abbd 80a7 f33d
00000390: 6954 7c3d f1a0 1b3d 677c 2cc0 2e6f f73e
000003a0: b78f f2bd 1709 ec3c 8af3 19be 74cb 0a3f
000003b0: 91f4 003c da1b c0bd 10db b9bf ec44 5ebd
000003c0: e807 bdbd f526 aa3d 4e91 96bd 2a8c aa3f
000003d0: abfe 54be 62f8 82bf d893 343e 95f6 debd
000003e0: aa0c 693e 4701 adbd 338d 4b40 9fff d4be
000003f0: 1001 203e ecf8 883d 752e 42bc bb9e c73c

bias f4 [8]
0.67811376 0.32459286 0.15107332 0.79818684 0.2851041 -0.13906649 0.467501 -0.16356003
00000000: dd98 2d3f 0931 a63e f7b2 1a3e f955 4c3f
00000010: 2af9 913e 7267 0ebe 4b5c ef3e 487c 27be
