runs/AntRandom-v5_td3_2_reward_1752722982/best_policy.pt (torch, 384069 bytes, 6 tensors)

weight f4 [256, 105]
000000 c2 dc 98 c0 c8 52 5f 3f 3c 4b 91 c0 88 b1 47 c1
       -4.776948 0.8723569 -4.540434 -12.480843
000010 b7 1e de 3f da 71 a4 3d 55 a2 58 3e a4 c6 49 3f
       1.7353123 0.08029528 0.21155675 0.78818727
000020 d3 71 6d bf 71 79 0e 3d 79 f3 ba bf b9 c3 95 3f
       -0.92751807 0.034783784 -1.4605552 1.1700355
000030 89 ee 3e 3e 76 9d 84 3e e5 2e b8 3c d7 da 0b bf
       0.18645681 0.25901383 0.022483299 -0.546308
000040 da 7c df 3a c2 0e d8 be 4c 2e 3a 3e 50 fb d7 3c
       0.0017050758 -0.4219876 0.18181723 0.026364952
000050 64 6b 59 3d 4e 01 5a 3c df 88 a0 bd 94 53 aa 3d
       0.05308093 0.013305975 -0.07838606 0.083167225
000060 4e fe 08 be 83 cd 92 3d b0 b7 08 bd 5a 91 12 3f
       -0.1337826 0.071681045 -0.033378303 0.5725304
000070 f7 e9 57 be b5 3f 2d 3f 40 01 a7 be 06 c6 bd 3d
       -0.21085344 0.67675334 -0.3261814 0.092662856
000080 5e 99 9d c0 38 8a 83 3d 4a 88 9d 3b 45 3b 37 bd
       -4.9249716 0.064228475 0.0048075067 -0.04473426
000090 96 ac 2f 3d e5 71 19 bd 4b 18 b1 bc 6b 0b 73 bf
       0.0428892 -0.037462134 -0.02161803 -0.949393
0000a0 74 fc 92 bf 97 3b 15 bf ea e7 9e 3f 42 78 6b 3e
       -1.1483293 -0.5829405 1.2414525 0.22995093
0000b0 70 7b a7 3e 44 1b ae 3e ff a0 b0 be d6 17 9b 3e
       0.32711363 0.34005177 -0.3449783 0.30291623
0000c0 d5 0e 91 3e 97 d6 11 be ac 40 e0 bc 1a 42 86 3d
       0.28331628 -0.14242016 -0.027374588 0.065555766
0000d0 1d 88 8f 3d 5a af 67 3d 4f ea c2 bc 1c 5c 8e bb
       0.070083834 0.056563713 -0.023793368 -0.0043444764
0000e0 b7 77 a2 bc ff 98 54 bd 3f fc 59 bf b5 1a 25 be
       -0.019832475 -0.05190372 -0.8515052 -0.16123469
0000f0 29 02 42 bf 9a 62 7c 3d 99 2d 89 3e 57 f6 92 be
       -0.75784546 0.06161747 0.267926 -0.28703567
000100 51 b2 ea be 57 10 96 3e 3c ad 23 3e ed b5 04 bf
       -0.4583917 0.2930934 0.15984052 -0.51840097
000110 56 9f 47 bd 65 ec 42 3d aa 11 b6 bd 59 1f ae 3d
       -0.04873594 0.047588725 -0.08890088 0.08502073
000120 86 6f 83 bd 6c ce fc 3c 13 21 72 bb cd 99 08 bf
       -0.06417756 0.030860148 -0.0036945983 -0.5335968
000130 e0 cb 3f bf c4 92 36 bd 53 25 b9 3f ae ce c0 bd
       -0.74920464 -0.04457356 1.4464515 -0.09414421
000140 ed 13 81 3e fb cd 0d be 44 58 41 3e 59 97 3c be
       0.25210515 -0.13848107 0.18881327 -0.1841711
000150 10 bb 96 bd c6 4d 4e be ff f9 2f 3e 8d ce 2c 3d
       -0.07359898 -0.20146856 0.1718521 0.04218917
000160 bf b6 78 bd 9b 4d 53 bd cc 3d 1a bc 05 5b 8c bd
       -0.060721155 -0.051587682 -0.009414148 -0.06853298
000170 2c ac 75 3d b8 84 c6 3d de ab 3f 3f 27 7d b3 be
       0.05997865 0.09693283 0.74871624 -0.3505642
000180 4b 34 ad 3f 12 96 14 40 bb 65 ff be 9e 95 d0 bd
       1.3531584 2.3216596 -0.49882302 -0.10184787
000190 57 8f dc 3c e1 9a 13 3e 47 e4 07 be 56 39 85 3e
       0.026923819 0.1441455 -0.13270675 0.26020306
0001a0 46 00 aa be 43 ab ac be e9 fb c9 bf c7 17 8e 40
       -0.33203334 -0.33724412 -1.5780002 4.4404025
0001b0 d1 11 9b be bf 81 3d 40 c8 17 6e 40 a6 28 d5 bf
       -0.3028703 2.961044 3.7202015 -1.665303
0001c0 18 96 91 bf 3c c4 e2 bf ef 48 bf bb a3 64 d4 bf
       -1.137393 -1.7716136 -0.005837552 -1.6593212
0001d0 96 a7 17 bf e9 92 11 3f c1 73 89 bf 4b 09 1b 3f
       -0.5924009 0.5686479 -1.073845 0.60561055
0001e0 c3 ed 15 bd 52 e0 88 3f 56 88 02 3f d7 86 96 3e
       -0.0366037 1.0693457 0.5098928 0.2939975
0001f0 35 66 b3 bd 7b 9f 90 be 3d ae af 3e 3a ff 33 3e
       -0.08759729 -0.28246674 0.3431262 0.1757783
000200 8f 82 0f 3e 4a 83 ff bd 84 31 f2 3d 53 41 98 3e
       0.14014648 -0.12476213 0.118258506 0.29737338
000210 47 da 58 bf 71 93 03 bf f1 f5 35 40 44 48 03 3f
       -0.84708065 -0.5139685 2.843136 0.51282144
000220 e6 b6 87 3e 4c b4 4c c0 8a 9c c2 3d f6 46 f1 bb
       0.26506728 -3.1985044 0.09502514 -0.0073631955
000230 d6 39 be bd d8 b3 70 bc d0 8a 82 3d 31 16 38 3d
       -0.09288375 -0.014691316 0.06374133 0.04494304
000240 aa b5 b4 3f 71 49 7e bf 74 9e 00 40 b2 ed 58 3b
       1.411794 -0.9933081 2.0096712 0.0033100662
000250 84 9c 4d 3f 60 c0 38 bf 3d f2 5a bf e8 11 76 3f
       0.8031695 -0.7216854 -0.85525876 0.9612107
000260 1a 3b 23 3e 70 ea 85 3e db c1 6e 3f 1c 23 a1 bf
       0.15940514 0.26155424 0.9326455 -1.258884
000270 8b a2 91 bd 8e 8d 0b 3b 98 49 b9 3d a1 1d 0f 3d
       -0.07111081 0.002129409 0.0904724 0.034940366
000280 24 fa 84 bd 22 db 89 3d 09 23 d8 bf 8a 1b df be
       -0.06493023 0.067312494 -1.6885692 -0.43575698
000290 48 2d 62 3f 15 af 51 3f 60 0a eb 3f 7d a9 60 bc
       0.88350344 0.8190778 1.8362541 -0.013712284
0002a0 fd 79 9f be 85 f0 d3 bd ee c9 9f 3d 0c c0 88 3e
       -0.31147757 -0.1034861 0.07802187 0.2670902
0002b0 67 24 53 3e 04 e5 e0 be 94 bd b3 bd 2a fd 5a ba
       0.20619355 -0.43924725 -0.087763935 -0.00083537644
0002c0 c8 d3 ad bd bf d8 bb 3b 14 2f 94 3d 17 99 2a 3d
       -0.0848766 0.0057326253 0.07235542 0.041649904
0002d0 01 af a4 3f f2 30 18 40 ba a0 04 3f aa 75 4b 3f
       1.2865907 2.3779874 0.5180775 0.79476416
0002e0 7b 81 ec be b8 cb 32 bf e8 03 39 3e d3 69 ee 3e
       -0.46192536 -0.698421 0.18067896 0.46565112
0002f0 75 04 3f 3f 00 3c 93 be 39 76 18 3f 6a d3 9d bf
       0.74616176 -0.28756714 0.59555393 -1.2330143
000300 69 53 81 3d 73 28 0f 3d 98 89 00 bd 3a cb 3f bd
       0.06314737 0.034950685 -0.03138122 -0.04682467
000310 6e 47 e3 3c e4 ab 58 bd 2e 42 a7 bf b5 b8 87 bf
       0.027744021 -0.052898303 -1.3067071 -1.0603243
000320 6b 8a 1d c0 86 0a 7e bf cd b3 2c 40 ed bd 8b be
       -2.4615734 -0.9923481 2.6984742 -0.2729334
000330 4d e3 44 bf f6 5c 84 bf 9b 29 6c bf 34 5b 37 3e
       -0.76909333 -1.034087 -0.92250985 0.17905885
000340 df e4 36 bf 73 2a 3e be a5 4c 03 3d 57 70 46 bf
       -0.7144298 -0.1857088 0.032055516 -0.77515167
000350 2b 9a f9 bf ba bb 94 40 6f ed 81 bf cf 63 ae be
       -1.9500173 4.647916 -1.0150584 -0.34060523
000360 71 64 22 3f 05 b7 ca 3f cc b7 8a 3f b3 4b 97 be
       0.6343451 1.5837103 1.083734 -0.2954994
000370 81 6d 89 3f c8 15 9e bf f1 7d f8 bd 53 9d d3 3d
       1.0736543 -1.2350397 -0.121333964 0.103327416
000380 e2 2e 04 3f a6 8f 9c be da 5e f9 3e 12 1b 37 bf
       0.5163404 -0.30578345 0.48705178 -0.7152568
000390 cb 35 13 bf fc ad 52 bd f1 ef 03 3d 98 53 7a be
       -0.57503957 -0.051435456 0.032211248 -0.24445951
0003a0 c9 d2 ea 3c ac 30 e5 bd e5 56 ac bc 86 6e 11 be
       0.028664963 -0.11190924 -0.021037528 -0.14202318
0003b0 0a e5 96 ba ab 24 2c bf de 8f da 3e bc 36 7c bf
       -0.0011512351 -0.6724345 0.42687887 -0.9852102
0003c0 64 ee af bb ac 9e e2 3f eb 82 0c bf 67 18 be bd
       -0.0053689945 1.7704673 -0.54887265 -0.09281998
0003d0 66 f2 aa 3d 7a 80 0f 3d ca 16 5d 3d 25 5e 2e 3d
       0.08347015 0.035034634 0.05397681 0.042570252
0003e0 de 77 18 bd f7 aa 56 bf 4c 3c 8f 3f e6 bc ab be
       -0.03722369 -0.8385462 1.1190276 -0.33542556
0003f0 ae b8 9e bf 39 62 c2 be 25 55 90 3f d4 3b a8 be
       -1.240011 -0.37965563 1.1275984 -0.32858145

bias f4 [256]
000000 00 93 00 3e e4 18 0e c0 0d 5b 0f bf 1a 42 e2 bf
       0.12556076 -2.2202692 -0.5599831 -1.7676423
000010 46 c5 80 be bd 4a b1 bf cc a4 98 bf 9c 36 13 3f
       -0.25150508 -1.3850933 -1.1925292 0.575052
000020 c5 45 8e bc 08 80 91 be 3b e8 da bf b8 62 3d 3e
       -0.017367253 -0.28417993 -1.7102121 0.1849469
000030 ea 22 ac bf 86 e5 fd be 3c 0b ab bf 2a a6 2b bf
       -1.3448155 -0.49589175 -1.3362803 -0.6705042
000040 3d ba 4c bf 20 2a 37 be ec 6c 31 bf fd 42 f7 be
       -0.7997168 -0.17887163 -0.69306827 -0.48293296
000050 5d 7d 54 bf 9d 9c 9d bf df e9 c8 bf ca fb c0 3c
       -0.8300379 -1.231342 -1.5696372 0.023557562
000060 fa bc b9 bf 1f 6d 5d 3f 63 c3 21 c0 ff bd a2 bf
       -1.4510796 0.8649463 -2.5275505 -1.2714232
000070 d6 bd bc bd cb 45 db bf f0 79 48 bf 4a 43 5d bf
       -0.09215896 -1.7130674 -0.7831106 -0.864308
000080 da 5e e4 bf b7 60 31 bf 1c 67 a4 bd ba f9 57 bf
       -1.7841446 -0.692882 -0.08027479 -0.8436543
000090 40 11 96 bf d4 04 ad bf 3a 49 8e bf c0 42 3e bf
       -1.1724014 -1.3517098 -1.1116097 -0.743206
0000a0 cb 8e a3 bf 22 55 65 bf 64 93 f1 bf 35 16 04 be
       -1.2777952 -0.8958303 -1.8873105 -0.12899096
0000b0 3c b6 46 bf e1 ca 68 bf 0c 49 7d bf 20 dc 49 3f
       -0.7762182 -0.9093457 -0.98939586 0.7885151
0000c0 3a 90 91 bf c5 50 87 bf be 7e ee bf b8 f6 23 c0
       -1.137214 -1.0571524 -1.8632429 -2.5619335
0000d0 db a1 f4 bf e5 8f 17 c0 7a 88 25 bf f3 c8 d0 bf
       -1.9111894 -2.3681576 -0.6466137 -1.6311325
0000e0 6e 4a 91 bf 7e 83 29 3f 9c e5 94 3d ce 1c 6f c0
       -1.1350839 0.66216266 0.07270357 -3.736133
0000f0 e8 57 46 c0 b8 fc 18 3f aa b3 72 bf db 2c f8 3d
       -3.0991154 0.5976062 -0.94805396 0.121179305
000100 4b ed 1b 3e 3e 14 b5 bd 08 46 81 bf f8 90 93 bf
       0.15227239 -0.088417515 -1.0099497 -1.1528616
000110 56 fb c6 bf b9 fe 56 c0 07 82 06 bf 97 46 ec 3e
       -1.5545452 -3.359297 -0.52542156 0.46147606
000120 8b 53 c2 be 34 1c 03 c0 60 6b 7d bf 7b e1 8f bf
       -0.37954363 -2.0485964 -0.98991966 -1.1240686
000130 0f e6 05 3f 3b 65 6b bf 06 9c 58 bf 2f 60 45 bf
       0.52304167 -0.9195134 -0.8461307 -0.7709989
000140 22 8c c7 bf c5 99 76 3e a1 d3 95 bf 29 84 35 bf
       -1.558964 0.24082096 -1.1705209 -0.70904785
000150 e6 70 f7 bf 40 76 96 bf f2 ad 14 bf b1 dc ff bf
       -1.9331329 -1.1754837 -0.5807792 -1.9989225
000160 f9 70 81 3d 86 58 4e bf 70 2e 3b be 31 fb d1 bf
       0.06320376 -0.80603826 -0.18279433 -1.6404783
000170 2b 56 ed bf 6e 07 31 bf 4a 8a 43 ba 1a 2d 00 3f
       -1.8541921 -0.6915196 -0.00074592663 0.5006882
000180 96 3f 5c 3f e6 fe da bf d9 08 3a c0 56 24 05 c0
       0.86034524 -1.7109039 -2.90679 -2.0803428
000190 41 3f 95 bf 93 5a ac be d1 66 14 bf 26 42 4a bf
       -1.1659929 -0.33662853 -0.57969385 -0.79007185
0001a0 0c ab 8c be 73 c3 9c 3e 2e 20 d3 bf 2f 5e 2e bf
       -0.27474248 0.30617866 -1.6494195 -0.6811246
0001b0 13 ac c4 bf 3e 7c 98 bf 52 3f cd 3e 9a 8f e3 bf
       -1.5365013 -1.1912916 0.40087372 -1.7778199
0001c0 7b 43 3c bf fc 76 ad bf 4a b0 02 c0 53 82 0b be
       -0.7354047 -1.3551936 -2.0420098 -0.13623933
0001d0 43 1b db bf 92 03 71 bf 54 68 07 c0 ce cb 78 bf
       -1.7117695 -0.9414607 -2.1157427 -0.9718598
0001e0 71 62 da be 37 9b c6 bf 90 05 42 bf 4a ad 8b 3e
       -0.4265323 -1.5516118 -0.7578974 0.27280647
0001f0 89 d0 b5 bf bf 50 39 bf 8c b1 3a bf 33 6c 18 bf
       -1.4204265 -0.72388834 -0.72927165 -0.595401
000200 bc 2f df be 14 e9 b5 bf f4 f0 f6 bf b1 fd cb bf
       -0.43591106 -1.4211755 -1.9292283 -1.5936795
000210 43 06 ac be 18 91 18 bd c3 90 22 bf 6c f5 2f bf
       -0.33598527 -0.037247747 -0.6350214 -0.6873386
000220 07 70 71 3f 77 19 08 c0 3f 43 08 c0 91 b2 89 bf
       0.94311565 -2.1265543 -2.1291044 -1.0757619
000230 0d 0b c2 3f 47 4e 1d 3e ed e7 f5 be ee 57 51 bf
       1.5159622 0.15361892 -0.48028508 -0.81774795
000240 b8 e9 16 c0 b0 9e 85 bf b7 fa 92 bf b8 d0 6f bf
       -2.358015 -1.0439053 -1.1482762 -0.93677855
000250 5b 25 1a c0 94 dc d2 be af 0a 34 bf 9a 91 86 bf
       -2.40853 -0.41183913 -0.703288 -1.0513184
000260 d9 a8 13 bf cb 2f e7 bf 0a 6d c0 bc 66 b6 59 bf
       -0.57679516 -1.806146 -0.023489494 -0.8504394
000270 35 93 22 c0 c4 31 08 3e 04 b9 40 bf 6b 72 c3 bf
       -2.5402348 0.13300234 -0.7528231 -1.5269293
000280 bb 05 9f bf d2 2f 1e be 81 81 f2 bf 17 df 5c c0
       -1.2423624 -0.1544793 -1.8945771 -3.4511163
000290 50 0e c1 bf 4e 68 91 bf 3f 93 8d bf 5f 6f dd bf
       -1.5082493 -1.1359956 -1.1060561 -1.7299613
0002a0 5b a8 58 3f 54 80 9d bf c6 af 96 3f 88 dc 05 c0
       0.8463189 -1.2304788 1.1772392 -2.0915852
0002b0 72 58 82 3e a9 26 b4 bc 93 3f 8b 3f d5 4b 89 bf
       0.25458103 -0.02199109 1.0878776 -1.0726267
0002c0 20 d9 3a bf 8b cc 12 be 2c e2 fc 3e cb 45 8d 3f
       -0.72987556 -0.1433584 0.49391305 1.1036924
0002d0 13 4d fb be 1f f2 ff bf ae 7b b3 bf 94 76 1b 3f
       -0.4908224 -1.9995764 -1.4022119 0.6072781
0002e0 d8 80 22 3f 88 bf 2c c0 e4 74 1a bf d1 83 ed bf
       0.6347785 -2.6991901 -0.6033461 -1.8555852
0002f0 ac e2 d9 bf 45 d9 97 bf e1 25 a7 bf b2 b6 d7 bf
       -1.70223 -1.186318 -1.3058435 -1.6852629
000300 49 cc 46 bf cc 9e 7c bf de a0 df bf 2c ea e3 be
       -0.77655464 -0.98679805 -1.7470968 -0.44514596
000310 92 7e 81 bf 39 5a 9b 3e 7e d0 60 bf 62 33 f1 3d
       -1.0116751 0.30342272 -0.87818134 0.117773786
000320 b9 7f ea bf b4 ff 24 c0 48 8a 28 bf c2 48 15 3f
       -1.8320228 -2.5781069 -0.65836 0.58314145
000330 76 61 9c bf 02 f6 45 bf 6a ed fd be 56 a6 b5 be
       -1.2217243 -0.77328503 -0.49595195 -0.35478467
000340 5d a1 d4 be 96 a9 02 c0 02 e8 29 be 36 06 8e be
       -0.4152936 -2.0416007 -0.1659241 -0.27739114
000350 e6 7a 0c bb 6a 74 c8 bf f8 5c 9c 3e 44 a0 75 3f
       -0.0021435558 -1.5660527 0.3053968 0.9594767
000360 50 d7 bf 3c bf d1 f1 3c cd 39 79 bf 61 0d cf bf
       0.023418099 0.02951896 -0.9735382 -1.6175958
000370 27 8d 87 3f 0e 70 1a c0 43 97 27 c0 9a 92 91 bf
       1.0589951 -2.4130893 -2.6186073 -1.1372864
000380 de 2c 13 bf 23 b7 5e bf eb b0 9a bf 47 68 cd 3e
       -0.57490337 -0.86998194 -1.2085241 0.4011862
000390 33 56 32 bf cb 55 19 c0 4e a6 aa bf 1e 62 42 bf
       -0.6966278 -2.3958614 -1.3332002 -0.75930965
0003a0 84 0c b5 3f a8 c0 7f 3f e4 92 21 c0 e1 ef c6 bf
       1.4144444 0.99903345 -2.5245905 -1.5541955
0003b0 5e aa 4b bf af 5c 9d bf 59 28 d1 be ca 26 3c 3f
       -0.79556835 -1.229391 -0.40851095 0.7349669
0003c0 82 ed 97 bf 56 ae c6 be b7 f2 23 3f ab bc a6 bf
       -1.1869357 -0.38804883 0.6404223 -1.3026327
0003d0 e5 4a ff be df f4 fc be 40 0c 24 be e7 7f 31 be
       -0.49861827 -0.49405572 -0.16020298 -0.17333947
0003e0 2c dc a5 bf 11 53 68 bf b3 18 26 3f e3 50 5c bf
       -1.2957816 -0.9075175 0.6488144 -0.86060923
0003f0 73 27 bb bf 01 20 ce bf c8 0f a8 bf 55 05 ae be
       -1.4621414 -1.6103517 -1.3129816 -0.33988443

weight f4 [256, 256]
000000 e4 49 0a 3e a2 86 93 be ef 4d 3e 3e 87 b7 cc 3e
       0.1350475 -0.28813654 0.18584417 0.3998377
000010 14 13 49 be d6 49 cd be 2d b1 cf 3e 05 f1 ea 3d
       -0.19636184 -0.40095395 0.40564862 0.11471752
000020 39 6f 60 bf 60 22 02 3f d2 b6 70 bf 87 6d 35 bf
       -0.8766971 0.508337 -0.9402896 -0.7087025
000030 31 f1 cb bd b8 73 c3 be 4d 06 4f bd 82 d1 aa 3e
       -0.09958113 -0.38174224 -0.05054312 0.33362967
000040 94 58 26 bf 31 ba f5 be ad 7e 3a be ad 66 a0 be
       -0.6497891 -0.47993615 -0.18212385 -0.31328335
000050 3d 13 08 be 8f 52 4d bf 9f f5 36 3d b3 b1 a4 bf
       -0.13288589 -0.802041 0.044667836 -1.286673
000060 6f c1 1f bf c2 9a d4 bd 8a 2c da bc db 0f af bd
       -0.6240453 -0.1038108 -0.026632566 -0.08547946
000070 26 03 d5 3c d6 1a e0 3e 64 37 2a bf ef e1 1f 3e
       0.026002478 0.43770474 -0.6649077 0.1561353
000080 fb b3 ac 3d 09 fd 74 bf 20 3c 28 3f 70 b5 50 be
       0.08432766 -0.956986 0.65716743 -0.20381713
000090 fe 5f 83 be 0b 1c 8c bf ae 12 1e bf c0 86 2c bf
       -0.25659174 -1.0946058 -0.6174725 -0.6739311
0000a0 51 4b 66 bf 06 e7 be 3e 02 38 96 bf 89 81 a6 3e
       -0.89958674 0.37285632 -1.1735842 0.32520702
0000b0 c0 5d 34 3f 72 3d 1f be 49 b9 a6 bf 7f 01 1d bf
       0.7045555 -0.15550783 -1.3025295 -0.6133041
0000c0 70 51 27 bf c9 1b 6a bf bb 8f a8 bd a3 0c 89 be
       -0.6535864 -0.91448647 -0.082305394 -0.26767454
0000d0 50 f1 54 3e b3 14 0f bf c5 81 54 bf 6d b8 4c bf
       0.20795178 -0.5589096 -0.8301051 -0.7996891
0000e0 90 7c ac be 45 e4 48 3e fc 29 f8 3e f5 c0 b6 bf
       -0.33688784 0.19618328 0.48469532 -1.4277636
0000f0 0c c5 1d 3f d9 7b 01 bf 40 1d 8b 3e 98 39 19 3f
       0.61628795 -0.505796 0.27170753 0.59853506
000100 c8 6a e2 3b d0 88 38 be 13 4c de be 68 88 59 3f
       0.006909702 -0.1802094 -0.43417415 0.84973764
000110 74 55 f4 be e4 31 9c bf 1d 69 d6 be 19 29 30 be
       -0.47721446 -1.2202725 -0.4187707 -0.17203178
000120 73 81 38 bf ad cb 31 3f c4 51 99 3e 81 fe 0a 3e
       -0.72072524 0.6945141 0.29945195 0.13573648
000130 d5 c1 92 be 5d 30 f9 bd 21 d5 ed 3c c4 5e 9a bf
       -0.28663507 -0.12167428 0.029032292 -1.206017
000140 c1 02 e6 3e de 49 03 c0 d4 86 61 bf ff 41 2a bf
       0.44923976 -2.0513835 -0.88096356 -0.6650695
000150 f4 7f ca 3e d6 4e 1f 3f a7 3e af 3d da 1f c4 be
       0.39550745 0.6222967 0.08556872 -0.3830555
000160 e7 15 0d 3c 74 61 b2 3e 10 36 ee bd 2d e7 1e be
       0.008611179 0.34839976 -0.11631405 -0.15517874
000170 6d cc a6 bf fd 86 eb be 23 06 13 3f cb cd 2c 3f
       -1.3031136 -0.46001425 0.5743124 0.67501515
000180 ed 9b d8 3e c3 c5 5a bf c2 a1 c7 be f6 54 9f bd
       0.42306462 -0.8545801 -0.389906 -0.07779877
000190 59 52 2a bf af 30 1d bf 9f 5d e6 3e 56 94 2e bf
       -0.665319 -0.6140241 0.44993302 -0.6819509
0001a0 9d 91 02 be 5b 57 63 be fc 48 a6 be fa 15 8b 3f
       -0.1275086 -0.22201292 -0.32477558 1.0866082
0001b0 ec b1 80 bf 19 65 dd 3e ed b8 a6 bf e2 30 b0 bd
       -1.0054297 0.43241194 -1.3025185 -0.08603074
0001c0 1a 01 af 3e bb 79 84 bf 2c b7 0d 3f bd 66 1b bf
       0.34180528 -1.0349649 0.55357623 -0.6070364
0001d0 f1 b9 58 bf a2 f9 c6 bf 92 53 ce bf c1 16 97 bd
       -0.84658724 -1.5544932 -1.6119254 -0.07377387
0001e0 43 fb 47 3e 24 58 2c 3f fb bf 1f be a8 61 85 bf
       0.19529442 0.6732199 -0.15600578 -1.0420427
0001f0 e6 49 e8 bd 02 e7 49 3f aa 59 50 bf 95 d4 9a bf
       -0.1134222 0.78868115 -0.81386817 -1.2096125
000200 36 7a a7 bd ad d4 a9 bf 1f 59 dc be de 7e 3f bf
       -0.08177607 -1.3268028 -0.43036744 -0.7480296
000210 21 80 ac bd bb 97 d6 be 0e 95 d9 be b8 65 58 3f
       -0.08422876 -0.41912636 -0.42496532 0.8453021
000220 ca b8 80 bf 04 02 51 be ca c1 12 bf a3 19 05 bf
       -1.0056393 -0.20410925 -0.5732695 -0.51992244
000230 09 db 17 bf 15 99 40 bf a2 73 06 3f 87 41 54 3f
       -0.59318596 -0.75233585 0.5252019 0.82912487
000240 5c da 30 bf e5 3c 95 be 6d cc 85 be 4e 33 94 be
       -0.6908319 -0.2914802 -0.26132527 -0.28945392
000250 9e 64 2e be de c1 8a bd 98 d6 dd bd 68 37 e5 bf
       -0.1703057 -0.067752585 -0.10831946 -1.7907534
000260 23 67 9a bf 48 5b cf be 2a f1 39 3e 88 0f 6f 3b
       -1.2062725 -0.4049933 0.18158403 0.0036477763
000270 d1 e6 7b bf d1 bf 46 bf f4 9b 08 bd ae f2 bb bf
       -0.9839907 -0.7763644 -0.033351853 -1.4683435
000280 7a be 13 3f 57 8a 3e bf e9 86 d0 3e b9 10 b7 be
       0.5771252 -0.7442984 0.40727928 -0.35754946
000290 a3 da 9e be 80 f9 a2 bf 17 80 fa 3c 81 76 52 bf
       -0.31026182 -1.2732391 0.030578656 -0.8221207
0002a0 8a 4b 00 3f a0 8d aa bd 06 50 93 be 37 2d 03 bf
       0.50115263 -0.08327794 -0.2877199 -0.5124087
0002b0 8c c5 09 be 1e 25 c4 3e ab 39 d9 bf a2 75 bb bf
       -0.13454264 0.38309568 -1.6970724 -1.4645274
0002c0 a1 65 4b 3e f6 a9 da be be 8b 88 be 93 f0 c7 be
       0.19862987 -0.42707795 -0.26669115 -0.3905073
0002d0 29 2d c3 be 9c b6 7a bf 47 21 22 bf 68 ce 39 bf
       -0.38120392 -0.9793489 -0.6333203 -0.72580576
0002e0 d5 dc a4 bf 8d 8b 14 be 27 15 f6 bd 94 42 24 bf
       -1.2879893 -0.1450636 -0.12015753 -0.6416409
0002f0 d1 98 30 3f f6 3b d2 be 23 f3 a7 be 0b cd 5c bf
       0.6898318 -0.41061372 -0.32802686 -0.8625037
000300 9c 59 55 bf 57 82 f9 be 2b fe 0d be 3e 5c c9 be
       -0.8333986 -0.48732254 -0.13866489 -0.39328188
000310 5e 1b 14 3d 96 ba a2 be 1b 79 b2 bf a8 5f 1f bf
       0.036158912 -0.3178298 -1.3943208 -0.62255335
000320 b9 e4 2a be 00 c5 36 3f 8b 2f fc bf 56 5c 27 3e
       -0.16688813 0.7139435 -1.9702009 0.16343817
000330 61 18 3d be 3a c8 46 bf 22 49 b5 bf 8c bb 0a bf
       -0.18466331 -0.7764927 -1.4162943 -0.54192424
000340 38 0e de ba d3 71 35 3e 6b 8d d2 be 0e ea 2c bf
       -0.0016941493 0.17719202 -0.41123518 -0.6754464
000350 17 b2 b4 3d bc 24 8e 3e e6 31 1f bf ef 7d 67 bf
       0.088230304 0.277624 -0.62185514 -0.90426534
000360 1f 81 32 3d 44 fa 23 c0 2a dc 46 be f7 e2 b2 3e
       0.04358017 -2.56215 -0.19419923 0.34938785
000370 ff bc 44 bf 9f e1 ba bf ca bc df be 0d 02 75 be
       -0.76850885 -1.4600104 -0.43698722 -0.23926564
000380 1d c1 09 3f 26 f6 23 bf 6d 6f 69 bf 5f e5 b9 be
       0.5381029 -0.6404747 -0.9118565 -0.3630781
000390 1c 91 36 c0 c1 24 79 3e 15 f9 f3 bd f1 7d db bd
       -2.8526068 0.24330427 -0.11912743 -0.10717381
0003a0 74 33 6b 3e 56 1a 14 be 24 78 17 c0 8d 92 4b 3f
       0.22968847 -0.14463171 -2.3667078 0.79520494
0003b0 d4 7e c5 bf ab 90 30 be 62 e9 d1 3d a8 71 41 3e
       -1.542933 -0.17242686 0.10249592 0.18891013
0003c0 1f 65 9a bf 64 cd 03 bf 61 a5 43 3f 16 74 3a be
       -1.206211 -0.51485276 0.76424223 -0.18208346
0003d0 46 f9 71 bf 6d 3b e9 bf 3a a6 82 bf 78 16 08 bf
       -0.94520986 -1.822126 -1.0206978 -0.53159285
0003e0 e1 38 10 bf 0f 45 81 bd bf d3 7b be 2d c4 b1 be
       -0.5633679 -0.06312 -0.24592493 -0.34719983
0003f0 b3 15 ea bd f0 b0 e2 bd fd 2f 00 bf da e2 20 3d
       -0.1142992 -0.110689044 -0.50073224 0.039278843

bias f4 [256]
000000 3c d2 bd bf 25 69 d6 bf fa 7b 1a bf eb 4f e7 be
       -1.4829783 -1.6750838 -0.60345423 -0.4517816
000010 eb 34 81 bf 4e 40 48 bf 74 d7 b1 bd 92 1b 7f bf
       -1.0094274 -0.7822312 -0.086836725 -0.99651444
000020 ea 6d ae bd 9b ae f4 bd f7 20 4f bf f5 e3 46 bf
       -0.08517058 -0.11947366 -0.80909675 -0.77691585
000030 57 94 53 bf 0d e9 6a bf 63 5f fd be 48 84 05 bf
       -0.82648224 -0.9176186 -0.49486837 -0.5215497
000040 13 99 64 bf a2 4f 95 be 06 33 b1 be db 82 b5 bd
       -0.8929607 -0.29162318 -0.3460924 -0.08862849
000050 ef dc 15 bf ea 93 d7 be 53 25 02 bf 6d cf 92 bd
       -0.5854024 -0.42105037 -0.508382 -0.071684696
000060 73 22 a4 be 5f 0f 42 3d 29 68 ad be 1f 7f fb be
       -0.32057533 0.04737794 -0.3386853 -0.49120423
000070 e9 df 9d 3d a0 42 a3 bf 80 d6 10 bd d9 25 c1 bf
       0.07708723 -1.2754707 -0.035360813 -1.5089675
000080 27 89 15 bf 46 72 17 bf 00 01 dd bd 99 dc 1e 3f
       -0.584124 -0.5915874 -0.10791206 0.62055355
000090 a2 9d 6b be c4 13 8d bf ab 2b 5d 3f b9 0b 27 3f
       -0.23009351 -1.1021657 0.8639476 0.6525226
0000a0 f5 eb cd be 52 4a 46 bf 54 01 65 3c 05 9b 73 bc
       -0.40219083 -0.77457154 0.013977367 -0.0148685025
0000b0 6b 1f 71 bf 3f 09 3b be 3d 25 12 bf c0 85 9a bd
       -0.94188565 -0.18265246 -0.5708807 -0.07545042
0000c0 91 7d 63 bd 95 80 58 bf 92 69 2e be ee 4f d0 bc
       -0.05553967 -0.845712 -0.1703246 -0.025428738
0000d0 53 f8 5e bf 30 d1 fe bf 62 2b 26 c0 8b 4a 9d 3f
       -0.8709766 -1.9907589 -2.5963979 1.2288374
0000e0 07 4c 1f c0 a8 2f 84 3f f2 04 e0 bd cc 1e 87 3f
       -2.4890153 1.0327044 -0.10938443 1.0556273
0000f0 95 7f 16 bf 13 52 2e c0 74 71 9e be 5b dc 80 3f
       -0.58788425 -2.7237594 -0.30945933 1.0067247
000100 75 1d 8c 3f 59 a0 24 bf 74 a9 df 3f be bb 64 bd
       1.094649 -0.6430717 1.7473588 -0.055843107
000110 27 87 f6 bd 4d e2 ed be 1e 58 1e c0 30 0d d8 be
       -0.12037497 -0.46461716 -2.4741282 -0.4219756
000120 fb e9 a8 bf 25 8a 3e 3f 08 b2 39 bf 51 aa 95 3e
       -1.3196405 0.7442954 -0.7253728 0.29231504
000130 a4 ed c2 bd 82 ba 0b bf df bf 7b bf 60 2b f8 be
       -0.095179826 -0.54581463 -0.9833965 -0.48470592
000140 70 fb 08 bf 38 fd da bf 82 ca 11 bf 62 bb 3e bf
       -0.53508663 -1.7108526 -0.5694963 -0.74504673
000150 f9 e1 01 be d4 e8 a7 bf 9e ea b3 be 74 7d 27 bf
       -0.12683858 -1.3117929 -0.35139936 -0.654258
000160 1b af cf be d0 94 bd be 14 0d c5 bf b3 6f 39 bd
       -0.40563282 -0.37027597 -1.5394616 -0.04527254
000170 f3 2d a5 3d c1 eb d2 bd ef 43 b6 bf fd c5 f8 bd
       0.08065405 -0.10298873 -1.4239482 -0.12147138
000180 1b da e2 bf a0 cc 20 bf 55 a3 c4 bf a0 72 f3 3d
       -1.772281 -0.6281223 -1.5362345 0.11887097
000190 f6 36 90 bf 91 1d 20 bf 2c 9a 31 bf a8 7c dd bf
       -1.1266773 -0.62545115 -0.6937587 -1.7303667
0001a0 ac 4d e3 3d 2b 16 be bd 6e 36 1e 3e ad a2 7a 3f
       0.11098799 -0.09281572 0.15450451 0.97904474
0001b0 f0 a5 38 bf 15 78 49 bf b8 25 22 3e 2e ab ce be
       -0.721282 -0.78698856 0.15834701 -0.40364975
0001c0 ec 21 86 3f c3 c2 8a bf b5 88 82 bf ec ab fe bf
       1.0479102 -1.0840687 -1.019797 -1.9896216
0001d0 01 69 1a bf 7b cd 85 3e 23 36 2b bf ed 6c 21 bf
       -0.60316473 0.26133332 -0.6687948 -0.6305683
0001e0 f1 7a bc bf 52 aa f0 be f4 94 31 3f d4 a8 a2 bf
       -1.4725019 -0.47004944 0.6936791 -1.2707772
0001f0 cc 94 00 bf 17 b9 d7 bf 5b 84 05 3f a5 b2 46 bf
       -0.50227046 -1.685336 0.52155083 -0.7761634
000200 72 08 08 be 94 a6 38 bf ab ae 41 be 44 28 c9 bf
       -0.13284472 -0.7212918 -0.18914287 -1.5715413
000210 1f 7d 06 bf a9 93 c1 3d 73 1a a3 bf a7 c5 f7 3f
       -0.5253467 0.09451992 -1.2742447 1.9357194
000220 33 ff 29 3f fa 68 0c 3f 51 8c 91 bf 9b 90 ed bd
       0.6640503 0.5484768 -1.1370946 -0.11599847
000230 1e 9f 0c bf f5 82 61 bf 1d b5 70 be 4b 90 30 3e
       -0.54930294 -0.8809045 -0.23506589 0.17242543
000240 7d df 56 3c 96 1a 81 be ce 81 ec be 07 55 ab 3f
       0.013114807 -0.25215596 -0.46192783 1.3385323
000250 b3 79 2c bf 07 3a 61 bf 05 00 99 3e 27 1c e2 be
       -0.673732 -0.8797917 0.29882827 -0.44162104
000260 96 05 c7 be cd 31 c1 bd 42 0d 86 bf df af f6 be
       -0.3887145 -0.09433327 -1.0472796 -0.48181054
000270 41 35 88 be eb 6a 67 bd 09 90 f2 bd 83 5f 79 be
       -0.2660313 -0.05649845 -0.11843879 -0.24352841
000280 49 d5 30 bd 68 dd 12 bf d5 37 d6 3f 36 a8 04 c0
       -0.043172155 -0.5736909 1.6735789 -2.0727668
000290 fc 3e 29 bf 77 ce 57 bf ca 2a c5 3e a3 36 80 3e
       -0.6611173 -0.84299415 0.38509208 0.25041685
0002a0 26 fa c8 bd 41 90 17 bf 9a 4e b9 bf 0a 69 af be
       -0.09813337 -0.5920449 -1.4477112 -0.34259826
0002b0 58 fc 90 bf 39 ee f0 be 0e bc 9f 3e 0d 6a 6b be
       -1.1327009 -0.4705675 0.31198162 -0.22989674
0002c0 39 df fd 3e 5f 95 1d 3f 9e cc a3 be 38 3f aa bf
       0.49584368 0.6155605 -0.31992048 -1.3300543
0002d0 33 c7 49 bf ce 5b 46 bf 6e f8 3c bf 18 82 19 bf
       -0.7881958 -0.7748383 -0.73816574 -0.5996413
0002e0 3f 41 ac be 73 ee 82 bf c0 b6 04 3e d0 0f bc bf
       -0.3364353 -1.0229019 0.12960339 -1.4692326
0002f0 2d 3a 02 3f c6 33 ab 3f d8 53 6a bb 15 0e ba be
       0.5087002 1.3375175 -0.0035755541 -0.3633887
000300 a5 b0 31 bf 6f e8 96 be c1 92 fa be 4f 5a 06 bf
       -0.69410163 -0.29474208 -0.4894009 -0.5248155
000310 f3 e3 52 bf 92 c0 05 c0 60 5e af bf 18 c1 6a bf
       -0.8237907 -2.0898786 -1.3700676 -0.9170089
000320 61 38 64 3f cb ad 3d bf 44 f1 76 be 4e ba 06 bf
       0.8914853 -0.7409331 -0.24115473 -0.5262803
000330 ac ed c8 be 81 7f 8e 3f b0 80 0e bf ea 48 27 bf
       -0.3924383 1.1132661 -0.5566511 -0.65345633
000340 df 6a 00 c0 1c 0a 90 3f 3e 25 ad bd 5d 49 b0 bd
       -2.006523 1.1253085 -0.08454369 -0.08607743
000350 12 b1 df be 94 5c 2e bf c1 cc ce bf da ee 02 bf
       -0.4368978 -0.68110013 -1.6156236 -0.5114571
000360 b8 ad d9 be 1d 16 85 be 80 6f 1b bf cc cc 02 bf
       -0.4251535 -0.25993434 -0.6071701 -0.51093745
000370 cc f0 73 bf ce ed 95 3f fe ef 90 bf 70 2f 7f be
       -0.952893 1.1713197 -1.132324 -0.2492044
000380 ca a8 54 be d7 d0 af bf 00 65 2d be 09 67 8f bf
       -0.20767513 -1.3735608 -0.1693306 -1.1203319
000390 36 f8 49 bd a5 d6 c8 bf 1a ce 4e bf bc f0 65 bf
       -0.049308978 -1.5690504 -0.80783236 -0.89820457
0003a0 ec 03 2c bf a4 1e 2f bf cc f4 dc be 11 e5 3d bf
       -0.67193484 -0.6840613 -0.43155515 -0.7417765
0003b0 25 bf 1f bf 0a 14 ce 3e 7b a4 89 bf b5 4c 64 bf
       -0.6240104 0.40249664 -1.075332 -0.89179546
0003c0 0c a1 6b bf 5e 9d e4 bd 09 97 a7 bf 84 cf 0c bf
       -0.92042613 -0.11162828 -1.3092967 -0.55004144
0003d0 d5 99 4e bf bf 27 18 c0 53 d8 15 40 18 96 b1 bd
       -0.8070348 -2.377426 2.3413284 -0.08671206
0003e0 77 3a 40 3f e1 64 5e bf 54 04 46 be 50 ea 39 3f
       0.7508921 -0.8687268 -0.19337589 0.7262316
0003f0 08 ee 35 bf 8d df f2 bd 63 52 bf be 48 8d 03 c0
       -0.7106633 -0.11859045 -0.37367544 -2.0554981

weight f4 [8, 256]
000000 ed 2a 39 bd 61 88 f2 be cf e6 df bc 37 4b 98 3f
       -0.045206953 -0.47369674 -0.027331738 1.1897954
000010 5d 49 51 3f 29 73 a8 bb bb 22 e6 3c 65 0a 61 be
       0.8175257 -0.0051406813 0.028092733 -0.21976621
000020 84 24 8e 3c f0 b9 b7 3d 6c 3d a8 3f 52 ff 57 3d
       0.017351396 0.08971012 1.3143744 0.052733727
000030 e7 85 b5 3c b6 50 01 3f ab 92 dc 3e b1 aa ea bd
       0.022158576 0.5051378 0.4308065 -0.11458338
000040 21 8a d1 3f 77 8f 1d be dd af 2d 3e 0c 9f d8 3f
       1.6370279 -0.15386759 0.16961618 1.6923537
000050 a0 8d 70 be 4c ed b0 bc 8a 56 04 bd 01 89 bf 3d
       -0.23491526 -0.021597527 -0.032309093 0.09352303
000060 ab f0 14 3d b3 45 90 3d c3 20 f4 bd cc fb 10 3f
       0.03636233 0.07044544 -0.11920311 0.5663421
000070 9d 47 94 bc f5 d4 79 be 8a 7b e6 bd 95 9f 98 3d
       -0.018100554 -0.24397643 -0.11254032 0.07452313
000080 cb 46 d4 3f f4 9e ef 3e df 92 0f 3d ce 0a 5a bd
       1.6584104 0.4680096 0.035052177 -0.05323296
000090 36 5f be bc 76 05 b3 ba d8 01 cf 3d 66 dd 02 ba
       -0.02323876 -0.0013658244 0.101077735 -0.00049920974
0000a0 1d d7 ab 3f 8a 01 ef 3d c4 d3 1b be d2 53 a7 be
       1.3425022 0.116702154 -0.15217501 -0.32681137
0000b0 e3 5b a1 3f f7 99 b8 3b cf f4 4b 3d 6b 71 80 bd
       1.2606167 0.0056335884 0.049794015 -0.06271633
0000c0 6d 3b 15 bf 8a 2e 76 bf ce d3 31 bf e3 85 22 3d
       -0.582938 -0.9616476 -0.69463813 0.039678466
0000d0 4b bc 23 3d 39 e6 ea be 36 35 28 3f 00 96 97 bd
       0.039974492 -0.4587877 0.65706193 -0.07401657
0000e0 81 fd c2 3e 53 c2 a1 3e 5e d7 07 bc 04 9a c6 bd
       0.38084033 0.3159357 -0.008291094 -0.09697345
0000f0 e1 ac 93 bd af 1b ad bd 2a 56 5e 3f 29 58 82 bd
       -0.072107084 -0.08452546 0.86850226 -0.063644715
000100 2a 5b ce 3d c1 bf 1c 3d f6 4d 74 3d a2 0d 23 3d
       0.10075982 0.03826881 0.05964466 0.039807923
000110 c7 7c 3e 3d f5 90 de be b9 51 97 bd 90 13 d4 bc
       0.046505716 -0.43469968 -0.07388634 -0.025888234
000120 88 5e e2 3e 08 b0 3e bd de c2 b8 3c b3 aa ee 3d
       0.44212747 -0.046554595 0.022553857 0.11653652
000130 dd c8 3b bc fb a4 cc 3e 4f cb 97 be 1a e7 b0 3c
       -0.011461464 0.3996962 -0.296473 0.021594573
000140 aa 25 8b bd f2 95 e2 3c c0 ae 23 3c 5f dd 40 bf
       -0.06794293 0.02765939 0.009990394 -0.75337785
000150 b2 a8 5e 3d cf 04 fe be 3f 6c c4 3e 8b ba c4 3d
       0.0543601 -0.49613044 0.38363835 0.09605893
000160 5d 37 86 bf ba 37 8e 3d 8f 56 b3 bd 0f 5e 4d bd
       -1.0485646 0.06944223 -0.08756744 -0.05013853
000170 08 e9 90 bc 2a 9f 0f bc 22 38 d1 3e fd 40 37 3c
       -0.017689243 -0.008765975 0.40863138 0.011184928
000180 ee cc d5 3e cf 1e fa 3d df 55 33 3f bb 92 aa 3d
       0.4175791 0.122129075 0.70052904 0.08328768
000190 7b 53 d4 3c 62 1e 26 3f 7d e1 0c 3f 5f 60 28 bf
       0.025918713 0.6489011 0.5503157 -0.6577205
0001a0 de bc 09 be b3 58 9d be 40 22 40 3e 28 4b 1a 3c
       -0.13450953 -0.30731735 0.18763065 0.009417333
0001b0 9d bf 74 bf 0c 46 06 3e dc e8 41 3e 9f ec 65 bf
       -0.9560488 0.13112658 0.18936485 -0.8981418
0001c0 61 d8 fd bc 17 02 d3 bd d6 97 f7 bd 9f 24 89 3e
       -0.030986967 -0.10303133 -0.12089507 0.26785752
0001d0 bb d2 9e 3f 08 89 e6 39 18 61 4c bf a6 cb 38 bd
       1.240806 0.00043971115 -0.79835653 -0.04511609
0001e0 cd 57 79 be 3e 67 ff 3d b5 f6 a9 bb 9b 6d 8b be
       -0.243499 0.12470864 -0.0051868805 -0.2723206
0001f0 90 94 3e bf 5c d0 88 3f 6e 0e a7 bd 5a f3 25 3e
       -0.7444544 1.0688586 -0.08157049 0.16206113
000200 9d 77 ab bd 0d 86 8f bd 5d 2b 4c 3e 1b 43 58 bf
       -0.08372424 -0.0700799 0.19938417 -0.84477395
000210 92 2e a8 3d a3 4a 2f bd 58 97 5c bf 89 e3 01 3f
       0.082120076 -0.04279579 -0.8616843 0.50737816
000220 e3 79 36 3d 19 31 66 bd a3 8d fa 3d a0 59 a1 bc
       0.044549834 -0.056199167 0.12234046 -0.019696057
000230 00 9f 12 be b5 65 49 36 55 e2 27 3f 20 11 5f be
       -0.14318466 3.0010535e-06 0.6557973 -0.21783876
000240 f9 b1 2e 3d e9 29 60 3e e4 dc a7 3e 10 48 55 bd
       0.042650197 0.21890987 0.32785714 -0.052070677
000250 3d c7 04 bf ae 0f a8 bf 79 e8 52 be f3 a0 14 bf
       -0.51866513 -1.3129785 -0.20596494 -0.5805809
000260 38 b7 81 be d6 e6 31 3d 28 5a 5b 3d 85 9c 48 be
       -0.25335097 0.043433033 0.053552777 -0.19590957
000270 1e ff de 3c fd f1 33 3d 8e ce 66 bd f9 01 4f 3e
       0.027221259 0.04393195 -0.05634933 0.20215596
000280 df 67 19 3e 84 08 ed be 2e 4c c7 3c a3 29 36 3f
       0.1498103 -0.4629556 0.024328317 0.7115728
000290 65 5a 12 3e b5 ca fa 3e 27 23 b3 bd c6 19 31 bf
       0.14292295 0.48982778 -0.08746939 -0.6917995
0002a0 9a 3e 9e 40 91 1a a7 3c 61 aa 85 3c 29 62 10 be
       4.945142 0.02039841 0.016316595 -0.14099945
0002b0 b4 8e a7 3e ad 88 0a be b0 7a 13 bd ab 0b d7 3d
       0.3272606 -0.135287 -0.036005676 0.10500272
0002c0 b2 58 e3 3d 9d b7 d2 3e 81 12 83 be 76 16 f3 bc
       0.11100902 0.4115571 -0.25600055 -0.029673796
0002d0 40 67 54 3d 04 45 b7 3e 63 da 5c c0 95 41 31 3e
       0.05185628 0.35794842 -3.4508293 0.17310174
0002e0 75 ad b6 be d7 aa 0e be c4 6b 83 bd 18 04 e3 be
       -0.35679212 -0.13932358 -0.06417039 -0.4433906
0002f0 dc 64 7f bf ea f1 0b 3f 05 48 fc be 45 3f 32 3f
       -0.99763274 0.54666007 -0.49273697 0.6962779
000300 85 60 64 be a0 25 b1 be 4c dc ca 3c 42 01 62 be
       -0.22302444 -0.34599018 0.024763249 -0.22070792
000310 44 e8 80 3e 8d 62 5e bf 40 41 fc 3f c7 ae e1 be
       0.25177205 -0.86869127 1.9707413 -0.44078657
000320 67 ee a5 3d 1e 8c 32 be 6e d1 1e be 9e 83 e2 3f
       0.08102112 -0.17436263 -0.15509579 1.7696416
000330 99 d9 a3 bc 62 c3 a7 3d f4 92 99 be 32 cd ea bd
       -0.02000122 0.08191563 -0.2999493 -0.11464919
000340 70 22 45 3f 93 9e 1e 3d cb 95 57 ba d4 d0 6d bc
       0.7700567 0.038725447 -0.000822392 -0.014515121
000350 6c a2 10 bc a2 6a 29 3d 0b cb 88 3e 39 51 84 3f
       -0.008827787 0.04136146 0.2671741 1.0337287
000360 22 75 77 3c 8a 8b 72 be 3c 11 12 3e 94 c1 49 3f
       0.01510361 -0.23686042 0.14264387 0.78811
000370 0b 68 69 bf d2 ce 81 3d 0f de 61 c0 54 5e b2 3e
       -0.9117438 0.06338276 -3.5291784 0.34837592
000380 26 be cc 3e 52 86 b7 bd 14 33 2e bf d3 31 8a 3f
       0.39988822 -0.089611664 -0.6804669 1.0796455
000390 e2 d0 b6 bb 35 41 e7 bc f2 8b 55 be 83 3b cf bf
       -0.0055791 -0.028229335 -0.20854166 -1.6190037
0003a0 72 06 5a be ea 98 cb 3d 8c 52 a2 bf d9 5f 12 be
       -0.21291521 0.099412754 -1.2681441 -0.14294375
0003b0 0d e1 ff 3d 4c 12 01 bd ae d7 ee be e1 a0 90 bf
       0.12494097 -0.03151159 -0.46648926 -1.1299096
0003c0 f5 0f 13 bf dc 06 ef 3c fb 7f 76 3e 79 f3 94 be
       -0.57446223 0.029178075 0.24072258 -0.29092005
0003d0 cc 28 02 c0 4d 64 9e 3c 1b a8 a0 3d 92 ad 2a 3d
       -2.03374 0.019334937 0.078445636 0.041669436
0003e0 63 f2 2a be 51 8e 27 3e 93 f0 ee be 98 40 d2 3c
       -0.16694026 0.16362883 -0.4666792 0.025665566
0003f0 f5 88 d8 3c ea 19 3f be 99 ed 7b bf 63 52 b0 bf
       0.026432494 -0.18662229 -0.9840942 -1.3775142

bias f4 [8]
000000 70 de 5c bf 4d a5 25 3f 05 0e 12 be 83 53 da 3e
       -0.8627691 0.64705354 -0.1426316 0.4264184
000010 f8 4b 1c 3e 38 e9 37 bf 0d 56 3b be 93 83 bf 3d
       0.15263355 -0.7184024 -0.18294545 0.09351268
