runs/AntRandom-v5_td3_3_reward_1752857818/best_policy.pt (torch, 384069 bytes, 6 tensors)

weight f4 [256, 105]
0.36178485 -1.0103098 -2.026123 1.1715257 -2.374657 2.9707122 -0.0799963 -2.1869192
-0.5636526 2.050551 1.0937382 -1.7988272 0.30744842 -0.8412659 -0.42869252 -0.27885947
1.3549587 0.08676937 -0.044185016 0.14887239 -0.023935808 -0.05791227 0.26930094 -0.1767969
-0.046776127 0.2806649 0.313956 -2.0445442 2.2617712 -2.7693236 2.9264157 2.3191326
-0.16875158 -0.08752811 -0.084582075 -0.048022598 -0.02564159 -0.09674596 -0.04569043 -2.028661
2.296456 -0.7329321 -0.28749284 -0.32486016 -3.591536 -0.5557633 -0.5485532 -0.0970591
-0.33839783 0.019529235 -0.30087653 -0.039405636 -0.0138452705 0.086237304 0.06269541 0.024332551
-0.035007134 -1.0613202 -0.6176394 0.2093458 -0.4511569 0.36543688 -3.4761355 0.1361716
0.4930243 0.06777961 0.08829508 -0.20770884 -0.51529765 0.04364462 0.02099257 0.08041085
-0.044268787 0.0014552864 0.059966236 -0.54155874 -1.2202493 1.0481353 0.2992382 -0.3921559
-0.74044967 -0.8747663 0.14663655 0.7547632 0.7683716 -0.10801366 -0.5442217 -0.08612135
-0.064854816 -0.033278536 -0.039683726 0.028824985 -0.08183062 0.7798652 2.2633514 -2.7474937
0.6886248 2.134959 1.4100429 -0.86948705 0.016379751 -0.77632093 -0.11146129 -0.5237787
0.2808627 0.40555578 -1.2564467 11.478978 -4.3777056 1.6747136 0.35513303 -0.59232694
-0.14238012 0.04065501 0.51243794 -0.8058336 -0.002490139 0.59843177 0.32155848 -0.29621497
-0.06239116 0.66614443 -0.43984488 0.047922723 -0.008108164 -0.10206864 0.0026384946 0.03466899
0.048491854 -0.080269545 0.01899651 0.043029267 -0.3438713 0.5508959 0.2410368 -0.27245
2.0361297 -0.9831954 -0.09182108 -0.012922968 -0.09402944 0.0011955654 0.0043089124 0.03176052
1.5801713 -1.8346779 1.1642785 -2.4309208 -0.22197926 0.61081326 -0.19193327 0.3094238
0.17097236 0.034326248 -0.0614041 -0.112323366 0.073468514 0.0033384112 0.024731666 -0.03541389
-0.07822249 0.009338913 -2.216008 0.47027612 0.7176535 -1.3653786 0.72528064 1.0974802
0.1291811 0.3238941 -0.092806585 0.018191699 -0.072232194 -0.37283844 0.010732482 0.045060698
-0.050400306 0.07101948 0.06507758 -0.04901074 -1.3595163 -0.61977065 1.4355397 -3.2846758
0.65027976 0.69741637 0.2660257 -0.2727825 -0.17172697 -1.0275531 0.10886073 -0.90085334
-0.054965552 0.010205421 0.03528654 0.052418053 0.0055062 0.023021463 1.9953997 1.9719126
-0.8229112 1.7702093 0.7840569 1.960383 0.34339255 0.21130677 -0.49726775 -0.24462655
0.13476785 -0.5710538 0.76681924 0.029285686 -2.8091443 -2.3701751 2.1719718 0.90233076
-1.4092656 1.3735317 0.0046202326 1.1917986 1.1045029 -1.3477964 -1.6014304 -0.07963013
0.2692979 0.3831681 -0.13012387 0.09879352 0.6227674 -0.0039544078 -0.03227742 0.11440151
0.06012184 0.22417107 0.03980099 0.059384815 -0.0018777326 0.056365706 -0.05040441 0.93662244
1.199067 -0.017321112 -0.23400614 -0.010573544 0.036582187 0.06259023 0.023117976 0.06305398
-0.030484976 -0.13279732 -1.3570175 -0.17582178 -1.8466324 0.8877911 -0.9660472 0.031863846
00000000: dd3b b93e d551 81bf 00ac 01c0 8ef4 953f
00000010: 61fa 17c0 2620 3e40 1ad5 a3bd 7cf6 0bc0
00000020: 894b 10bf 3a3c 0340 9dff 8b3f f83f e6bf
00000030: e169 9d3e 345d 57bf 967d dbbe abc6 8ebe
00000040: 496f ad3f 24b4 b13d 59fb 34bd 0172 183e
00000050: 0715 c4bc 6b35 6dbd d0e1 893e 3f0a 35be
00000060: 5398 3fbd 4fb3 8f3e d7be a03e d0d9 02c0
00000070: dcc0 1040 993c 31c0 654a 3b40 ab6c 1440
00000080: 37cd 2cbe f041 b3bd 5e39 adbd 58b3 44bd
00000090: 500e d2bc bf22 c6bd e325 3bbd 95d5 01c0
000000a0: 23f9 1240 70a1 3bbf 4332 93be 1254 a6be
000000b0: badb 65c0 8146 0ebf fc6d 0cbf ecc6 c6bd
000000c0: 7b42 adbe c6fb 9f3c 7d0c 9abe ce67 21bd
000000d0: 46d7 62bc 2f9d b03d 7366 803d 0f55 c73c
000000e0: a463 0fbd 57d9 87bf 9e1d 1ebf bf5e 563e
000000f0: 0afe e6be 8b1a bb3e 0179 5ec0 9170 0b3e
00000100: ae6d fc3e 09d0 8a3d 0dd4 b43d a0b1 54be
00000110: 8cea 03bf b3c4 323d 9cf8 ab3c 72ae a43d
00000120: 3053 35bd 4fbf be3a 289f 753d 98a3 0abf
00000130: 2131 9cbf 4c29 863f c035 993e a8c8 c8be
00000140: 1c8e 3dbf aff0 5fbf e427 163e 2938 413f
00000150: 00b4 443f 4436 ddbd 1d52 0bbf 6460 b0bd
00000160: 9ad2 84bd 134f 08bd 678b 22bd 6022 ec3c
00000170: d096 a7bd 3fa5 473f c0da 1040 f0d6 2fc0
00000180: b749 303f 2ba3 0840 497c b43f b496 5ebf
00000190: d42e 863c f8bc 46bf d145 e4bd 5c16 06bf
000001a0: 3ccd 8f3e 02a5 cf3e 3fd3 a0bf e5a9 3741
000001b0: 2a16 8cc0 045d d63f ffd3 b53e bda2 17bf
000001c0: 18cc 11be de85 263d 222f 033f 1c4b 4ebf
000001d0: 9a31 23bb d332 193f 50a3 a43e 7da9 97be
000001e0: df8d 7fbd 7188 2a3f 5933 e1be 9e4a 443d
000001f0: 1bd8 04bc 5d09 d1bd 98ea 2c3b 1201 0e3d
00000200: 659f 463d 5c64 a4bd 929e 9b3c 753f 303d
00000210: e60f b0be 8407 0d3f 5ad2 763e 917e 8bbe
00000220: f34f 0240 b2b2 7bbf b10c bcbd dbba 53bc
00000230: 8292 c0bd 85b4 9c3a c731 8d3b 5217 023d
00000240: 0e43 ca3f bad6 eabf 1407 953f 3594 1bc0
00000250: 884e 63be 425e 1c3f 288a 44be cc6c 9e3e
00000260: 6113 2f3e ae99 0c3d de82 7bbd cb09 e6bd
00000270: a976 963d 3fc9 5a3b 109a ca3c 280e 11bd
00000280: 1d33 a0bd 3d02 193c 13d3 0dc0 08c8 f03e
00000290: 24b8 373f bac4 aebf feab 393f 3b7a 8c3f
000002a0: 0d48 043e 73d5 a53e 6111 bebd c206 953c
000002b0: 79ee 93bd aee4 bebe 4bd7 2f3c 9191 383d
000002c0: 8d70 4ebd a972 913d 6547 853d 7cbf 48bd
000002d0: a104 aebf 4aa9 1ebf c4bf b73f 2138 52c0
000002e0: bc78 263f e189 323f 8534 883e 26aa 8bbe
000002f0: 32d9 2fbe dc86 83bf 60f2 de3d 539e 66bf
00000300: 8f23 61bd a334 273c 9e88 103d 50b4 563d
00000310: 5a6d b43b 8297 bc3c 4269 ff3f a267 fc3f
00000320: 4faa 52bf 3896 e23f f4b7 483f d5ed fa3f
00000330: 26d1 af3e cd60 583e e199 febe 627f 7abe
00000340: 9500 0a3e 9530 12bf 444e 443f 89e8 ef3c
00000350: 05c9 33c0 f3b0 17c0 9601 0b40 26ff 663f
00000360: d162 b4bf e3cf af3f 5265 973b db8c 983f
00000370: 5a60 8d3f 9884 acbf acfb ccbf 1f15 a3bd
00000380: 6ae1 893e 9c2e c43e 313f 05be 4254 ca3d
00000390: af6d 1f3f fa93 81bb 5435 04bd 574b ea3d
000003a0: 5242 763d 1a8d 653e 5d06 233d 7e3d 733d
000003b0: 401e f6ba badf 663d db74 4ebd 7dc6 6f3f
000003c0: 077b 993f 01e5 8dbc 4e9f 6fbe a83c 2dbc
000003d0: 34d7 153d 4e2f 803d e961 bd3c 7222 813d
000003e0: a1bb f9bc 05fc 07be c0b2 adbf a00a 34be
000003f0: 735e ecbf 4746 633f df4e 77bf aa83 023d

bias f4 [256]
-0.803248 -1.5808613 -0.2469654 -1.7555363 0.91992646 -3.05251 1.029407 0.89591926
-0.17569381 -1.2379421 1.5770038 -2.0208342 -0.74736136 -1.6481036 -0.93418694 -1.2404529
-0.28604966 -0.9351793 0.13082285 -1.5919086 0.39259982 0.24586062 -0.15649079 -0.1749191
-1.2870413 -1.0325233 -0.7291548 -0.65088564 -2.42569 -0.61365235 -1.5265373 -1.890696
-0.8958979 -1.3195182 -1.405815 -1.7139202 -3.0166743 1.9886949 -0.8622436 0.23407419
-1.4741029 -1.5708313 -0.9995555 -0.1780299 -0.5668736 -1.9337018 -1.016202 -0.019567583
-0.70898867 -1.4026805 -0.5748219 0.5163968 1.2312799 -1.2024412 0.6985477 -0.5830134
-0.6057905 -0.32963967 1.0551707 0.10479135 -1.5485145 -0.6217333 -1.7038875 -1.4455847
0.003393555 -1.881826 -1.6256807 0.71437955 -1.1169832 -0.17838125 -0.6497438 -1.9420501
0.060394485 -0.0014276089 -1.1025299 -1.1131006 -0.9448498 -0.86699706 -1.1615566 -0.3551222
-0.7070637 -1.5952255 -1.0821584 -1.2938831 -0.23567371 -0.15178454 -1.3502097 -1.0898967
-0.4562952 -1.6266946 -1.7309608 -1.107341 -0.61789316 0.104623795 -0.46315944 -0.0014067495
-1.7951696 -0.48895687 -1.476799 -1.1720637 -2.1039057 -0.8566141 0.51541 -1.2816285
-0.7149969 -2.1813836 -0.1827394 -0.64771277 -0.8136354 -0.28454834 -1.4964782 0.8840596
-0.0009347962 -0.87530184 0.32018533 -1.1634126 -1.3765336 -0.31945217 0.044967975 -1.0597738
0.09869329 -1.2063661 -2.2265084 -0.21482956 -1.9515939 0.4517957 -1.2273484 -1.7625949
-0.29358375 0.79018086 1.4427716 1.172145 -3.1191785 -1.2329082 -1.4637972 0.7924639
-1.0400003 0.8363748 -0.30165464 -1.8744586 -0.0039985985 -2.0075226 0.073182754 -1.4569492
-2.0924075 -0.025349874 0.4235799 -1.1911435 -2.1963387 -1.1025139 -1.3148776 -2.0195017
-1.0868498 -2.3911333 -2.1520128 -1.6031747 -0.6790935 -1.7469871 -1.0414784 -0.011638411
-2.0410252 -2.1764076 -1.6228032 -0.49029395 -1.398255 -0.5582474 -2.0641124 -0.75881666
-1.1561089 -0.71016157 -0.6752828 0.2697588 -1.2307184 -1.1550452 -1.8959415 0.4028499
-0.45826054 -0.20647836 -0.017582042 -1.0491875 -1.9860383 -0.9411568 0.3959776 -0.25994417
-0.41446033 -0.93643785 -1.4228168 0.31451526 -3.111835 -1.7814031 -0.9946749 -2.4415343
-1.2263474 -0.1533575 0.9565421 -0.5521545 0.19309911 -0.22295712 -0.2365649 -0.75047374
-1.2380618 -0.5127395 -0.27569854 -0.6365029 -0.14364386 -0.33136296 0.20814775 -0.7415234
-0.9791348 -0.29379037 0.65223044 0.2460139 -0.9063696 -0.800109 -0.9220423 -1.6685256
0.10908435 -1.3389614 -0.35664478 -0.6949325 0.891542 -1.7285825 -0.23404644 -1.3266318
-0.4001164 0.6661344 -0.2770888 -0.56307983 -0.79999614 -0.78352225 0.03911377 -1.8732436
-1.2742075 -0.08805115 -1.6065402 -0.5079582 -1.9984634 -1.2453127 -1.1566824 -0.59099585
1.4457246 -0.21486823 -2.4544728 -1.040847 -1.3406056 -2.5233164 -0.63392377 -1.4725434
-1.5908349 -2.0369778 -0.44052598 0.021033324 0.47074232 -0.72801316 0.5648898 -0.059321027
00000000: a9a1 4dbf aa59 cabf 7fe4 7cbe 6ab5 e0bf
00000010: 4d80 6b3f 535c 43c0 9cc3 833f f75a 653f
00000020: 14e9 33be e374 9ebf 43db c93f 5955 01c0
00000030: 1353 3fbf 0ff5 d2bf e026 6fbf 29c7 9ebf
00000040: 1a75 92be e967 6fbf 6df6 053e a9c3 cbbf
00000050: d802 c93e e3c2 7b3e 1f3f 20be fe1d 33be
00000060: c5bd a4bf b929 84bf e4a9 3abf 71a0 26bf
00000070: 813e 1bc0 5218 1dbf 9365 c3bf 5402 f2bf
00000080: 9159 65bf f9e5 a8bf bff1 b3bf bd61 dbbf
00000090: 3111 41c0 8e8d fe3f ffbb 5cbf 25b1 6f3e
000000a0: 67af bcbf 0011 c9bf dfe2 7fbf 784d 36be
000000b0: a11e 11bf 8a83 f7bf e812 82bf 324c a0bc
000000c0: 4880 35bf 098b b3bf 8727 13bf 9532 043f
000000d0: 949a 9d3f 98e9 99bf 06d4 323f 5e40 15bf
000000e0: 1615 1bbf 88c6 a8be d50f 873f d99c d63d
000000f0: b935 c6bf ea29 1fbf fc18 dabf eb08 b9bf
00000100: 6866 5e3b addf f0bf 4e16 d0bf 94e1 363f
00000110: 4ef9 8ebf 93a9 36be 9c55 26bf 1995 f8bf
00000120: 3560 773d 9b1e bbba b31f 8dbf 157a 8ebf
00000130: ade1 71bf 85f3 5dbf e3ad 94bf 94d2 b5be
00000140: 2002 35bf 5930 ccbf 2b84 8abf f69d a5bf
00000150: 7354 71be 686d 1bbe acd3 acbf bc81 8bbf
00000160: 869f e9be 8737 d0bf 2090 ddbf 5abd 8dbf
00000170: 3f2e 1ebf 0045 d63d 3c23 edbe ae62 b8ba
00000180: 1ec8 e5bf 8e58 fabe c007 bdbf 2f06 96bf
00000190: 64a6 06c0 104b 5bbf e9f1 033f 670c a4bf
000001a0: 090a 37bf ca9b 0bc0 0a20 3bbe 81d0 25bf
000001b0: 694a 50bf 52b0 91be 998c bfbf bb51 623f
000001c0: 1c0d 75ba c813 60bf 55ef a33e b4ea 94bf
000001d0: 4132 b0bf 3c8f a3be 5730 383d aba6 87bf
000001e0: b51f ca3d 346a 9abf 1d7f 0ec0 48fc 5bbe
000001f0: d4cd f9bf c451 e73e c119 9dbf b69c e1bf
00000200: 9c50 96be 4b49 4a3f bdac b83f d908 963f
00000210: 9fa0 47c0 f0cf 9dbf b55d bbbf eade 4a3f
00000220: bb1e 85bf a91c 563f 7a72 9abe 42ee efbf
00000230: ad06 83bb 407b 00c0 d7e0 953d 507d babf
00000240: 01ea 05c0 8aaa cfbc 77df d83e 6477 98bf
00000250: d090 0cc0 2d1f 8dbf e94d a8bf 843f 01c0
00000260: e51d 8bbf 5408 19c0 94ba 09c0 d434 cdbf
00000270: 12d9 2dbf 469d dfbf 2a4f 85bf 09af 3ebc
00000280: 28a0 02c0 434a 0bc0 04b8 cfbf cf07 fbbe
00000290: 05fa b2bf 4de9 0ebf 6b1a 04c0 cf41 42bf
000002a0: 60fb 93bf 26cd 35bf 55df 2cbf d31d 8a3e
000002b0: 2e88 9dbf 85d8 93bf 36ae f2bf 5842 ce3e
000002c0: 20a1 eabe 106f 53be 3708 90bc c74b 86bf
000002d0: 8136 febf a7ef 70bf 93bd ca3e 6717 85be
000002e0: 2534 d4be 64ba 6fbf dc1e b6bf 2508 a13e
000002f0: 4e28 47c0 0405 e4bf 04a3 7ebf 1942 1cc0
00000300: f4f8 9cbf c009 1dbe f1df 743f ff59 0dbf
00000310: c6bb 453e df4e 64be 123e 72be 0c1f 40bf
00000320: cf78 9ebf e542 03bf 5c28 8dbe dbf1 22bf
00000330: 6017 13be 68a8 a9be af24 553e 7ad4 3dbf
00000340: 94a8 7abf b16b 96be 93f8 263f 11eb 7b3e
00000350: d707 68bf f2d3 4cbf f70a 6cbf 3f92 d5bf
00000360: 9e67 df3d 1663 abbf 259a b6be 19e7 31bf
00000370: 193c 643f 3142 ddbf dfa9 6fbe 12cf a9bf
00000380: 0fdc ccbe c987 2a3f 95de 8dbe 0026 10bf
00000390: 8ccc 4cbf ea94 48bf c335 203d 72c6 efbf
000003a0: 3b19 a3bf 2954 b4bd 1ca3 cdbf 8c09 02bf
000003b0: a6cd ffbf 6866 9fbf 2b0e 94bf 814b 17bf
000003c0: 810d b93f 6b06 5cbe 1516 1dc0 793a 85bf
000003d0: f798 abbf 047e 21c0 d448 22bf 4d7c bcbf
000003e0: 7aa0 cbbf d85d 02c0 9f8c e1be 144e ac3c
000003f0: 2305 f13e 125f 3abf 9e9c 103f 9bfa 72bd

weight f4 [256, 256]
-0.22271529 -0.59932864 0.0036472345 -0.11795934 0.249964 0.19650854 0.035061732 -0.091993585
-0.072526336 -0.1649509 -0.7006373 -0.31235635 -0.562593 -1.0126613 0.14032097 -0.29159957
-0.14057332 -0.12863033 0.2718427 -0.10945934 0.02504806 -0.2309337 0.14725961 0.12506533
0.66820014 -0.78413945 -0.36563733 0.060712837 -0.5742008 -0.36190975 -0.11372074 -0.426678
0.14694612 -0.090598 -0.2865398 -0.19674727 -0.8930769 -0.020435704 0.021084476 0.21207939
0.19413348 -0.19287182 -0.15538195 -0.33533123 -0.48666295 0.10154147 -0.39922395 -0.78084856
-0.39127478 0.39134628 -0.20864154 0.21016061 -0.27017894 -0.5300522 -0.13941106 -0.11380701
-0.54515666 -0.5712562 -0.152402 0.19013737 -0.11203841 -0.08159792 -0.41091594 0.034839075
-1.1344904 -0.5332293 -0.008286474 -0.8188424 -0.06780917 -0.04980715 -0.1589092 0.42792097
0.46513793 -0.5954769 0.03200399 0.57461596 -0.441182 -0.26146573 -0.49107704 -0.76168644
-0.097510576 -0.5607473 0.34363118 -0.57920194 0.179031 0.02965812 0.22930565 0.34008005
-0.17135023 -0.21375811 0.29720706 0.04470108 0.3765791 -0.8960368 0.0072185937 -0.07621142
-0.624555 0.054423485 0.0936406 -0.5308996 -0.28014782 -0.19733125 -0.1672676 -0.2578227
0.031220276 0.17579526 0.21017848 -0.098177254 -0.19517416 0.70773447 0.008392783 0.18572524
-0.05268229 0.022656173 0.29833487 -0.076444134 -0.3509991 -0.16599733 0.32554597 0.25015947
0.024380958 -0.64878154 0.13875444 -0.20946111 -0.81236124 0.008001918 0.13028753 -0.15948579
-0.06845229 0.0024088202 -0.21537998 -0.22076388 0.092130125 -0.14945738 0.03836693 -1.0483819
-0.4842438 -0.223384 -0.6397339 -0.43175828 -0.35850796 0.083306424 0.1472682 -0.32043314
-0.29370588 -0.047008254 0.2281085 -0.43185407 -0.9876454 0.08003408 -0.4717883 -0.2725095
-0.31471914 0.059103213 -0.43081674 0.3056029 -0.5201975 0.10238648 0.58106905 -0.5649835
-0.004075575 -1.0858092 0.007027362 -0.04409383 -0.13997242 -0.08423935 -0.20587273 -0.52955604
-1.0753849 -0.2563874 0.1157097 0.10620695 -0.13209921 -0.627488 -0.0030887183 -0.17769387
0.21016309 0.36329028 -0.03445394 0.1365847 0.56017375 0.13147174 -0.901069 -0.66339475
-0.7258315 -0.54936355 -0.19926858 -0.27361205 -0.4043518 -0.6252712 0.012805298 -0.73161507
-0.6239853 -0.056072496 -0.07581383 -0.27406645 0.16098826 -0.33352947 -0.70594174 0.046369996
-1.069789 0.013736975 -0.53239596 -0.9357873 0.22509682 -0.24238794 -0.5649824 -0.077711925
-0.12253122 -0.16221435 -0.8434714 -0.44029847 -1.0490475 -0.14602402 -0.30899146 -1.0229486
-0.055123176 -0.22186542 -0.19504663 -0.560799 -1.0185155 -0.009707075 -1.0775001 -0.73390967
-0.08893045 -0.4284702 -0.56223387 0.33801207 -0.13422835 0.08071724 -0.20805006 -0.6772722
0.24499476 -0.6526061 -0.2593441 -0.43597367 -0.16612552 -0.28774062 0.1402816 0.01988349
-0.044331815 -0.03467476 -0.7989635 0.45278633 -0.44989523 -0.46659008 -0.45353463 0.05470309
0.032639284 -0.9121535 -0.13144803 -0.2495876 -0.09610667 -0.21303265 -0.31982931 -1.1404567
00000000: 7a0f 64be 9a6d 19bf 7106 6f3b ab94 f1bd
00000010: 90f6 7f3e 8939 493e e49c 0f3d 2267 bcbd
00000020: b088 94bd e4e8 28be f75c 33bf 2ced 9fbe
00000030: 1806 10bf e39e 81bf 4db0 0f3e 8a4c 95be
00000040: 74f2 0fbe abb7 03be f72e 8b3e 382c e0bd
00000050: 9731 cd3c e279 6cbe 39cb 163e 2011 003e
00000060: 2a0f 2b3f 5dbd 48bf d134 bbbe 06ae 783d
00000070: d3fe 12bf 3c4c b9be 6be6 e8bd 8a75 dabe
00000080: 0b79 163e 728b b9bd 58b5 92be 1e78 49be
00000090: b0a0 64bf c768 a7bc 5ab9 ac3c 572b 593e
000000a0: edca 463e 3180 45be 721c 1fbe 89b0 abbe
000000b0: e32b f9be f9f4 cf3d 1567 ccbe b1e5 47bf
000000c0: 2b55 c8be 8a5e c83e 21a6 55be 5834 573e
000000d0: e554 8abe 80b1 07bf c6c1 0ebe a613 e9bd
000000e0: 638f 0bbf d93d 12bf 450f 1cbe 5fb3 423e
000000f0: 6574 e5bd cf1c a7bd 9363 d2be 6bb3 0e3d
00000100: fb36 91bf b781 08bf fec3 07bc a89f 51bf
00000110: 89df 8abd 9502 4cbd 18b9 22be 7518 db3e
00000120: 8f26 ee3e 2d71 18bf 9e16 033d 081a 133f
00000130: 9be2 e1be d6de 85be 736e fbbe e2fd 42bf
00000140: a0b3 c7bd 238d 0fbf 6df0 af3e 9446 14bf
00000150: e753 373e 96f5 f23c 1acf 6a3e f91e ae3e
00000160: 6f76 2fbe 68e3 5abe 862b 983e 7b18 373d
00000170: face c03e ab62 65bf f489 ec3b bc14 9cbd
00000180: d6e2 1fbf 29eb 5e3d a5c6 bf3d 09e9 07bf
00000190: 896f 8fbe 3411 4abe 3348 2bbe 5601 84be
000001a0: aac1 ff3c ac03 343e 0739 573e 2811 c9bd
000001b0: bcdb 47be 162e 353f e281 093c c22e 3e3e
000001c0: 63c9 57bd 7099 b93c 59bf 983e be8e 9cbd
000001d0: 27b6 b3be 34fb 29be f6ad a63e e714 803e
000001e0: 93ba c73c 8c16 26bf a515 0e3e f97c 56be
000001f0: e8f6 4fbf 7a1a 033c 186a 053e 3e50 23be
00000200: b730 8cbd 4cdd 1d3b 928c 5cbe ed0f 62be
00000210: b8ae bc3d 5b0b 19be a426 1d3d 6131 86bf
00000220: ceee f7be c6be 64be 9ac5 23bf 6c0f ddbe
00000230: 5b8e b7be 8f9c aa3d 7acd 163e d00f a4be
00000240: 9e60 96be ba8b 40bd 4695 693e fa1b ddbe
00000250: 54d6 7cbf e8e8 a33d 3c8e f1be 5d86 8bbe
00000260: de22 a1be 3616 723d 0394 dcbe fc77 9c3e
00000270: aa2b 05bf 01b0 d13d f1c0 143f c2a2 10bf
00000280: 678c 85bb ccfb 8abf c945 e63b bb9b 34bd
00000290: ee54 0fbe ae85 acbd 4dd0 52be fc90 07bf
000002a0: 36a6 89bf 3645 83be 35f9 ec3d 0883 d93d
000002b0: 0445 07be 0ea3 20bf 186c 4abb 62f5 35be
000002c0: fe34 573e 2f01 ba3e 931f 0dbd dcdc 0b3e
000002d0: 8c67 0f3f 87a0 063e 75ac 66bf 3dd4 29bf
000002e0: 18d0 39bf 17a3 0cbf 100d 4cbe e116 8cbe
000002f0: 3307 cfbe c611 20bf 50cd 513c 204b 3bbf
00000300: 80bd 1fbf 46ac 65bd 4844 9bbd 7052 8cbe
00000310: 1bda 243e 60c4 aabe 99b8 34bf 77ee 3d3d
00000320: d9ee 88bf 0d11 613c 1a4b 08bf c28f 6fbf
00000330: c87f 663e 8b34 78be b0a2 10bf 6e27 9fbd
00000340: a6f1 fabd 851b 26be beed 57bf cd6e e1be
00000350: 3047 86bf 5287 15be 2134 9ebe fbef 82bf
00000360: d7c8 61bd b030 63be 4eba 47be 8690 0fbf
00000370: b75e 82bf 6c0a 1fbc 86eb 89bf 81e1 3bbf
00000380: 2b21 b6bd 7260 dbbe 8fee 0fbf eb0f ad3e
00000390: 2873 09be 154f a53d 130b 55be b661 2dbf
000003a0: e8df 7a3e 3211 27bf c0c8 84be f137 dfbe
000003b0: cf1c 2abe bd52 93be fba5 0f3e b3e2 a23c
000003c0: 4795 35bd 1f07 0ebd df88 4cbf 9cd3 e73e
000003d0: ab58 e6be e5e4 eebe b135 e8be 5910 603d
000003e0: c5b0 053d e482 69bf 509a 06be e493 7fbe
000003f0: 93d3 c4bd 3b25 5abe abc0 a3be 7cfa 91bf

bias f4 [256]
-0.24392468 -0.47455966 -0.395005 -1.2427839 -0.76159275 -0.6159282 0.009920343 -0.51533073
-2.3688798 0.78830713 -1.8058308 -1.0038822 -0.4274136 -0.512788 0.8691363 -1.2081193
-0.86792356 -0.46660054 -1.0558153 -0.6918383 0.34204978 -0.81861377 1.310688 -0.17487791
1.806822 1.0515271 -0.34818807 -1.4454942 -1.0515084 -1.7594994 2.742514 -0.6354036
-0.38051477 0.9521313 0.21972999 -1.3744638 -0.9359447 -0.2587701 -2.1945312 -0.779753
-0.2805492 -0.7052937 -0.058862045 -0.6125408 -0.09258161 -0.08517046 -0.19872124 -0.2066203
0.3349825 -0.34148145 -0.7074174 -1.6403053 -0.4835613 -0.10820566 0.1760805 -0.6807774
-0.33590695 -0.7160861 -1.9903634 -0.53239393 -0.10858569 -1.9320832 -1.6134233 -1.0622169
-0.43529224 1.1898191 -0.30812198 -1.1986876 -1.0657189 -0.5753405 -0.65235674 0.24117966
-0.3729107 -1.0025594 1.2588897 -0.28670284 -1.9052992 0.008189922 -1.0095279 -1.6084645
-0.87850916 -1.2809039 -0.7862766 0.18942924 -0.2694824 -0.94786406 -0.71252835 -0.4742646
-0.18269925 -1.61938 -0.04146571 0.14462008 -0.06395703 -0.809503 -0.5142859 -0.6664366
-1.2405015 0.77454245 -1.4170314 -1.2022874 -1.7724458 -0.037795644 -2.6479208 -1.3709483
-0.9785464 -1.422542 -1.3424941 -0.89204025 -0.3001269 -0.8993168 -0.9048011 -1.0058059
-0.7768452 -1.14418 -0.09367889 -1.7753592 -0.70402324 -1.3534613 -0.7847724 -1.065287
2.0247188 1.3331772 -0.033352204 -0.8949201 0.5120208 -0.25757426 -0.69637954 -0.598633
-0.20691283 -0.67870903 -0.66392934 -0.20400362 -0.26608625 -1.6008682 -0.33253977 1.0127865
-0.39267182 0.06377295 -0.8530878 -0.11517506 0.14472616 -0.15271115 -1.3043338 -0.18438789
-1.3563461 -1.3661543 -0.7195953 -0.7958882 -0.30279416 0.53450346 -0.74285036 -0.97186565
-1.1320082 -1.4010655 -1.349423 -0.7602444 -1.1176409 -1.825983 -1.9870028 -0.5069139
1.5144373 -1.6485763 -1.5300387 -0.92785096 -1.3028818 -0.39848983 -0.62743384 -0.18662162
1.3296556 -2.8470004 -0.54711306 -1.2844365 -0.03990154 -0.4958081 0.046280015 -0.846356
0.21038055 -0.10429374 -0.5405996 -0.081658006 0.18606877 -0.3404404 -0.6237483 -1.1366533
-0.6649837 -1.6113222 -0.564026 -1.8488568 0.0054915347 -0.096460015 -1.345415 -1.2394186
-0.942521 -0.615748 0.051716037 -0.3004314 -1.3320291 -0.80216914 -0.12938583 -0.10509493
1.4759592 -0.41829774 -0.0659308 -1.3367959 -0.6520617 -0.54869515 -0.22443216 0.36736947
-0.6025714 -1.1798682 -1.8751495 -0.43042627 0.20544845 -1.327318 -0.3878783 0.15870236
-0.31293637 -0.804348 -0.5732304 -1.4165021 -1.9672959 -0.3869207 -0.6402269 -1.4862914
-0.9280929 -0.77595955 -1.3620553 -0.25745478 0.49887738 -0.523158 -0.541512 -0.42912707
-0.7936202 -0.6938607 -0.82286096 -0.55962396 -0.21552517 0.07723561 -0.0862775 -1.9610504
-1.3183259 -1.2176241 -1.3499111 -1.325514 -0.38574025 -0.9730021 -1.3169141 -0.9095582
-1.5089588 -1.5740358 0.20782167 -0.45837757 0.36128327 0.35935044 -0.40354493 -0.67105997
00000000: 64c7 79be 7cf9 f2be 183e cabe 8b13 9fbf
00000010: bef7 42bf 78ad 1dbf ef88 223c b7ec 03bf
00000020: ba9b 17c0 7fce 493f 7725 e7bf 367f 80bf
00000030: f5d5 dabe 1346 03bf b77f 5e3f a7a3 9abf
00000040: 3d30 5ebf 44e6 eebe f524 87bf 511c 31bf
00000050: 2621 af3e ac90 51bf a0c4 a73f 3213 33be
00000060: f145 e73f 7198 863f b545 b2be f405 b9bf
00000070: d497 86bf 4737 e1bf 5985 2f40 cfa9 22bf
00000080: d5d2 c2be e0be 733f e600 613e 6eee afbf
00000090: 129a 6fbf 847d 84be 3373 0cc0 e59d 47bf
000000a0: 25a4 8fbe 218e 34bf 5419 71bd 79cf 1cbf
000000b0: 6d9b bdbd da6d aebd 957d 4bbe 4694 53be
000000c0: d482 ab3e a8d6 aebe 4f19 35bf 86f5 d1bf
000000d0: 5995 f7be ee9a ddbd 724e 343e 6d47 2ebf
000000e0: fffb abbe 6b51 37bf 3ac4 febf f84a 08bf
000000f0: 2d62 debd 814e f7bf a884 cebf b9f6 87bf
00000100: a0de debe fe4b 983f 2ac2 9dbe 986e 99bf
00000110: 7a69 88bf 8449 13bf da00 27bf cdf7 763e
00000120: 27ee bebe de53 80bf 4c23 a13f b7ca 92be
00000130: d8e0 f3bf 062f 063c 3638 81bf 2ae2 cdbf
00000140: fae5 60bf a9f4 a3bf 6c49 49bf bdf9 413e
00000150: 99f9 89be 38a7 72bf 4268 36bf cfd2 f2be
00000160: 8315 3bbe d847 cfbf f3d7 29bd 4917 143e
00000170: e7fb 82bd 973b 4fbf 3ea8 03bf 979b 2abf
00000180: c1c8 9ebf 6a48 463f 4961 b5bf 8ee4 99bf
00000190: 81df e2bf 9bcf 1abd 8977 29c0 3c7b afbf
000001a0: 0482 7abf db15 b6bf d9d6 abbf c05c 64bf
000001b0: 3caa 99be a039 66bf 0ba1 67bf 3fbe 80bf
000001c0: 54df 46bf 7e74 92bf b8da bfbd f83e e3bf
000001d0: de3a 34bf 383e adbf d8e6 48bf 535b 88bf
000001e0: fe94 0140 8da5 aa3f 529c 08bd 7c19 65bf
000001f0: cc13 033f c6e0 83be ee45 32bf 0340 19bf
00000200: f5e0 53be e0bf 2dbf 46f7 29bf 53e6 50be
00000210: 753c 88be 40e9 ccbf a742 aabe fda2 813f
00000220: 480c c9be 649b 823d f663 5abf e7e0 ebbd
00000230: 1833 143e 5060 1cbe 69f4 a6bf 2ed0 3cbe
00000240: c09c adbf 25de aebf 6637 38bf 54bf 4bbf
00000250: d607 9bbe 38d5 083f 712b 3ebf 30cc 78bf
00000260: a5e5 90bf 1d56 b3bf e5b9 acbf 619f 42bf
00000270: db0e 8fbf d0b9 e9bf 1c56 febf 1cc5 01bf
00000280: 15d9 c13f 8c04 d3bf 4fd8 c3bf a487 6dbf
00000290: d5c4 a6bf dc06 ccbe 819f 20bf bd19 3fbe
000002a0: 2832 aa3f 4135 36c0 9a0f 0cbf 6a68 a4bf
000002b0: cc6f 23bd 8fda fdbe 1d90 3d3d c9aa 58bf
000002c0: 006e 573e f597 d5bd bc64 0abf 503c a7bd
000002d0: d088 3e3e 344e aebe f8ad 1fbf db7d 91bf
000002e0: 5f3c 2abf ce3f cebf 0264 10bf 57a7 ecbf
000002f0: 55f2 b33b d48c c5bd 8f36 acbf 45a5 9ebf
00000300: 0e49 71bf a9a1 1dbf 32d4 533d 25d2 99be
00000310: ee7f aabf f55a 4dbf b87d 04be 033c d7bd
00000320: 3bec bc3f 1f2b d6be ba06 87bd 211c abbf
00000330: 84ed 26bf 4977 0cbf 8bd1 65be da17 bc3e
00000340: 1f42 1abf ec05 97bf e604 f0bf d560 dcbe
00000350: 1461 523e 8ee5 a9bf fc97 c6be df82 223e
00000360: 3239 a0be c0e9 4dbf 3abf 12bf f14f b5bf
00000370: 5ad0 fbbf 781a c6be e9e5 23bf cc3e bebf
00000380: 7f97 6dbf 49a5 46bf d457 aebf 1dd1 83be
00000390: db6c ff3e afed 05bf 88a0 0abf 8bb6 dbbe
000003a0: b22a 4bbf dba0 31bf 04a7 52bf 8443 0fbf
000003b0: a1b2 5cbe b42d 9e3d 42b2 b0bd b303 fbbf
000003c0: e7be a8bf 1bdb 9bbf e3c9 acbf 71aa a9bf
000003d0: bf7f c5be aa16 79bf a490 a8bf ced8 68bf
000003e0: 9025 c1bf 017a c9bf 34cf 543e 77b0 eabe
000003f0: 1ffa b83e c8fc b73e 719d cebe 96ca 2bbf

weight f4 [8, 256]
0.36376527 -0.048395056 -0.07138869 0.3817253 0.0040098582 1.6735377 0.013317677 0.15112796
1.0874087 -0.0071231215 -0.55057186 -0.75196964 -1.2672154 -1.5342926 -0.037171774 -1.9417174
1.8005925 -1.2992706 0.26349875 -0.1935063 2.4026742 0.21918358 -0.13209835 -0.32906508
0.0169627 0.033553373 0.15816145 0.974802 -0.5279916 -0.02801495 -0.10695496 -0.010358033
0.042376556 0.01812414 -0.47835204 0.6265475 4.675965 0.47568178 -0.015301959 0.21597758
0.026117856 0.4446682 0.034773435 -0.48116568 -0.3250237 0.119866215 0.5803946 -0.54968715
-4.728048 0.47447306 -0.031439897 -0.6863292 0.0852918 -0.34297076 0.1064621 -0.23573342
-0.17937417 0.22283329 0.6312033 0.20918086 -0.035168137 0.9783707 -1.3585056 -0.12265312
-1.9064558 -0.009144389 -0.21166715 0.63782483 0.17896575 -0.30226907 0.33701473 0.063785106
1.5175064 0.12928624 0.010020858 0.0058584004 0.46971366 -0.30771694 0.023603482 -0.4051753
-0.75557584 -0.042329945 1.7667638 -0.008047969 -2.1945238 0.0668331 -0.22371368 -0.05997447
-0.83701634 -0.67969084 -0.06399501 0.17698431 -0.97959465 0.0389924 -0.43234232 0.19038372
0.59240204 -0.1187408 6.624169 0.009731746 0.9316535 0.9884372 -0.42668048 0.33021575
-1.2132443 2.9791386 0.6470033 -0.007366096 2.2639825 -1.3786716 -0.12260048 -1.4982541
-1.8591202 -0.81046236 0.012047977 0.3039164 -0.14901555 -0.01279967 -0.4819512 1.341918
-0.053045973 -0.01055741 -0.21819264 -0.00024133114 -0.048141297 0.7746735 0.7967015 0.032889217
-1.1360009 4.7195373 1.2568889 0.6203143 -2.4639423 0.13913411 0.102605246 0.04258392
0.4409529 0.3225233 -1.6574489 0.031857267 -2.460047 0.04580543 -0.34666052 -1.3381013
1.123328 -1.4205247 -4.0785513 0.68175 0.18919568 -0.021997934 -0.040484123 0.18509948
-0.7944676 0.6437276 0.1997181 0.773386 -1.1796918 0.54696935 -0.41224232 1.1405684
0.0019686106 -0.9062778 -0.3492395 -0.45362782 0.09906225 -0.09106475 0.66831154 -0.50473297
0.052295357 -0.39693338 0.5350296 -0.14796002 -0.015713107 -0.21546805 -1.2301786 -0.16186327
0.04874234 1.1547593 -1.3669668 0.042123742 0.18824299 -0.43946576 -2.731274 0.563446
-1.3129158 0.008982972 -0.051871736 -0.1695809 -0.7767919 0.6208 -1.9045212 1.1144238
0.8278646 0.32638282 -0.016147062 0.1108882 0.32773072 -0.120844826 -1.0643864 0.04925235
0.010742828 -0.0009464674 -0.8791182 -0.52300924 0.10668426 -0.14140497 0.38984087 3.585652
-0.1494262 -0.37164882 -0.20248443 -0.031233061 -0.93667334 0.9350075 -0.96946263 -0.07469914
0.18765828 0.06554532 -0.94874936 -0.84902513 -0.09673468 -0.2772214 -1.0449513 -0.7950887
0.04497637 2.6443594 0.0018038116 -0.09737298 -0.036676444 0.7246524 4.4140663 -0.12584123
0.785743 0.94898266 0.83016425 1.9239522 -0.039664637 -0.033880565 0.026194034 -0.069762945
0.6884714 -3.5732603 -0.066144235 1.1117123 -0.50938237 1.1037835 -2.2521756 -0.12638457
-0.38331363 0.25689524 0.035579678 -1.1957966 0.31670558 0.9700042 -0.77198935 -0.47076398
00000000: 713f ba3e e539 46bd 3c34 92bd 8071 c33e
00000010: 2165 833b 7c36 d63f 6332 5a3c 4ac1 1a3e
00000020: 3530 8b3f 1369 e9bb 47f2 0cbf 1581 40bf
00000030: 1d34 a2bf b363 c4bf 6e41 18bd 328a f8bf
00000040: d179 e63f 804e a6bf 4fe9 863e 8426 46be
00000050: 6ac5 1940 a971 603e ca44 07be 387b a8be
00000060: 5cf5 8a3c 436f 093d 13f5 213e a08c 793f
00000070: 752a 07bf 9c7f e5bc 340b dbbd bdb4 29bc
00000080: 0a93 2d3d 1479 943c 8fea f4be 6b65 203f
00000090: 81a1 9540 908c f33e 11b5 7abc 3a29 5d3e
000000a0: 1df5 d53c 8dab e33e 976e 0e3d 595b f6be
000000b0: 8269 a6be 6b7c f53d be94 143f 4cb8 0cbf
000000c0: 2b4c 97c0 22ee f23e 1fc7 00bd 45b3 2fbf
000000d0: 78ad ae3d dd99 afbe cd08 da3d 1a64 71be
000000e0: ddad 37be 692e 643e 8a96 213f 8233 563e
000000f0: 770c 10bd 8176 7a3f 83e3 adbf 8f31 fbbd
00000100: be06 f4bf 59d2 15bc 46bf 58be 7d48 233f
00000110: cc42 373e 03c3 9abe 328d ac3e c4a1 823d
00000120: a63d c23f 9d63 043e 862e 243c d3f7 bf3b
00000130: 4f7e f03e 138d 9dbe 175c c13c 2373 cfbe
00000140: 6b6d 41bf 2a62 2dbd 5125 e23f a1db 03bc
00000150: 1473 0cc0 cbdf 883d 3315 65be caa7 75bd
00000160: b446 56bf 3800 2ebf d10f 83bd 603b 353e
00000170: b7c6 7abf 7fb6 1f3d f95b ddbe f3f3 423e
00000180: a9a7 173f 602e f3bd 31f9 d340 e771 1f3c
00000190: d880 6e3f 380a 7d3f dd75 dabe 0a12 a93e
000001a0: 974b 9bbf 35aa 3e40 02a2 253f 4b5f f1bb
000001b0: 17e5 1040 5078 b0bf f615 fbbd cac6 bfbf
000001c0: a7f7 edbf 767a 4fbf e164 453c ee9a 9b3e
000001d0: 8897 18be b5b5 51bc 4fc2 f6be f8c3 ab3f
000001e0: bc46 59bd fdf8 2cbc e46d 5fbe d60d 7db9
000001f0: cf2f 45bd 0151 463f a1f4 4b3f d8b6 063d
00000200: 7a68 91bf 7306 9740 bce1 a03f ebcc 1e3f
00000210: 3bb1 1dc0 2c79 0e3e b322 d23d 7a6c 2e3d
00000220: 94c4 e13e c621 a53e 4927 d4bf c47c 023d
00000230: 6971 1dc0 799e 3b3d 7d7d b1be e746 abbf
00000240: 36c9 8f3f c1d3 b5bf 7e83 82c0 2b87 2e3f
00000250: 83bc 413e 0335 b4bc aed2 25bd b88a 3d3e
00000260: 3b62 4bbf 55cb 243f e782 4c3e a0fc 453f
00000270: 2400 97bf 2f06 0c3f 6d11 d3be 25fe 913f
00000280: ce03 013b d201 68bf 85cf b2be e841 e8be
00000290: 26e1 ca3d 2880 babd 7716 2b3f 2e36 01bf
000002a0: a833 563d da3a cbbe b3f7 083f d582 17be
000002b0: c6b8 80bc a8a3 5cbe 7e76 9dbf 7cbf 25be
000002c0: 0ca6 473d 27cf 933f c5f8 aebf f289 2c3d
000002d0: c5c2 403e a801 e1be 31cd 2ec0 ff3d 103f
000002e0: a00d a8bf 512d 133c 7577 54bd 9ea6 2dbe
000002f0: d5db 46bf c0ec 1e3f 5ac7 f3bf 70a5 8e3f
00000300: efee 533f a61b a73e d846 84bc 5a19 e33d
00000310: 52cc a73e 7e7d f7bd d03d 88bf d5bc 493d
00000320: b002 303c 5a1c 78ba e40d 61bf efe3 05bf
00000330: 477d da3d 77cc 10be 3999 c73e 537b 6540
00000340: 2f03 19be c148 bebe 1458 4fbe 7adc ffbc
00000350: d3c9 6fbf a75c 6f3f b42e 78bf ddfb 98bd
00000360: 7e29 403e a03c 863d 3de1 72bf b659 59bf
00000370: d51c c6bd f7ef 8dbe f7c0 85bf ef8a 4bbf
00000380: 2439 383d 2f3d 2940 e06d ec3a 7c6b c7bd
00000390: 0a3a 16bd d282 393f 0840 8d40 86dc 00be
000003a0: 7426 493f 87f0 723f a585 543f 1144 f63f
000003b0: 6377 22bd 59c6 0abd df94 d63c e0df 8ebd
000003c0: a93f 303f 4cb0 64c0 a176 87bd 974c 8e3f
000003d0: e266 02bf c748 8d3f a523 10c0 f56a 01be
000003e0: af41 c4be c687 833e ffbb 113d dd0f 99bf
000003f0: 3c27 a23e 3252 783f 18a1 45bf fa07 f1be

bias f4 [8]
0.093149066 0.32389048 -0.39445248 0.40964228 -0.588046 0.25927234 -0.27057633 0.50978583
00000000: f0c4 be3d f9d4 a53e adf5 c9be a2bc d13e
00000010: 2f8a 16bf 58bf 843e fb88 8abe 5381 023f
