runs/AntRandom-v5_td3_1_reward_1752682110/best_policy.pt (torch, 384069 bytes, 6 tensors)

weight f4 [256, 105]
00000000: 93da 86bf 94c9 123f 6ab0 a73f 06ba 423f
00000010: fc67 603e 5f43 96be f8c3 ed3e 31fa 3f3f
00000020: 85b9 0ebe 077d 84bf 3ab0 10bf c4e6 81be
00000030: efc6 903e 5284 b53e 8a87 82be 2f06 edbe
00000040: 303b 8bbe 9693 c13d 8976 fcbc 00c9 2a3e
00000050: 29e8 e5bd 2359 643d b543 5dbd dd23 99be
00000060: cf57 ca3d 2d3e c8bc 7072 c7bd 338a 1b3f
00000070: 5b06 4cc0 55a3 b03f 765b a6bf 4d8c f83f
00000080: 9828 9d3e 9b1a b6bd 5e08 bebd 4ecd 40bd
00000090: d380 af3d 312a 85bc 5211 2b3d c026 b33f
000000a0: 91e9 d9bf aee1 953d 2975 febf 3726 9dbc
000000b0: 64c3 3f3e 7487 8bbe 7760 30be 79bc 323c
000000c0: d869 0cbf e362 08bd a5a1 ba3f 5595 3ebd
000000d0: 08e8 583d 7554 c2bc 2413 c73d 7d35 a03d
000000e0: e4bb 95bb 00ee cbbf cb7d 64bf 0ffd f73e
000000f0: 699c a43c 055c 5abf c36b 0e3e 8b45 f3be
00000100: d678 2b3e 2974 033e edc5 c9bd 9abc 363e
00000110: 2274 fa3e 05d4 8dbd 4874 593d 6077 bbbc
00000120: bf41 433d dc4e b63b b43f 033d 0a0b 00c0
00000130: 0ee8 3740 4913 c5bf f72f 87bf 9753 913d
00000140: ebdf 95be 2ccc acbe e4f6 143e 7f2f 62bd
00000150: 4fff ae3e 8f70 113e 1b23 703e 7c74 913d
00000160: 0817 6dbc 8dd4 603d b081 003d 92df 95bd
00000170: 109c a03c 938d 7d40 2b17 4d3f 5b61 9dbf
00000180: 5449 d03f 688d c43f 58e7 7f3e b6ec 29bd
00000190: d03a 193e f7bd 04be 3ba8 0d3e af9b 283e
000001a0: 4fe7 903e dbca 22bf 49ea 3bc0 e492 3abe
000001b0: 1588 ae40 9563 d8bf b4d5 e33d 3177 eebe
000001c0: ca20 5040 360b 68bf 2188 c1bd 3b4e 1f3f
000001d0: 2e22 09c0 a76f 25bf 3ef7 71bf df77 523e
000001e0: 27c8 10bf cf82 b6bd 8011 a3be be3e bfbc
000001f0: 21f1 243e 8dc1 c83d b762 6b3e 70b4 bdbd
00000200: 13c3 36be faa7 2cbb 09d1 7abe df9a e83d
00000210: 10c1 46bf 89b8 42c0 73aa cd3f 6c52 5abf
00000220: 3f65 043f 529c 64bf d7ab 88bd 79d6 a7bd
00000230: f629 37bd e32f 3abc bb03 75bd 013e 123d
00000240: c9ad 70bd 53d1 a63f c8b0 c43d 3ed7 923e
00000250: 8ea6 1d40 7011 403f e290 6a3f f733 db3e
00000260: c80b 82bf 3328 93be a962 91bf ade6 193f
00000270: db85 69bd 1ef9 2abd f318 8e3d ae9f 02bd
00000280: d85a 95bd aacb 193d bbd6 04bf 27a7 7fbf
00000290: fd34 bb3e a480 163e a163 323f af2c 10c0
000002a0: ad43 563f fb8a ddbe 7dbf 493f 87e4 87be
000002b0: a329 363f 873b 31bf 527c c73d 14cb c23d
000002c0: 2051 883d 12a9 4b3b b243 8abd 2732 9c3d
000002d0: 638d c23f 2be0 0cc0 ec2d 2cc0 34b9 e23f
000002e0: f5b3 c9bf 0314 20bf cfbb e8be a691 9abf
000002f0: 22c9 abbe 85fd 2b3e 7f12 3a3e 1901 eebd
00000300: 62bf 3bbd 161e b53b 6fae 903d dd96 8cbd
00000310: 10b7 3b3d b066 803d 34f4 f3bf e373 15bf
00000320: 080a 843f 8acd 7c3d 4032 2ebf fe75 c7be
00000330: 126f 5d3f 23cd 56bd a775 31be 1216 70bf
00000340: c56f 6f3f dc75 08c0 6f56 77be b7c4 30bf
00000350: 4e24 b53f 716b 0c40 466b 8c40 af9f e8bc
00000360: 7f7c 563e 2b09 723e c5e6 29bf bd5e c1be
00000370: e3d3 bd3e 16de 813f b40d ce3f 13bb ddbf
00000380: ac58 263f 93a2 4d3e 94d3 debd 484d e23f
00000390: bf5b d33f 1d00 163e 68ff 323d 54d3 1d3e
000003a0: e66a f43e 080d b6bd cea1 e7bc f11d 543e
000003b0: d87f 2ebc 7e2c 0f3f b793 3abe 6077 b0be
000003c0: 8f0b 243f b6aa 043e 0246 05be 603b 39bb
000003d0: 86b1 4abd 6738 123b e3db bbbd 9e41 8dbd
000003e0: 2d0c 85bd 7e74 fdbc ba92 82be 94b9 9b3f
000003f0: 62fa 37bf 3ccc 3c3e 672d 6bbf 0e69 8f3e
-1.0535454 0.57338834 1.3100712 0.760651 0.21914667 -0.29348275 0.46438575 0.74991137
-0.13937958 -1.0350655 -0.565189 -0.25371373 0.28276774 0.35452515 -0.25494033 -0.4629378
-0.27193594 0.09451978 -0.03081824 0.16678238 -0.11225922 0.05574907 -0.05401965 -0.29910174
0.098800294 -0.02444371 -0.09738624 0.6075775 -3.187888 1.3799845 -1.2996662 1.9417816
0.30695033 -0.08891793 -0.0927894 -0.047070794 0.08569493 -0.01625547 0.041764565 1.39962
-1.7024404 0.073184356 -1.9879504 -0.019183261 0.1872688 -0.2725178 -0.17224298 0.010909193
-0.54849005 -0.03329743 1.458058 -0.046529133 0.052955657 -0.023721913 0.09720448 0.07822702
-0.0045695174 -1.5932007 -0.89254445 0.48435256 0.020094113 -0.8529666 0.13908295 -0.47513995
0.16745314 0.1283728 -0.098522045 0.17845383 0.48916727 -0.06925205 0.05308941 -0.02288407
0.047670122 0.0055636 0.032043174 -2.0006738 2.8735385 -1.539651 -1.0561513 0.070960216
-0.29272398 -0.3374952 0.14547306 -0.055221077 0.3417916 0.14203094 0.23450892 0.07102296
-0.014470823 0.054890204 0.03137368 -0.07318033 0.019605666 3.961766 0.80113477 -1.2295336
1.6272378 1.5355654 0.24990594 -0.04148551 0.14963841 -0.12963091 0.13833706 0.16465639
0.28301474 -0.6359078 -2.9361746 -0.18220097 5.4541116 -1.690539 0.11124745 -0.4657531
3.2520013 -0.90642107 -0.09449793 0.62228745 -2.1427112 -0.6462349 -0.94517887 0.2055354
-0.5655541 -0.089116685 -0.3184929 -0.023345347 0.16107608 0.09802542 0.22986875 -0.09262931
-0.17847852 -0.002634524 -0.24493803 0.11357664 -0.7763834 -3.0425131 1.6067642 -0.85282016
0.5171699 -0.89301026 -0.06673401 -0.08195204 -0.04471775 -0.011363956 -0.05981801 0.035703663
-0.058759484 1.3032631 0.09604031 0.28679842 2.4632907 0.7502661 0.91627324 0.42813084
-1.0159845 -0.28741607 -1.1358234 0.6011761 -0.05701242 -0.041741483 0.069383524 -0.031890564
-0.07292718 0.037547745 -0.5189015 -0.9986443 0.36563864 0.1469751 0.6968327 -2.2527273
0.83697015 -0.43270096 0.7880781 -0.2654154 0.7115728 -0.69231457 0.09740509 0.0951139
0.06656098 0.0031076116 -0.06751193 0.07626753 1.5199398 -2.2011821 -2.6903028 1.771277
-1.5758044 -0.62530535 -0.45455787 -1.2075698 -0.3355189 0.16795929 0.18171118 -0.11621303
-0.045836814 0.005527268 0.070645206 -0.068647124 0.04582888 0.06269586 -1.90589 -0.58379954
1.0315561 0.061719455 -0.68045425 -0.38957208 0.86497605 -0.052441727 -0.17330037 -0.93783677
0.9352992 -2.1321936 -0.24154066 -0.69050163 1.4151704 2.1940577 4.388095 -0.028396456
0.20945929 0.2363631 -0.6636775 -0.37767592 0.3707572 1.01459 1.6097932 -1.7322716
0.6497905 0.20081548 -0.10880199 1.7679834 1.6512374 0.1464848 0.043700606 0.15412647
0.47737807 -0.08889204 -0.028275397 0.20714547 -0.0106505975 0.55927265 -0.18220411 -0.34466076
0.64080137 0.12955746 -0.13014987 -0.002826415 -0.049485706 0.002231145 -0.091727994 -0.06897281
-0.06496463 -0.030939337 -0.25502568 1.2166009 -0.7186643 0.18437284 -0.91866153 0.28009838

bias f4 [256]
00000000: 006b 5a3e 2772 dfbf c93f dcbf 6bc1 68bf
00000010: 6758 863e 7415 60bf 9f0b 03bf 33e8 06c0
00000020: 61bd 6dbf 7fcb 3cbf 2d90 49bf e8e9 d8bf
00000030: b4d4 183e 6bcb c3bf 38fa abbf 45e0 67bf
00000040: 6950 353e f159 4dbf f661 9fbf 9a1f aebe
00000050: 812f 65be 83d7 1dc0 4542 9dbc bca1 9abd
00000060: 02e6 1abf 3adc fcbf 7425 913d 9732 4fbf
00000070: 06db ae3d 3ae1 0bc0 cbb6 d7bd 1459 92bf
00000080: 639d 353f 9d15 923f d8a0 b43d 6d57 8bbf
00000090: 211e 0dbf 7560 e8be c87e 763e bd2f 6ebf
000000a0: f41e 763f 3926 23bf 573c 7cbf 4d0b 133e
000000b0: 656e a4bf bf88 6e3f 2bca 07bf a165 f2bf
000000c0: 40af 89be 96d1 ffbe 14e2 0abf fdf1 46be
000000d0: 476c 963f a89c 61bf 4970 48bf a83c b0be
000000e0: 1f1a 5b3e 2e64 a6bf dbf8 a4bf c5fc a9bf
000000f0: 8857 1fbf 0480 c1be 1987 153f d80f cebb
00000100: cfbf e8bf 483c b6bf fdd3 2abe 1cbe d3be
00000110: 1b36 b2be 6c46 67c0 2c84 c3bf 7798 30bf
00000120: cccd 123f ed6d e9bf 267f 6c3c 78d1 25bd
00000130: 2578 a03e 004c 37bf fe19 1fbf 6728 68bd
00000140: ef63 b43e 6cdd debf 71b1 8e3c e2e1 673f
00000150: ed9c 18c0 b3f1 f2bf 7a02 1dbf fbde 13c0
00000160: c635 6fbf 0ad3 dcbe d1fe 2c3f 48c1 d5be
00000170: eae0 51bf 8423 9c3d fadd c53e 0f74 c4bf
00000180: 3d2c 7bbf de89 77bf 06d0 d6bf 4311 67be
00000190: 351e 1c3e 2823 c33c 6fbc debe 6033 50bf
000001a0: 7e69 f7bf eabc 10bd 2f1e d63b 4555 82bf
000001b0: e073 aabf e215 b1bf c416 cdbf dcab b6be
000001c0: 6311 ecbd f330 e5bf eb56 863e c325 d6bf
000001d0: 0af3 8cbf 6823 80bf 7cc3 033e d388 b6bf
000001e0: 5f85 8f3d a873 6d3e 34d0 d0bf bf7e aa3e
000001f0: 1d64 933f 7357 b53e fc32 febf 936a f2be
00000200: 763f 9bbf fc70 cbbf 7665 b9bf 5b60 2bbf
00000210: 3988 51bf 073c 633f 2676 00c0 5498 403e
00000220: 0056 06c0 346e 01c0 9aa1 d8bf aebe 493e
00000230: 8626 51bf 002b 6f3f f24d 2dbf 8f5a 55bf
00000240: 7fd4 013e 89ce 1ebe 0d29 7ebf 116a 7abf
00000250: 6487 b7bf 6e4a fdbf bc7f 2d3f 66f2 49bf
00000260: 9a0d 49bf ec45 1cbf d8b0 0fbf 9542 093e
00000270: 7a8e 173e 5e00 eebe 3282 1ebe fc38 10be
00000280: 55e4 cdbf 9508 f0be 2119 b9be bf7c e63e
00000290: 79fa bdbf 69e1 6cbf 3714 3fbf 1dbb 75bf
000002a0: 19a3 ebbe 9259 3abf c99d 0cbf c415 cabf
000002b0: c2c2 533f 3ff2 00c0 f97c fc3d 8cb8 8abe
000002c0: e621 8d3e 6f38 283d 02d2 9fbe a624 de3d
000002d0: 215f 053e 391b 94bd 9056 70bf 72cf 8a3f
000002e0: 0dd4 0ebf 492f 12bf 279f 2fbe 1702 eabe
000002f0: e237 71be 581a 6fbf 685d babf eb3c 283f
00000300: 28dc 153f 15fa a6bf c27d c23f 75ec 93be
00000310: 9480 06bf a920 dc3e 946f 95bf 022b 95be
00000320: 1c1a c1bf 5eb1 a6be 4f67 a8bf ba99 24c0
00000330: 111a 103e 8962 e3bf 4a3f eabf 72e1 0dc0
00000340: 876a eabd 986a 433f 10a8 b4be 5164 1f3e
00000350: 9af5 7bbf 9e1d 01c0 6539 3abf 6a7e 17be
00000360: e3dd 953c a97f e53e 6eae b6bf 2274 f5be
00000370: 952e b5bf ba1c febe 72e6 d7bf 874c 03c0
00000380: 4413 26c0 e4f2 aabf 075f 85bf 56a8 2abe
00000390: c188 28bf e0f4 dfbf 2792 983f 2d58 1dbf
000003a0: aed4 0fbe d8c8 eebe 4d75 08bf e961 a3bf
000003b0: 9386 86bf 8087 d0bd 93c3 0bbe 98ad c1bf
000003c0: 73bb bcbe 080d 71bf 6aa4 dfbe 1323 8d3f
000003d0: 382d 0cbf 90a2 77bf dba4 5abf 4f6d d3bf
000003e0: 4c99 06bf 920d 403f 0ea9 cf3f b86d c2bf
000003f0: d757 acbe 0ce1 02c0 640e 6cbf 1f3a bfbf
0.2132988 -1.7456712 -1.7206966 -0.9092013 0.2623932 -0.87532735 -0.5118961 -2.1079223
-0.92867094 -0.7374801 -0.7873562 -1.6946383 0.1492489 -1.5296453 -1.3435736 -0.90576583
0.17706455 -0.80215365 -1.245177 -0.34008485 -0.22381403 -2.4662788 -0.019196639 -0.0755038
-0.60507214 -1.9754708 0.07087222 -0.8093657 0.08537869 -2.1856217 -0.10532912 -1.1433434
0.7094328 1.1412846 0.08819741 -1.0886055 -0.551241 -0.4538609 0.240718 -0.9304159
0.9614098 -0.637302 -0.9852957 0.1435978 -1.284619 0.9317741 -0.5304286 -1.8937265
-0.26891518 -0.4996459 -0.5425122 -0.19428249 1.1751794 -0.88129663 -0.78296334 -0.34421277
0.21396683 -1.2999322 -1.2888445 -1.3280264 -0.6224294 -0.3779298 0.5840927 -0.00628851
-1.8183535 -1.4237146 -0.1668243 -0.4135598 -0.34806904 -3.6136732 -1.5274711 -0.6898264
0.5734527 -1.8236672 0.014434611 -0.040482968 0.31341663 -0.7160034 -0.62149036 -0.056679156
0.35232493 -1.7411323 0.017418595 0.90579045 -2.384578 -1.8980011 -0.61331904 -2.3104846
-0.93441427 -0.4312976 0.6757632 -0.41749024 -0.81983817 0.076239616 0.38645917 -1.5347918
-0.9811438 -0.96694744 -1.6782234 -0.22565179 0.15245898 0.023820475 -0.43503138 -0.8132839
-1.9329069 -0.035336412 0.00653436 -1.0182272 -1.3316612 -1.3834803 -1.6022573 -0.35677993
-0.11526754 -1.7905563 0.26238188 -1.6730274 -1.101167 -1.0010805 0.1286754 -1.4260505
0.070078604 0.2318865 -1.6313539 0.33299825 1.1514927 0.3541828 -1.9859309 -0.47346935
-1.2128742 -1.5893855 -1.4484088 -0.669439 -0.81848484 0.8876347 -2.0072112 0.18808109
-2.098999 -2.0223513 -1.6924317 0.19701645 -0.8169941 0.9342499 -0.6769706 -0.83341306
0.12678717 -0.15508474 -0.9928139 -0.97818094 -1.4338193 -1.9788339 0.6777303 -0.78885496
-0.7853638 -0.6104419 -0.5612922 0.13404305 0.14800444 -0.46484655 -0.15479353 -0.14084238
-1.6085306 -0.46881548 -0.36151984 0.4501705 -1.4842063 -0.9253145 -0.7464022 -0.9598864
-0.4602287 -0.72792923 -0.5492826 -1.5787892 0.8271905 -2.0147855 0.12328524 -0.27093923
0.27564925 0.041069444 -0.3121491 0.10846834 0.1302457 -0.07231755 -0.93882084 1.0844557
-0.55792314 -0.571034 -0.17150556 -0.4570472 -0.23556474 -0.9339957 -1.4559755 0.65717953
0.58539057 -1.3045069 1.5194628 -0.2889134 -0.52539945 0.42993668 -1.1674676 -0.29134375
-1.5086093 -0.32557195 -1.3156527 -2.5718827 0.14072444 -1.7764446 -1.8300564 -2.216885
-0.114461 0.76334524 -0.35284472 0.15565611 -0.98421633 -2.0174327 -0.7274383 -0.14794317
0.01829428 0.4482396 -1.4271982 -0.47940165 -1.4154841 -0.49631292 -1.6867201 -2.0515459
-2.5949259 -1.3355374 -1.0419625 -0.16665778 -0.6583367 -1.7496605 1.1919602 -0.6146267
-0.14045975 -0.46637607 -0.53303987 -1.2764255 -1.0509819 -0.101820946 -0.13648824 -1.5131102
-0.36861762 -0.9416051 -0.43680125 1.1026329 -0.547565 -0.96732426 -0.854078 -1.6517733
-0.5257766 0.75020707 1.6223466 -1.5189734 -0.33660766 -2.0449858 -0.9220946 -1.4939612

weight f4 [256, 256]
00000000: 2190 31be b75c 93bf 6812 0d3e 71ff 48bf
00000010: b536 4a3d 3cbe b6bf 3fb2 b03e 2f35 a4bf
00000020: ce3a 4a3f 18a9 9e3e 8d76 683f 1571 2f3f
00000030: 60ce 1b3f 5ecc a4bf df5a bfbe 879a 3b3e
00000040: 414a 33bf 9e77 66be 7d07 02bf 220e 2b3e
00000050: a2bd 5cbf 1df4 dbbe a684 3dbe e061 cc3e
00000060: d9d7 c5be d343 473f bade a7be 3f93 053d
00000070: 4ad0 86bf 6e1b 483f e386 26bf c0a8 13bf
00000080: cb88 b8bf 8484 903e 5d32 4d3e 5ff5 dd3d
00000090: bfd3 863e dc7f 61bf af3c d4bd 6507 0ec0
000000a0: 3a22 f0bf 37c8 7bbf 253b e4be 0e72 44bf
000000b0: 8a02 6ebf dbcb 03bf 75cd dbbe 3090 96be
000000c0: b92d b0be 4ac9 94bf d3a6 cc3e 3e48 26be
000000d0: 7eab 4dbd 49e6 c23e 78d2 1fbe 2d93 7dbf
000000e0: 5104 51bf 4989 e43d 7c3a a6be e7aa 28bf
000000f0: ebf3 bb3d cc3d 2a3f f3b9 fbbf f442 8cbf
00000100: 6654 f6bf 7330 e6be 8ce4 233e 37c2 e4be
00000110: c62c 853e b959 123f 5dc3 7cbe a7c1 333f
00000120: 5349 f7be 8530 3c3e d035 6abe b1ce 123f
00000130: 8c74 c3bf d919 5bbe ca58 aa3e b1e2 e23d
00000140: c662 dabe 3f42 08be 0c02 50be cfa6 0bbf
00000150: 1912 803e b139 90be 4415 23bf 6a56 753d
00000160: 49bc 3e3f 385f 81bf 3104 cbbe 1cfc b9be
00000170: ee90 3b3f 7886 0fbf 7afb f6be 842a 743e
00000180: 0a0d 47be 5662 ebbe 8745 4bbf 7151 28bf
00000190: 3147 523d 2a58 893f c693 00be eadd adbe
000001a0: efb4 1a3f c9b0 823c b0f5 32bf 99cb c13e
000001b0: 3396 b5be a154 68bd 5507 bebe 1fb5 13c0
000001c0: 7ad9 a0bf a7f8 86be 206e 0dbe bd0a 2cbf
000001d0: 4f86 13bd 6279 84be cc3f 47bf 71c2 f7bd
000001e0: e21c 14bf 9ddb 023d 46eb eb3d 7aa6 85be
000001f0: 6f2a abbe 3888 0fbe 9b8c 82be 1f94 a1be
00000200: 6990 4bbf ad69 8abe 53dc 4fbf 2be0 41be
00000210: 70ae 0e3e b54f edbd b7f4 5b3e a5b4 56be
00000220: f626 fe3d 83cf 163f b96a 003f d986 6cbe
00000230: 56f3 273f 3760 93bf 0c3e b5be c70c 37be
00000240: d3a9 71bf e768 873d 7e32 8dba 05c8 4abe
00000250: 9368 f7be e427 863f 3e4d fe3d 4610 e4be
00000260: c950 ddbe 4101 cebf 2cc2 1ec0 99d5 b4be
00000270: 4d49 04be 3fff d9bf bcef 0ac1 8b2b 24bf
00000280: c085 2f3f 28a2 34bf 5b4a 9ebe e0f3 5abf
00000290: 55a5 803e 3f50 9fbd 4dd6 22be 4112 f03d
000002a0: 4088 17bf d421 88be 1fd7 d8bd 2ebf 5f3d
000002b0: 6e81 1cbe 5069 c6bd d79f e8be 0475 8cbd
000002c0: a371 19bf 434b 18c0 dbda cabf 18fd 2fbe
000002d0: 0f07 13bf 2d7c 3bbd 4d24 803d 0a46 b0bf
000002e0: 1178 c7bd 814e 37bf 88f8 1dbf 8f86 3a3f
000002f0: b34a a6be 192a 52bf 6a18 30be ac45 373e
00000300: bb1c 45bf 720e 7f3e 3936 3dbf f6c4 af3e
00000310: d4f7 f4be 599a 0a3e 5454 ad3e c112 5cbf
00000320: 168a b0bc 36d8 12bf e34a b13e 7f26 bf3f
00000330: 1fbe 1f3e 0c27 50bf f1d4 78be d1de 77bd
00000340: 3cf3 31bf e99e 133e 9bdb 403e 82b3 0f3e
00000350: a3b1 2ac0 2914 87bf e79f 2e3e 8ec6 c13d
00000360: 0c12 10be 401d 8cbf 2b1d aabf 99b2 babe
00000370: 0063 5abf 0ea7 aabe acd9 e8bc 91d4 493e
00000380: e99b 82bc 3c23 b6be 3e67 cfbf 1d96 a8be
00000390: 45b0 2b3e 562e 823e 93ea 40bf 3f04 003e
000003a0: c03e d23e 6d23 d3bf 5730 7f3f 2cc1 21bf
000003b0: 6e45 6a3f 6b18 4d3f 6ee3 95be 3647 75be
000003c0: 1594 26bd 0026 b03e 5813 3abd 4d51 783e
000003d0: 7ac5 a63e 8f7d d73e e710 2cbf d145 a6bf
000003e0: d6d3 013e 44ab 2bbf 5518 4ebf 479a 25bf
000003f0: 5b95 38be 4f16 b6be 8e2c 133e 63ab 5e3e
-0.17340137 -1.1512669 0.13776553 -0.7851477 0.04936858 -1.4276805 0.3451099 -1.282873
0.7899598 0.30988383 0.90805894 0.68531924 0.6086178 -1.2874868 -0.37374017 0.18320666
-0.7003518 -0.22506568 -0.50792676 0.1670461 -0.86226857 -0.4295968 -0.18507633 0.39918423
-0.3864124 0.77837867 -0.32787114 0.032611128 -1.0532315 0.78166854 -0.6504957 -0.5767937
-1.4416746 0.282261 0.20038743 0.108378164 0.26333424 -0.8808572 -0.10363137 -2.2192013
-1.8760445 -0.9835238 -0.44576374 -0.76736534 -0.92972624 -0.51482934 -0.4293019 -0.2940688
-0.34409884 -1.1623929 0.39971027 -0.16238496 -0.050212376 0.3806632 -0.15607631 -0.990527
-0.8164721 0.111589976 -0.32466495 -0.65885776 0.09177383 0.66500545 -1.9666122 -1.0957932
-1.9244506 -0.4495884 0.16005152 -0.44679424 0.26010722 0.57168156 -0.246839 0.70217365
-0.4829813 0.18377884 -0.2287209 0.57346636 -1.5269942 -0.21396579 0.33270866 0.11078394
-0.42653483 -0.13306521 -0.20313281 -0.54551405 0.25013807 -0.28169015 -0.63704324 0.059896864
0.7450605 -1.0107183 -0.39651635 -0.36325157 0.7326802 -0.5606456 -0.48238736 0.23844343
-0.19438568 -0.45973462 -0.79402965 -0.6574927 0.051337425 1.073003 -0.12556371 -0.3395837
0.6043233 0.015953438 -0.6990614 0.37850645 -0.35466155 -0.056721333 -0.3711497 -2.3079298
-1.2566369 -0.26361582 -0.1381154 -0.67203885 -0.03601676 -0.25873858 -0.7783172 -0.12097634
-0.5785657 0.03194772 0.11519484 -0.26103574 -0.33430812 -0.14016807 -0.25497898 -0.3155832
-0.7951723 -0.2703375 -0.81195563 -0.1893317 0.1393373 -0.115874685 0.2148007 -0.20967348
0.12409775 0.5891039 0.50162846 -0.23098315 0.65605676 -1.1513737 -0.353989 -0.17875968
-0.94399756 0.066118054 -0.0010772494 -0.19802864 -0.4832197 1.0480924 0.124170765 -0.44543666
-0.43225697 -1.6094133 -2.4806013 -0.35319212 -0.12918587 -1.703102 -8.683529 -0.6412894
0.6856346 -0.7055993 -0.30916104 -0.85528374 0.25126138 -0.077789776 -0.15902062 0.11722232
-0.59192276 -0.2658831 -0.10587906 0.054625683 -0.15283749 -0.096880555 -0.45434448 -0.068582565
-0.5993902 -2.3795936 -1.5848039 -0.17186391 -0.57432646 -0.04577272 0.06256924 -1.3771374
-0.09739698 -0.7160416 -0.61707354 0.7286157 -0.32478866 -0.82095486 -0.17196813 0.17897671
-0.76996964 0.24907854 -0.7391086 0.34329957 -0.47845328 0.13535441 0.338534 -0.85966116
-0.02155022 -0.5736116 0.34627447 1.4933623 0.15599869 -0.8130958 -0.2429998 -0.06051523
-0.6951177 0.14416088 0.18833773 0.1403332 -2.667092 -1.0553027 0.17053185 0.094616994
-0.14069384 -1.0946426 -1.3290151 -0.36464384 -0.8530731 -0.33330578 -0.028424107 0.19709994
-0.015943484 -0.35573757 -1.6203382 -0.32927027 0.1676646 0.25425977 -0.7535793 0.1250162
0.410635 -1.6495186 0.99683136 -0.6318538 0.9151219 0.80115384 -0.29275078 -0.23952946
-0.040668566 0.34403992 -0.045428604 0.24249764 0.32572538 0.4208798 -0.6721329 -1.2990056
0.12678465 -0.67058206 -0.8050588 -0.64688534 -0.18025725 -0.35563895 0.14372465 0.21745066

bias f4 [256]
00000000: ac42 a0bf b30f 9cbf 27e7 a2bf c071 0cbf
00000010: c0ca af3e 5ccb 58bd 5b16 79bf 8bdf 5dbe
00000020: e7d1 1dbf 0ea1 a53e e577 103f f165 6ebf
00000030: a488 fa3e ad90 15be f312 0bbf af97 18bf
00000040: 9c40 0d3e febc 32bf cd92 dfbd 7c71 2ebe
00000050: c812 24bf ccad 883f 7ec0 27bf 6b95 b7bf
00000060: 9277 46bf df6d fabe 3578 1abf ffbd d6bf
00000070: b80e 33bf 30c3 2bbf 5b15 bfbf beab e6be
00000080: 7257 583f 45fc 993d 8dda 0fbf 2b91 58be
00000090: ea3c d9bf 56ee 34be 33ca 2c3f 8bb6 a13f
000000a0: aa33 2abf 874b 1abf 9968 ca3b 4d18 05c0
000000b0: 8003 353f 7a22 78be ead7 8ebe dc08 44bf
000000c0: 3cf3 45bf 61b4 60bf 14a3 ec3e 3807 63bf
000000d0: 0ba3 003f 8072 f73d 550f debf ad79 1ebf
000000e0: db51 cd3f 4db0 15bf 53fc 17bf c9fa 06bf
000000f0: f5c1 d6bd 00d3 9cbf e270 59bf 3506 91bc
00000100: 066f a4be 1953 b3bf 382d 823f 7cff 9abf
00000110: 6785 f0be 07da 10bf d925 01be d9c6 88bf
00000120: 9032 153e c5f0 43c0 483d c6bf d2ec 1ac0
00000130: aa8e 33be b9d9 17c0 4c04 15bf a55b 5ebf
00000140: e2fe a2bd 156f 99be c204 b3be 63c7 55bf
00000150: 820c 503f d20f 89be 202f c8bd 3265 abbf
00000160: ebce 49be d950 88bf 0845 b03e a9f0 bcbf
00000170: 91ac 463f fa5f cb3d 4dd3 36bf ff18 2cbf
00000180: e6fe 653f 98be e03f 1ee9 643f c268 bebe
00000190: c678 80bf 691a e6bf 15ee b2bf e395 bdbd
000001a0: 2928 26bf 954c 5abe c536 9a3e 17ee 2abf
000001b0: b219 4fbf 5345 d6bf b88f 27bf 91b9 82bf
000001c0: 3831 25bf 85ba f6be 09bc debe fa84 05bf
000001d0: c433 68bf cca3 46bf cd74 e6be a414 e4bf
000001e0: 6e39 d93e 9d6f a93f 6a8c c3be 698f b4bd
000001f0: b236 89be 70c3 0dbf f78a cabf 89ad fbbf
00000200: 53ab d9be a202 3dbf 225e 00be ab8b 1d3d
00000210: 0ef0 7b3e d848 be3b e16e d4be 4cd4 963f
00000220: e474 26c0 56a3 54bf b77f a03e fd81 03bf
00000230: 33f9 63bf d23a 0a3e f5ed cabf 6e0f 84bd
00000240: 5253 5dbe f9ac fdbf ea2b 58bf 9ecf 92be
00000250: a75d 8cbf 467a 5fbf f0a9 94be da8b 13c0
00000260: 778d bdbf cf51 97bf 38f7 e93e 26ce 06bf
00000270: ddba f6be d3a3 aebe 01f6 a4bf b9a4 34bf
00000280: c055 a8be 407b b9be 3a5f 03bf 808b 25bf
00000290: 6868 a4bf 06ba 7bbf 00c4 20bf 9af1 afbf
000002a0: f7c9 19c0 48f4 c0be 1e6a 313f 8af0 c6bc
000002b0: 1035 f43f 5a1b d1bd 6b63 b5be 3e6a 8d3e
000002c0: 50dc 6cbf e93a b63e ed87 a8bf ce48 f5be
000002d0: cd6d 9a3f f0f5 ddbf 33c8 8fbf 0a7e b03f
000002e0: 5e05 7fbe 5533 b63f eca8 c23e 369d 1bbf
000002f0: 7fa4 dbbf ed2d 68be 0807 aebe 56f1 e9bf
00000300: 5365 78bf 04fa fcbe 6c5a 4abf 9f3e 423f
00000310: 406f 52bf de69 203e 0706 01c0 a573 6dbf
00000320: 9b49 39bf d37b 323f 0ad7 8ebe ab20 22c0
00000330: dee0 ceb9 c8bb b8bf 154c f8bf 5c74 bd3e
00000340: 9e1f 5b3f 4f93 82bf 5d72 74bf 58c6 06c0
00000350: 55f5 dabf 0479 94be 10ad bd3f 047e c7bf
00000360: e9fc acbe fe8a 6bbf 5ebb ce3f d4c9 e03f
00000370: 704c 28bf f3d3 febf fb54 edbe b49b d1be
00000380: 23b7 3a3d f8d1 0ebf 1336 32c0 d7ff f6bb
00000390: 796b afbf 0a41 3dbf a30b 15bf c3f2 37bf
000003a0: b71d 6ebf f401 0cc0 a3c7 4bbf f590 993d
000003b0: 8865 3c3e d773 43be e216 50be bab3 60be
000003c0: 1f16 aabf 8097 20bf 6059 953e 58ca 16bf
000003d0: a688 0dbf 89e3 603f 302c e8bf 02ac 5f3e
000003e0: 7971 a5bf b663 7ebf 0330 b4bc e6b9 12bf
000003f0: de74 6f3f ae27 56bf 8b77 123f 0c87 08bf
-1.2520347 -1.2192291 -1.2726792 -0.5486107 0.34334373 -0.052928314 -0.97299737 -0.21667306
-0.6164841 0.32349437 0.56432945 -0.931243 0.48932374 -0.1460597 -0.5432579 -0.5960645
0.13794178 -0.6981963 -0.10916672 -0.17035478 -0.6409116 1.0678039 -0.65528095 -1.4342474
-0.775262 -0.4891195 -0.6033967 -1.6776732 -0.69944334 -0.6709471 -1.4928392 -0.45052904
0.8450843 0.0751882 -0.5619286 -0.21149127 -1.6971714 -0.17669043 0.6749603 1.2633833
-0.66485083 -0.60271496 0.00617702 -2.0796082 0.70708466 -0.24231902 -0.27899104 -0.7657602
-0.7732427 -0.87775236 0.4621817 -0.8868289 0.50248784 0.12082386 -1.7348429 -0.6190441
1.6040605 -0.5847214 -0.5936939 -0.5272642 -0.10486213 -1.2251892 -0.8493787 -0.017703155
-0.32115954 -1.4009734 1.017005 -1.2109218 -0.46976778 -0.56582683 -0.12612094 -1.0685683
0.1457007 -3.0615704 -1.5487452 -2.4207044 -0.17534891 -2.3726637 -0.5820968 -0.8685859
-0.07958771 -0.2996756 -0.34964567 -0.83507365 0.81269085 -0.26769882 -0.097746134 -1.3390257
-0.19707839 -1.0649673 0.34427667 -1.4760944 0.77607065 0.099304155 -0.7141617 -0.6722564
0.8984207 1.7558165 0.8941821 -0.371893 -1.0036857 -1.797681 -1.3978907 -0.09257104
-0.6490503 -0.21318276 0.3011991 -0.66769546 -0.8089858 -1.6739906 -0.6545367 -1.021288
-0.64528227 -0.48189178 -0.43502834 -0.5215603 -0.9070399 -0.77593684 -0.45010987 -1.7818799
0.42426628 1.3237187 -0.38193065 -0.08816416 -0.26799542 -0.5537634 -1.5823659 -1.9662334
-0.42513523 -0.7383214 -0.12535909 0.038463276 0.24603292 0.0058070235 -0.41490844 1.1783538
-2.6008844 -0.8306173 0.3134744 -0.5137022 -0.8905212 0.13499 -1.5853869 -0.064482555
-0.21613815 -1.9818412 -0.8444201 -0.28674024 -1.096608 -0.8729595 -0.29035902 -2.3054109
-1.4808797 -1.1821841 0.45696425 -0.5265831 -0.4818944 -0.34109363 -1.2887574 -0.70563847
-0.32877922 -0.36226845 -0.5131718 -0.64665985 -1.2844362 -0.98330724 -0.6279907 -1.3745606
-2.402952 -0.37686372 0.69302547 -0.02428462 1.9078693 -0.10210295 -0.35427412 0.2762012
-0.9252367 0.3559182 -1.3166481 -0.47907108 1.2064759 -1.7340679 -1.1232971 1.3788464
-0.24904391 1.4234415 0.38019502 -0.6078676 -1.7159575 -0.2267377 -0.3398974 -1.8276775
-0.9702961 -0.49409497 -0.7904422 0.758768 -0.82201004 0.15665385 -2.0159929 -0.92754585
-0.7237794 0.6972019 -0.27898437 -2.533244 -0.0003945892 -1.4432306 -1.9398218 0.37002838
0.8559512 -1.0201205 -0.95487005 -2.105856 -1.7106119 -0.28998578 1.481844 -1.5585332
-0.33786705 -0.9200896 1.615093 1.7561593 -0.65741634 -1.9908432 -0.46353897 -0.40939105
0.04558481 -0.55789137 -2.7845504 -0.0075378227 -1.3704673 -0.73927367 -0.5822088 -0.718548
-0.9301409 -2.1876192 -0.79601496 0.074983515 0.18398106 -0.19087158 -0.20321229 -0.2194356
-1.3288001 -0.6273117 0.2916975 -0.589025 -0.55286634 0.8784719 -1.8138485 0.2184296
-1.2925254 -0.99370897 -0.02199555 -0.5731491 0.935377 -0.83654296 0.5721366 -0.53331065

weight f4 [8, 256]
00000000: a93a 9dbe 84cd 7140 5bfb 03be 6436 bdbe
00000010: b350 b3bf 1867 203e e998 91be 7e61 963d
00000020: f38f 683d dab2 9b3e a3a8 bb3d 975a c53e
00000030: 6031 7e3d f8bf 09be 04e6 53bd 4c64 01bc
00000040: a195 2a3d ee6b 803e f6f2 6b3c c8b9 adbd
00000050: e6e8 15be 32b5 243d c6bd 3f3e 881f 593f
00000060: 3c73 3b3d 4c54 043d 52cb 27bd 53b0 4dc0
00000070: e564 0dbf dfff 21c0 283a 353f fe08 8b3f
00000080: dd7d 13bd c32c 2cbd 95de d33e fe01 9dbd
00000090: fb4d bf3e 67ea c43d 3400 563c 75f7 53bd
000000a0: 545b 473e 2dfc 35bf dbcd 243b 9108 99bd
000000b0: 0eaf 46bc b518 05be a51a c13c c01a c2be
000000c0: ba4d 1640 0332 c8bf 37ab dfbb 68ee 4bbe
000000d0: 23a5 35be 83e1 be3c 3024 1e3d 0ef8 bb3d
000000e0: f85f 26bd db2b a2bc c748 873e c9b5 6b3f
000000f0: 5ad4 9d3c 626e 39bf 8ca4 64bd 8d6b cdbc
00000100: 4d07 b03d 28dd a3bf 3216 dd3d d1b2 253e
00000110: 8411 443c 903f 85bf c981 b2bd bce5 0d3e
00000120: 9fbb 2cbd 766f 25bf d9aa ee3f c9fe e0bd
00000130: 9fb2 353e 2476 b73e 70e0 463f 797a a9bd
00000140: dce7 ddbd 55b3 d1bf dd61 043d 054a c93e
00000150: b8d8 43bc 26fe ddbd 50f3 3e3f a02b d6be
00000160: b078 68bb a6b4 37bd bd59 fa3e c7f5 1640
00000170: 54fb c03b 2276 fb3e 3f39 aac0 4953 17be
00000180: 91d8 1d3d 4d50 523d 4e3a 1bbe 7b9b 9bbe
00000190: 1449 0ebe 8ac7 173e 1053 443d b312 33bd
000001a0: 85b7 223f cc91 a03e 2774 c93c 3750 26bd
000001b0: eb03 eabe 8e34 853f 59f9 c23d 167e 1040
000001c0: 2121 9a40 894f 60bf 809b 17be 2dcb a3bb
000001d0: dbcb 0c3e 0036 eabd c55e 16be 5fe4 85be
000001e0: 5af1 b6bc bb9e 4e3d 6763 36bc 77f7 3bbd
000001f0: 4492 2ebe d84f e9bf e6e8 e43d 0d6b e9be
00000200: afc1 8c3e 7701 2b3e 961c 603d 293b dc3d
00000210: 9acf 043f 482a 1ac0 5c96 d5bc 1e4d fbbc
00000220: 0060 05be af89 bebd b1e8 7e3d 6c5a 8fbd
00000230: 2e4e 1dbb 0f75 b53d 2939 1140 17f7 893b
00000240: 7073 98bd dd8a 2abf 6295 1b3e 313a 903d
00000250: 5ed0 9b3d 748b 6f3f 2e89 353e 934b 8c3c
00000260: 9905 99be 69d1 4a3f 1d64 b33d b547 0ac0
00000270: d00a 883f 4263 f4be 1c30 243e 3f64 803e
00000280: c9dc 4bbf c13e 39bd cbb9 8ebf e8a8 9fbd
00000290: 3d62 8f3c 8e47 723f 3378 0abf 2f40 6abc
000002a0: f3fd 36bf d91e 5f3e 36cc 20bd 2d71 eb3c
000002b0: eca9 3a3b 416e a23c 1300 333d 9bb1 bb3d
000002c0: 8248 f8bd cb2b d73d 7a73 723e 0e92 d6bc
000002d0: abda 8bbe 838b b53e b791 5ebf af46 a3bb
000002e0: 6497 a83d 1daf 8c3d b58d ebbc 1901 c2be
000002f0: fdf2 0540 1115 a23d ab3b ffbd fc1a ec3e
00000300: 3f62 0e3f 570f 89bf 7f54 82be 6cd3 753d
00000310: eab2 33bb e29e 8ebc a320 97bd 0d29 38bd
00000320: 3a95 543d ffd2 593e 5309 603f 80b5 85bb
00000330: 0d8f 17be 6920 003d 0e1f b83d a61c f3bd
00000340: dad6 243d 1625 7c3d 4532 8e3e 209c 233e
00000350: 092e b8bc 3b3c ac3d 89bb 18bd 36f7 8cbe
00000360: 43a5 8b3e b02d 833f 7096 9cbc 45f5 403d
00000370: 37ae b13b 5587 81be 79c7 5f3e e5f1 ed3c
00000380: 4572 083e 4997 c3be f35a 8a3e 57b2 5bbe
00000390: c645 333d 9294 9c3d a5db f7bd 49c8 65be
000003a0: 4332 a540 daf6 b33c a260 4cbf e193 e63f
000003b0: d047 1cbb 9957 8ebf 606e f73d d486 513d
000003c0: 0d2a 6f3e c837 913c ba8d 18be 8a15 c0bf
000003d0: 5b98 11bd bdbc 36bd cf5e 87be 6284 cabd
000003e0: 8d2c 853d ee52 5b3d 706b 123f d3ff 253e
000003f0: a513 033e 68db b03e 6bb0 db3b c87f 00be
-0.30708817 3.7781687 -0.12888853 -0.3695556 -1.4009002 0.15664327 -0.28436974 0.07342814
0.056777906 0.3040989 0.09163024 0.38545677 0.062058806 -0.13452137 -0.051733032 -0.007897448
0.041646603 0.25082344 0.014401188 -0.084827006 -0.14639625 0.040211864 0.18724737 0.8481374
0.045764193 0.032306954 -0.040965386 -3.213887 -0.5523208 -2.5312421 0.70791864 1.0862119
-0.036008704 -0.042034876 0.41380754 -0.076663956 0.37364182 0.09615021 0.013061572 -0.051749665
0.19468433 -0.71087915 0.0025147113 -0.07472337 -0.012126697 -0.12997706 0.023572275 -0.37911034
2.348494 -1.5640262 -0.0068258303 -0.19915164 -0.17738776 0.023300892 0.03860873 0.09178172
-0.040618867 -0.019796303 0.26422712 0.9207426 0.019266296 -0.72434056 -0.055820987 -0.025075698
0.085951425 -1.2801867 0.10795249 0.16181494 0.011967067 -1.0410023 -0.08716161 0.13857168
-0.042171117 -0.646232 1.8645889 -0.109860964 0.1774392 0.35832322 0.77686214 -0.08275313
-0.10835239 -1.6382853 0.032319892 0.39314285 -0.011953525 -0.108394906 0.74590015 -0.41830158
-0.0035472326 -0.044850014 0.4889659 2.358751 0.0058893356 0.49113566 -5.319488 -0.14777865
0.038536612 0.051346112 -0.1515896 -0.3039206 -0.13895065 0.14822212 0.047930777 -0.043719005
0.6356128 0.31361234 0.024591519 -0.040603843 -0.45706114 1.0406663 0.095202155 2.2576957
4.816544 -0.8762136 -0.14805412 -0.0049985857 0.1374964 -0.11436081 -0.14684589 -0.26150796
-0.022331882 0.050444346 -0.011132098 -0.045890298 -0.17047983 -1.8227491 0.11177234 -0.45589486
0.2749152 0.16699778 0.05471476 0.107534714 0.51879275 -2.4088306 -0.026072673 -0.03067642
-0.13024902 -0.09303605 0.06223363 -0.069996685 -0.0024002898 0.08860218 2.2691138 0.0042103636
-0.07443893 -0.6661814 0.15193704 0.07042349 0.07608102 0.93572164 0.17728111 0.01712588
-0.29887083 0.79225785 0.087593295 -2.1606266 1.06283 -0.47731978 0.16033977 0.25076482
-0.79633766 -0.045225862 -1.115045 -0.07795888 0.017502898 0.94640434 -0.5408966 -0.014297529
-0.71481246 0.21789111 -0.03925725 0.02874049 0.002848263 0.019827964 0.043701243 0.09164735
-0.12123205 0.105064 0.23676863 -0.026192691 -0.27315268 0.35458001 -0.86941093 -0.0049827914
0.082320005 0.06869338 -0.028754095 -0.37891462 2.0929558 0.07914174 -0.12462553 0.46114337
0.5561866 -1.0707806 -0.2545509 0.06001608 -0.0027419874 -0.017409746 -0.07379272 -0.044961024
0.051900126 0.21271895 0.8751423 -0.0040804744 -0.14800663 0.03128091 0.08990298 -0.11870699
0.04024396 0.061558805 0.27772728 0.15977526 -0.022482889 0.084099256 -0.037288222 -0.27532357
0.27274522 1.0248318 -0.019114703 0.047108907 0.0054223794 -0.25298563 0.21853437 0.029046008
0.1332484 -0.3820136 0.27022514 -0.2145475 0.043767713 0.07645525 -0.12102441 -0.22439684
5.1623855 0.021968294 -0.7983495 1.8013879 -0.0023846515 -1.1120483 0.12081599 0.051153973
0.23355885 0.017726794 -0.14897814 -1.5006573 -0.035545688 -0.04461359 -0.2643952 -0.09888531
0.06502638 0.053545885 0.57195187 0.1621087 0.12800463 0.34542394 0.0067043803 -0.12548745

bias f4 [8]
00000000: 1613 253e d591 fc3d 4a37 99be fe38 ef3d
00000010: 51a5 4a3f 18ad 0bbf 7de0 18be b07d ed3d
0.16120562 0.12332503 -0.29924995 0.11680792 0.791585 -0.54560995 -0.14929385 0.115962386
