runs/AntRandom-v5_td3_3_state_1752983772/best_policy.pt (torch, 384069 bytes, 6 tensors)

weight f4 [256, 105]
-0.2605754 -2.2322886 0.7273191 -3.327573 4.8442554 -1.1148709 0.4732551 2.2496572
0.013889668 0.99514437 -0.29370517 1.4751725 -0.22038887 -1.621732 -0.5908358 -0.85165405
0.21859752 -0.19954382 0.5410323 0.13335331 0.029175512 0.30109957 0.35383558 -0.12662457
0.023360478 -0.3254242 -0.1135983 -1.3278959 1.5543522 0.44142467 -0.14482106 0.9143173
-2.2905753 1.202098 1.2050449 1.2415938 1.2639666 1.1928796 1.243926 2.717333
1.5384909 -1.2091848 1.3067127 -1.9941982 1.4559525 -0.50287145 0.984354 -0.63051504
0.3643873 -0.795256 0.2576034 1.2502073 1.2757704 1.3758761 1.352326 1.3139544
1.2546036 0.42367992 -0.5022226 1.2154952 1.8130833 -0.0663381 -1.3840705 -0.4812118
-0.2659954 0.0067114844 -1.0386064 0.4630066 -0.6637866 1.3332697 1.3106154 1.3700477
1.2453464 1.2910687 1.3495947 -0.23571585 -0.21997723 -0.22589494 1.0874717 0.5110894
-0.06963447 0.23241726 -0.47973165 0.40828848 0.15228845 0.18247193 -0.45220459 1.2035052
1.2247672 1.2563306 1.2499291 1.3184463 1.2077961 1.9634199 -2.6941571 -1.2597098
-1.3016003 -0.044080257 -1.3331603 0.8233441 0.6372727 -0.54378015 0.6125902 0.08810548
-0.2953819 0.03201689 -2.04971 -0.2655384 3.7104325 -6.2579093 -1.080188 0.39727792
-1.1863396 -0.011254621 -0.32672027 0.2080978 -1.5021044 -0.42660707 -0.049684655 0.31333283
-0.01804519 -0.2543822 0.09035372 -0.7154108 -0.18156756 0.063752584 -0.10890269 -0.04475234
-0.10848587 0.04432768 -0.10977919 -0.030583413 0.109201945 -0.50979203 0.11125404 0.5711612
0.2260825 -2.8369412 0.13923395 0.21812603 0.13702573 0.23224668 0.23535763 0.26280674
0.43507335 -0.14388393 0.37580836 -0.1945847 0.31595305 -7.2337585e-05 -0.006337957 0.2294572
-0.20733923 -0.011131161 -0.001969055 0.23051248 0.30451846 0.23438774 0.25578022 0.19563821
0.15283455 0.24039008 -0.5324656 -0.3774705 1.0914516 0.21936981 0.2636782 0.2552936
0.084292 0.07631005 -0.031746168 -0.019453282 0.1507882 0.121969305 0.24178272 0.27611265
0.18066233 0.30206868 0.2961237 0.18204974 -0.7761924 0.5270019 -0.8061494 -0.90916246
0.19907667 0.8115778 -0.010746325 0.2347266 -0.34115168 -0.09058218 -0.14306447 -0.28168786
0.17609775 0.24125668 0.26633424 0.2834704 0.23655455 0.25407144 1.3989594 0.7025622
-0.28922683 0.4527846 0.45922294 -0.20953009 0.11293507 -0.1935657 -0.20905678 -0.13948014
0.15802039 -0.013969671 0.6779854 -0.011326704 -8.815944 -2.4332767 -2.7119005 -1.2970822
0.5980242 -0.108717784 -0.10739318 0.0643947 -0.030434402 -0.21121705 -0.41644317 0.08771938
0.30939555 -0.47641093 -0.442305 -0.36258125 -0.3010609 -0.026246013 0.028522307 -0.061398145
-0.070957966 -0.024757482 -0.008280172 -0.11702001 -0.07527521 -2.6001596 1.1005703 -1.1767515
1.9365867 1.5477531 -2.3658905 0.58184177 0.62899727 0.65500754 0.6155323 0.6554716
0.56193286 1.1543603 2.4522123 0.2563108 0.5227553 -1.0567607 -1.5540013 -0.10114815
00000000: 246a 85be d1dd 0ec0 9631 3a3f f5f6 54c0
00000010: 2404 9b40 17b4 8ebf 7e4e f23e 62fa 0f40
00000020: 7d91 633c c8c1 7e3f 8660 96be 74d2 bc3f
00000030: 9fad 61be ea94 cfbf 0441 17bf 0006 5abf
00000040: 07d8 5f3e 3755 4cbe 1881 0a3f c58d 083e
00000050: 7c01 ef3c b929 9a3e f029 b53e dfa9 01be
00000060: 795e bf3c 009e a6be 3aa6 e8bd 7ef8 a9bf
00000070: 03f5 c63f 6a02 e23e f94b 14be b310 6a3f
00000080: c998 12c0 59de 993f e93e 9a3f 8cec 9e3f
00000090: a8c9 a13f 47b0 983f f838 9f3f c9e8 2d40
000000a0: 45ed c43f 91c6 9abf 5d42 a73f e341 ffbf
000000b0: a75c ba3f 2fbc 00bf a0fe 7b3f 6f69 21bf
000000c0: f990 ba3e e695 4bbf 98e4 833e cb06 a03f
000000d0: 724c a33f b51c b03f 0519 ad3f a82f a83f
000000e0: da96 a03f 93ec d83e a991 00bf 5995 9b3f
000000f0: 1d13 e83f 45dc 87bd 3929 b1bf 6561 f6be
00000100: 8d30 88be 03ec db3b 0ef1 84bf 330f ed3e
00000110: ebed 29bf 95a8 aa3f 3fc2 a73f b95d af3f
00000120: 8367 9f3f bd41 a53f 85bf ac3f 7f5f 71be
00000130: b641 61be 0151 67be 4632 8b3f c1d6 023f
00000140: 849c 8ebd cafe 6d3e 639f f5be 300b d13e
00000150: 81f1 1b3e ecd9 3a3e 5c87 e7be 750c 9a3f
00000160: 2cc5 9c3f 71cf a03f adfd 9f3f d9c2 a83f
00000170: 1099 9a3f 5851 fb3f 126d 2cc0 2c3e a1bf
00000180: d79a a6bf 808d 34bd ffa4 aabf aec6 523f
00000190: 4e24 233f 2d35 0bbf b6d2 1c3f a570 b43d
000001a0: 4c3c 97be 2424 033d 732e 03c0 a6f4 87be
000001b0: ba77 6d40 cb40 c8c0 9a43 8abf 0368 cb3e
000001c0: fad9 97bf 4d65 38bc e147 a7be 9717 553e
000001d0: f544 c0bf 3e6c dabe 2382 4bbd 296d a03e
000001e0: 82d3 93bc 623e 82be 5f0b b93d 2a25 37bf
000001f0: d9ec 39be b790 823d 6008 dfbd 3b4e 37bd
00000200: d72d debd f190 353d e9d3 e0bd 118a fabc
00000210: 45a5 df3d bb81 02bf 28d9 e33d 9f37 123f
00000220: 2c82 673e 7290 35c0 5893 0e3e 6e5c 5f3e
00000230: 7950 0c3e 13d2 6d3e 9701 713e 9b8e 863e
00000240: efc1 de3e 4f56 13be f469 c03e 3641 47be
00000250: 99c4 a13e f2b3 97b8 a3ae cfbb d4f6 6a3e
00000260: bc50 54be 795f 36bc 430b 01bb 770b 6c3e
00000270: d8e9 9b3e 5703 703e a0f5 823e 6255 483e
00000280: a980 1c3e d128 763e aa4f 08bf d043 c1be
00000290: b0b4 8b3f 7ba2 603e d400 873e d8b5 823e
000002a0: 49a1 ac3d 7248 9c3d 4508 02bd 7d5c 9fbc
000002b0: 3968 1a3e 0bcb f93d e495 773e a35e 8d3e
000002c0: 8cff 383e bfa8 9a3e 879d 973e 3f6b 3a3e
000002d0: 8cb4 46bf 99e9 063f cf5f 4ebf dfbe 68bf
000002e0: c1da 4b3e 90c3 4f3f 5b11 30bc 2b5c 703e
000002f0: 6fab aebe 2683 b9bd 7e7f 12be 6439 90be
00000300: f852 343e fe0b 773e f65c 883e 0823 913e
00000310: 5b3b 723e a715 823e 1a11 b33f 1edb 333f
00000320: 8a15 94be 62d3 e73e 451f eb3e 0e8f 56be
00000330: 814a e73d 1636 46be fb12 56be e2d3 0ebe
00000340: 19d0 213e 0ce1 64bc 7490 2d3f a493 39bc
00000350: 1b0e 0dc1 ceba 1bc0 c78f 2dc0 ca06 a6bf
00000360: 1d18 193f 6ea7 debd f5f0 dbbd 5ee1 833d
00000370: 9151 f9bc 4849 58be 0a38 d5be 38a6 b33d
00000380: 1869 9e3e 22ec f3be cd75 e2be 40a4 b9be
00000390: a724 9abe e101 d7bc 9da7 e93c 9f7c 7bbd
000003a0: 6952 91bd 34d0 cabc 8fa9 07bc 30a8 efbd
000003b0: e429 9abd 0469 26c0 7ddf 8c3f cb9f 96bf
000003c0: 13e2 f73f c61c c63f c06a 17c0 95f3 143f
000003d0: f705 213f 93ae 273f 8693 1d3f fdcc 273f
000003e0: d5da 0f3f 14c2 933f 0cf1 1c40 2b3b 833e
000003f0: 4bd3 053f ef43 87bf 84e9 c6bf c326 cfbd

bias f4 [256]
-0.13198042 -0.7517289 -0.9626528 -0.5010396 0.099871874 -1.1923249 -0.67384845 -0.40645972
-1.1292466 0.2674753 -0.16767715 -1.7980645 -0.88092864 -0.63196594 -0.2643937 -0.7421981
-1.4661295 -0.6530693 -0.74996847 1.3015562 -0.22714424 -0.48658097 -1.5878175 -1.0546329
-1.6627625 -0.38517106 -2.824789 0.1939321 -0.56500286 -0.8042398 0.12273974 -0.07149358
-0.77042365 -1.0358183 -1.2819996 -0.46194005 -0.46138301 -0.7524662 -0.19929078 -3.2269304
-0.8940975 -2.187016 -0.17086802 -0.6916715 0.2185287 0.41005924 -0.84404165 -0.6087687
-2.634571 -1.4020637 -0.58425206 1.1624442 -1.2450871 -0.2313799 -0.65968096 -0.550114
0.07891323 0.48042428 0.97230345 0.6892159 0.0274354 -0.69704455 -1.4150991 -1.2167566
-1.1172649 -0.5954798 -0.45109823 -0.84678054 -1.4270922 -0.8151 -0.033121493 -0.25512236
-0.8374061 0.8062887 -1.593411 -2.0190728 -0.1542454 0.37955022 -0.6399637 -1.083313
-0.14759241 0.9547244 -2.1571121 -0.8157518 -1.0584881 0.2482646 -1.5655423 -1.6427628
-0.051563326 -1.6053939 -1.1529478 0.3671138 -0.48863053 -0.10707165 -1.5471396 -0.6110471
-1.1313329 -1.5533222 -0.6177749 1.3337781 -1.1194347 -1.3783989 -0.34967753 -0.98743737
-1.3318604 -1.5137423 -0.46645972 -0.90670264 -1.1662897 -0.9043295 -0.598608 -0.25898066
-1.1861756 -0.52506626 0.50974935 -1.3819646 0.040520288 -0.4898094 -0.010496033 -1.0847237
-2.2401714 1.4732313 -0.24752994 -1.515695 -1.8089463 0.8324672 -0.4807427 -0.42336115
1.436105 0.81575644 -1.6646835 -0.83181965 -1.0476875 -0.95412844 -0.62192786 -0.8897059
-1.4959688 -0.65730953 -1.8756846 -1.2504227 -0.3403166 -0.4313749 -0.07880215 -1.6088711
0.4369198 -1.919329 -0.89533955 0.690955 -0.954582 0.030560633 -0.6548269 -2.4667032
-1.5691912 0.35411546 -2.239135 -0.5031647 -0.4327675 -0.33555117 -1.5223067 -1.3907888
-0.045712616 0.35257992 -0.4418563 0.18889214 -0.79576033 0.1177829 -1.2535083 0.71595687
-0.13171767 -1.041279 -1.3843087 -1.8421878 -0.9271906 -1.3601618 -1.1571741 -1.5765643
-0.7209407 0.15448551 -1.2912046 -1.0918416 0.3451627 -0.9983429 -1.1445794 -2.578915
-1.7260255 -0.45958522 0.46633506 -0.66488284 -0.31455526 -0.94704443 -0.108865276 1.1211542
-0.0008031748 0.57832384 1.723876 -1.6978469 0.3580911 -1.1999018 -0.84512603 -0.62838787
-0.7832446 -1.3001149 -0.4662016 0.29197395 -1.868999 -0.56180924 -0.43683228 -0.2122929
-2.3517673 -0.7699275 0.48218516 -0.93572974 0.12079122 -0.35267362 -0.08640622 0.1152152
-0.8304473 1.7386483 -0.54168755 -0.98684233 -1.0307362 -1.055133 -0.4666531 -1.1796558
-0.18846314 -0.5202738 -1.6594024 -1.0130736 -0.5245441 -1.4583915 -0.9230508 -1.0396017
1.0182961 -1.3796825 -0.050512925 -0.78750414 1.2087837 -1.7446889 -0.5935949 -0.86094254
-1.1225038 -0.67410374 -2.2953064 -0.5527124 -0.8523426 -0.7129217 -0.7559395 -0.7305417
-1.6880432 -1.8891556 -0.3584905 -0.5828543 -1.385782 -0.32346278 -1.3092811 -1.1126583
00000000: e025 07be 4e71 40bf 6a70 76bf 2244 00bf
00000010: a089 cc3d 1a9e 98bf 5581 2cbf 7d1b d0be
00000020: 278b 90bf 86f2 883e 8fb3 2bbe fa26 e6bf
00000030: 8a84 61bf 85c8 21bf 9c5e 87be b200 3ebf
00000040: 22aa bbbf 8d2f 27bf effd 3fbf 6599 a63f
00000050: 8098 68be 2421 f9be 9b3d cbbf 36fe 86bf
00000060: 67d5 d4bf 2435 c5be 58c9 34c0 2396 463e
00000070: 07a4 10bf a9e2 4dbf f95e fb3d 3a6b 92bd
00000080: 7c3a 45bf b295 84bf 9018 a4bf 6883 ecbe
00000090: 653a ecbe a0a1 40bf e212 4cbe 0786 4ec0
000000a0: 93e3 64bf 12f8 0bc0 07f8 2ebe 6211 31bf
000000b0: fdc5 5f3e 49f3 d13e 1d13 58bf 44d8 1bbf
000000c0: d09c 28c0 d376 b3bf 8b91 15bf f9ca 943f
000000d0: 045f 9fbf daee 6cbe dae0 28bf 45d4 0cbf
000000e0: 429d a13d 2cfa f53e e1e8 783f 7470 303f
000000f0: 34c0 e03c 8371 32bf f821 b5bf aebe 9bbf
00000100: 8902 8fbf 5d71 18bf 59f6 e6be 9cc6 58bf
00000110: f5aa b6bf 65aa 50bf 67aa 07bd 669f 82be
00000120: 3f60 56bf f068 4e3f e4f4 cbbf 7d38 01c0
00000130: 82f2 1dbe 6854 c23e a9d4 23bf 00aa 8abf
00000140: 7722 17be d168 743f 200e 0ac0 1cd5 50bf
00000150: 8a7c 87bf 1339 7e3e b163 c8bf 0d46 d2bf
00000160: 1134 53bd 8c7d cdbf cb93 93bf 57f6 bb3e
00000170: c82d fabe 6248 dbbd ac08 c6bf 956d 1cbf
00000180: 84cf 90bf 43d3 c6bf 7f26 1ebf 3eb9 aa3f
00000190: a349 8fbf 606f b0bf ef08 b3be b2c8 7cbf
000001a0: 677a aabf 4fc2 c1bf cfd3 eebe aa1d 68bf
000001b0: fb48 95bf 2382 67bf 603e 19bf 1d99 84be
000001c0: 9ad4 97bf be6a 06bf ef7e 023f 37e4 b0bf
000001d0: 9af8 253d 4cc8 fabe 8ef7 2bbc 3ad8 8abf
000001e0: f85e 0fc0 d892 bc3f 7d78 7dbe 4b02 c2bf
000001f0: 8d8b e7bf 921c 553f e823 f6be cbc2 d8be
00000200: 4ad2 b73f 6ad5 503f 5914 d5bf 22f2 54bf
00000210: a01a 86bf c341 74bf aa36 1fbf c4c3 63bf
00000220: e87b bfbf 7045 28bf 6f16 f0bf da0d a0bf
00000230: fa3d aebe 2cdd dcbe 0663 a1bd 7def cdbf
00000240: f4b3 df3e 93ac f5bf f934 65bf 6de2 303f
00000250: 7c5f 74bf 4b5a fa3c bca2 27bf 77de 1dc0
00000260: 42db c8bf 9f4e b53e fd4d 0fc0 67cf 00bf
00000270: b493 ddbe 5dcd abbe f2da c2bf 5e05 b2bf
00000280: 273d 3bbd 5b85 b43e fd3a e2be f16c 413e
00000290: f3b6 4bbf 2938 f13d f672 a0bf f348 373f
000002a0: ffe0 06be a148 85bf 0731 b1bf cfcc ebbf
000002b0: 5d5c 6dbf c819 aebf 481e 94bf dccc c9bf
000002c0: 928f 38bf 7331 1e3e 3146 a5bf 77c1 8bbf
000002d0: 2ab9 b03e 6693 7fbf 9481 92bf f20c 25c0
000002e0: 67ee dcbf c14e ebbe 78c3 ee3e c335 2abf
000002f0: 630d a1be 8171 72bf c2f4 debd fb81 8f3f
00000300: 268c 52ba 080d 143f f8a7 dc3f 0c53 d9bf
00000310: b757 b73e 6296 99bf 2e5a 58bf 07de 20bf
00000320: b882 48bf 2a6a a6bf fab1 eebe 9c7d 953e
00000330: 5c3b efbf bbd2 0fbf 7ba8 dfbe 4f63 59be
00000340: 5b83 16c0 f819 45bf f9e0 f63e fc8b 6fbf
00000350: 6361 f73d a391 b4be bff5 b0bd f2f5 eb3d
00000360: 3298 54bf 078c de3f 09ac 0abf b3a1 7cbf
00000370: 2aef 83bf 990e 87bf 28ed eebe f6fe 96bf
00000380: 7bfc 40be aa30 05bf 4c67 d4bf 65ac 81bf
00000390: 8648 06bf 93ac babf 0f4d 6cbf ab11 85bf
000003a0: 8757 823f 7099 b0bf a4e6 4ebd df99 49bf
000003b0: 6db9 9a3f f751 dfbf d6f5 17bf bb66 5cbf
000003c0: 34ae 8fbf 1092 2cbf 4de6 12c0 8f7e 0dbf
000003d0: 2033 5abf 0982 36bf 4085 41bf c804 3bbf
000003e0: cd11 d8bf dacf f1bf 118c b7be f035 15bf
000003f0: 4e61 b1bf ea9c a5be 8696 a7bf 966b 8ebf

weight f4 [256, 256]
0.38720062 -0.19583954 -0.70616376 -1.3463345 0.20315515 -0.46322018 -0.6968358 -0.18331541
-1.1661848 -0.2125579 0.04458197 -0.2782228 -0.26283535 0.022869494 -1.6960944 0.12817337
-0.10425053 -0.4323161 -1.1594615 -0.4745196 -0.15049742 -0.7057866 -2.2307563 -0.04842485
-1.4335829 -0.24281506 -0.84709966 -0.4560734 0.101393536 -0.16495472 -0.50832146 -0.3809949
-0.16924897 0.4760622 -0.7054437 0.0092617655 0.15547767 -1.9131383 -0.012064759 -0.7531769
-0.71670735 -0.445824 -0.16625914 -0.98696536 -0.5694441 0.051004734 -0.3446991 -0.426612
-0.053935 -0.80328375 -0.21546835 0.23045473 -0.38287386 0.28599438 -0.46865585 0.39943072
-0.33334082 0.16309659 -0.13647415 -0.47043616 -0.39636016 -0.4659497 -2.673967 -0.7953057
-0.7709955 -0.47469515 -0.18314306 0.13688813 -0.23987779 0.0075686425 -0.024399817 -0.7507535
-0.33581918 -0.41963148 -0.19514915 -0.48723206 0.5151339 -0.123839006 -0.4303982 -0.09118596
-0.10403911 -0.043454416 0.15209964 -0.30212563 -0.6181556 -0.19343545 -0.039178606 -0.7026232
0.23179604 0.50968015 0.008344445 -0.97918576 -0.4996043 -0.49796274 -0.68805283 -1.0528595
0.15563895 -0.50106657 -0.7440908 -0.7783609 -0.37602746 0.2614172 0.11254221 -1.2111143
-0.54746354 0.30476493 -1.2449437 -1.4788185 -0.123556614 0.13783187 -0.15818934 0.7534198
-0.6664569 -0.9105327 -0.69540006 -0.36685595 -0.4772264 -0.3564629 -0.32538262 -0.21053329
0.009266058 -0.20534466 -0.48824093 -0.5561523 -0.4355153 -1.2205819 -0.5350389 -0.1594223
-0.25849444 0.086672224 -0.9210046 -0.254042 -0.217985 -0.43065876 -1.6404966 -0.74893564
0.24982813 -0.13993748 0.00031294505 0.67717177 -0.6679021 -1.2029729 -0.99498355 -0.029369138
0.537857 -0.78382015 -0.11337844 -0.5143334 -0.65140235 -0.8172483 -0.09067844 0.300038
-0.2846086 -0.5663757 -0.3040183 -0.09769398 -0.23491469 -0.16115554 -0.3183777 -0.33599576
-0.19274227 -0.3764962 -0.31246537 -0.6755671 0.4219312 -1.0123736 0.3393336 -1.2528425
-0.83504194 -0.32452583 0.16902463 0.32735693 0.019832177 -0.5353958 -0.69846463 0.30041286
-0.14072715 -0.45973423 0.3152437 0.25277787 -0.3397333 -0.503501 -0.71197456 -0.6408807
0.40150407 -0.40563887 0.1797368 -0.9469232 -0.4306481 -0.8776379 0.18202966 -0.5205785
0.49286824 -0.37718877 -0.19465165 -1.1120173 0.2080252 0.12518872 0.51275903 -0.37611338
-0.903581 -0.21655813 0.05765178 -0.45294225 -0.599566 -0.12651233 -0.8870448 -0.8265875
-0.49468997 0.11677268 -0.16298398 0.058663733 -0.11005681 -0.07369185 -0.058404632 0.011578367
-0.653562 -1.2699574 -0.44847286 0.4379612 -0.45746264 -0.21782045 -0.3256699 -0.10643497
-0.118493594 0.25458503 -0.2992226 0.11558194 -0.318573 -0.21951967 -0.22421841 -0.080669835
-0.38860378 -0.5476976 -0.99701333 0.29411575 -0.655764 0.24555346 -0.062335193 -0.15302852
-0.87703913 -0.38542464 -0.9240938 0.052146807 -0.4514893 -0.8839544 -0.27416584 -0.20014717
-1.276506 -0.5813549 -0.24309209 -0.64470726 -0.31787193 0.014628063 0.027498247 -0.41773385
00000000: 293f c63e 298a 48be 26c7 34bf b054 acbf
00000010: e707 503e 322b edbe d563 32bf 09b7 3bbe
00000020: 8b45 95bf c7a8 59be 959b 363d 3873 8ebe
00000030: 5b92 86be ce58 bb3c 9f19 d9bf e13f 033e
00000040: 4d81 d5bd 8958 ddbe 3c69 94bf 3cf4 f2be
00000050: ff1b 1abe 6eae 34bf b6c4 0ec0 2359 46bd
00000060: a57f b7bf 83a4 78be 86db 58bf 7482 e9be
00000070: 6aa7 cf3d e4e9 28be 5b21 02bf c311 c3be
00000080: 9a4f 2dbe 6dbe f33e f597 34bf a9be 173c
00000090: 8a35 1f3e b7e1 f4bf 44ab 45bc 34d0 40bf
000000a0: 227a 37bf 0b43 e4be d63f 2abe c3a9 7cbf
000000b0: 17c7 11bf 57ea 503d 677c b0be e36c dabe
000000c0: f2ea 5cbd 01a4 4dbf bca3 5cbe 53fc 6b3e
000000d0: 0b08 c4be db6d 923e a9f3 efbe 2f82 cc3e
000000e0: a6ab aabe cb02 273e e1bf 0bbe 02dd f0be
000000f0: b8ef cabe f690 eebe 4622 2bc0 2899 4bbf
00000100: f65f 45bf 3e0b f3be db89 3bbe 672c 0c3e
00000110: 86a2 75be 6002 f83b 20e2 c7bc 6231 40bf
00000120: 7ef0 abbe f0d9 d6be 2ed5 47be 7b76 f9be
00000130: d1df 033f 4e9f fdbd 275d dcbe b4bf babd
00000140: 7512 d5bd 42fd 31bd 02c0 1b3e 36b0 9abe
00000150: 723f 1ebf f113 46be bf79 20bd 1ddf 33bf
00000160: f15b 6d3e 667a 023f 24b7 083c ebab 7abf
00000170: 23cc ffbe f9f4 febe 3b24 30bf 1ac4 86bf
00000180: d15f 1f3e e645 00bf bc7c 3ebf a942 47bf
00000190: ac86 c0be 7ad8 853e 887c e63d cb05 9bbf
000001a0: 9226 0cbf 260a 9c3e 515a 9fbf ed49 bdbf
000001b0: 400b fdbd cc23 0d3e 63fc 21be 1fe0 403f
000001c0: eb9c 2abf ac18 69bf bd05 32bf 8bd4 bbbe
000001d0: 0557 f4be 4e82 b6be 8d98 a6be 0a96 57be
000001e0: aad0 173c df45 52be b7fa f9be ff5f 0ebf
000001f0: ddfb debe 073c 9cbf 4ff8 08bf 993f 23be
00000200: 6259 84be 3581 b13d f5c6 6bbf cb11 82be
00000210: 7637 5fbe 4e7f dcbe cbfb d1bf 3fba 3fbf
00000220: f2d2 7f3e c54b 0fbe c612 a439 215b 2d3f
00000230: a2fb 2abf 04fb 99bf 3eb7 7ebf 8c97 f0bc
00000240: ffb0 093f 70a8 48bf f532 e8bd 5bab 03bf
00000250: 4ec2 26bf 2f37 51bf 9eb5 b9bd 959e 993e
00000260: 38b8 91be fffd 10bf 49a8 9bbe c813 c8bd
00000270: 7a8d 70be f505 25be 6702 a3be a307 acbe
00000280: 3b5e 45be 1cc4 c0be 76fb 9fbe f7f1 2cbf
00000290: 5e07 d83e 7595 81bf 22bd ad3e 255d a0bf
000002a0: 4fc5 55bf 4028 a6be cb14 2d3e 549b a73e
000002b0: 1777 a23c b30f 09bf 94ce 32bf b7cf 993e
000002c0: c71a 10be 4962 ebbe 9f67 a13e 1a6c 813e
000002d0: 86f1 adbe 71e5 00bf f743 36bf c210 24bf
000002e0: f191 cd3e e6af cfbe ec0c 383e 8f69 72bf
000002f0: e87d dcbe e1ac 60bf fc65 3a3e a244 05bf
00000300: 3a59 fc3e e31e c1be c352 47be 9556 8ebf
00000310: 8f04 553e 7931 003e 2d44 033f ef91 c0be
00000320: 1651 67bf 6ac1 5dbe 4624 6c3d 0ce8 e7be
00000330: 287d 19bf 738c 01be 5e15 63bf 3d9b 53bf
00000340: 0148 fdbe 8426 ef3d 46e5 26be 6249 703d
00000350: 7765 e1bd c1eb 96bd b239 6fbd 31b3 3d3c
00000360: d74f 27bf f78d a2bf 3c9e e5be 733c e03e
00000370: 8b38 eabe 530c 5fbe 35be a6be 94fa d9bd
00000380: c5ac f2bd f858 823e b433 99be 39b6 ec3d
00000390: 001c a3be c4c9 60be 8399 65be 3a36 a5bd
000003a0: 13f7 c6be e935 0cbf 443c 7fbf 5796 963e
000003b0: 26e0 27bf 5e72 7b3e 3053 7fbd 82b3 1cbe
000003c0: a385 60bf 6156 c5be 6991 6cbf e497 553d
000003d0: 9b29 e7be d64a 62bf 775f 8cbe 61f3 4cbe
000003e0: 8c64 a3bf add3 14bf 22ed 78be 890b 25bf
000003f0: 1cc0 a2be 8baa 6f3c 0144 e13c 36e1 d5be

bias f4 [256]
-0.101445556 -0.63855445 -0.74198085 -1.6482524 -0.07946727 -0.57422924 -0.58357626 0.8876321
-1.1896857 0.64649326 -0.402052 -0.051745728 0.00761484 -0.93566585 -1.7244943 -1.3072215
-0.38449758 -0.72948116 0.48977655 -0.33328176 -1.1389786 -1.9793155 -0.6364311 -0.12473159
-1.0762588 -0.32922998 -1.4934276 -1.1157268 -0.5278395 -1.484344 -0.6128877 1.2504828
-0.66250426 1.6963888 -0.8559134 1.4398587 -0.24422227 -0.6086544 -0.27575442 -1.0617156
1.2238848 0.039770596 1.7430694 -1.79283 -0.77011883 -0.12940685 -1.8904626 0.46478707
-1.0160567 0.19016673 -0.43437433 -0.1768843 0.16319573 -0.5315171 0.621922 -0.6741987
-1.1454924 -1.41796 -0.34189662 -1.0242163 -0.13780904 -1.0081346 -1.1310378 -0.29268354
0.27738297 -0.022840397 -0.75115865 -0.41430023 -1.0203861 -0.33368838 -0.69021815 -0.0556058
-0.6745744 -0.35542476 -0.9821082 -1.1265252 -0.5973337 -1.7807757 0.10328548 -1.1193196
1.0880495 -1.0539281 -1.8701769 -0.16485938 -2.4186559 -0.16723642 -0.3675723 -0.13345751
-1.3671156 -0.73203266 -0.19459902 -0.6387338 -0.9812917 -1.4711847 -1.8220955 -0.5323097
-1.5463156 -1.1124973 -1.3615364 -0.9286462 -1.7449071 -2.1504798 -0.065542385 0.2419635
1.3649949 -0.23495343 0.0076052565 -0.09103071 -0.07656364 -2.2345831 -2.8010616 -1.6965231
-0.4715195 -0.41454524 -0.15346138 -0.661612 0.40703002 1.2285501 0.9541388 -0.29792693
-1.2059721 2.6029027 0.079515375 0.31815058 -0.64189905 -1.3258634 -0.9867056 -0.5213272
0.1933998 -1.0513921 -0.49436694 -1.0166011 -0.08597276 0.7171109 -0.87506294 -0.43876624
-0.37322903 0.34876287 -0.17998068 -0.264146 0.54747075 0.31145385 -0.32956108 -0.095971264
-0.029832197 -0.11679718 -2.2525396 -3.0624151 -1.2042418 0.56225437 -0.9384609 0.09995192
-0.21211745 -1.8958672 0.11689363 -0.5361594 -0.12224801 -0.6878018 -0.42200816 -1.6272016
-0.42055634 -2.3377345 -0.6846995 -0.15834558 -0.9809454 -0.1799922 -0.50383955 1.2825294
0.8386457 -0.16230747 -0.89914256 -0.06135712 -0.8542151 -1.153716 -2.2081041 -0.5428821
-0.9565311 -1.0593729 -0.07119887 -0.78969324 -0.21816212 -0.114125945 -0.77916604 -0.6947901
-0.6699453 -0.55045325 -0.51381105 -1.3724804 -0.529787 -0.7080707 0.31312388 -1.7892916
-1.3588562 0.08919675 -1.0956358 -0.6357917 -0.9845811 -0.4372302 -0.5925045 0.18422508
-3.442423 -0.87117076 1.0446877 0.10752421 -0.48630863 -0.49188727 -1.127953 -0.92253226
-0.5152015 0.98856753 -0.11223193 -0.91008824 -0.8122506 0.2318822 0.5131533 -0.5779302
-0.27950585 0.3413425 -0.82152265 -0.13191219 0.88128537 1.290224 -0.07820141 -1.4282357
-1.0787891 -1.1846675 -0.89969134 -1.274997 -0.4385741 -1.6911119 -0.13504878 -0.26182738
-0.78431416 -0.49817294 0.2824847 1.4791956 -0.5004691 1.0128754 -1.3639452 -0.26057804
-0.54052013 0.12233355 -0.3463855 0.95337063 -0.1147863 -0.7984134 -0.9995552 -0.77932477
-0.5583081 0.84258413 -0.7685803 -1.2341963 -1.0466591 -0.6983699 -0.520819 -0.77639943
00000000: b0c2 cfbd 4e78 23bf 75f2 3dbf eff9 d2bf
00000010: bcbf a2bd b000 13bf 4165 15bf db3b 633f
00000020: 9f47 98bf 9580 253f c2d9 cdbe 54f3 53bd
00000030: e885 f93b cc87 6fbf 3bbc dcbf 0953 a7bf
00000040: dedc c4be 47bf 3abf fec3 fa3e e8a3 aabe
00000050: 0dca 91bf 365a fdbf 26ed 22bf 4773 ffbd
00000060: d9c2 89bf d590 a8be a328 bfbf 23d0 8ebf
00000070: 7d20 07bf fcfe bdbf 35e6 1cbf d20f a03f
00000080: e199 29bf 4523 d93f 241d 5bbf 4a4d b83f
00000090: 6715 7abe c6d0 1bbf af2f 8dbe 4ce6 87bf
000000a0: 42a8 9c3f 7ee6 223d e61c df3f 747b e5bf
000000b0: 8226 45bf 3b83 04be aefa f1bf 92f8 ed3e
000000c0: 250e 82bf 11bb 423e 5066 debe 2821 35be
000000d0: c81c 273e 8111 08bf 4836 1f3f 4998 2cbf
000000e0: 7f9f 92bf b77f b5bf 130d afbe 8519 83bf
000000f0: d01d 0dbe 8e0a 81bf d9c5 90bf 9eda 95be
00000100: 2405 8e3e c91b bbbc ef4b 40bf 291f d4be
00000110: 039c 82bf 34d9 aabe 23b2 30bf e8c2 63bd
00000120: e8b0 2cbf 3cfa b5be 716b 7bbf fa31 90bf
00000130: ddea 18bf 75f0 e3bf 5687 d33d dd45 8fbf
00000140: 3545 8b3f 1ee7 86bf f561 efbf e6d0 28be
00000150: 42cb 1ac0 0640 2bbe 7032 bcbe 16a9 08be
00000160: a5fd aebf 7e66 3bbf f744 47be 0f84 23bf
00000170: ef35 7bbf c84f bcbf 6d3a e9bf 7345 08bf
00000180: abed c5bf 5066 8ebf d346 aebf c2bb 6dbf
00000190: 1e59 dfbf 76a1 09c0 163b 86bd 48c5 773e
000001a0: 27b8 ae3f a297 70be 8435 f93b 4f6e babd
000001b0: 66cd 9cbd 6903 0fc0 9844 33c0 ab27 d9bf
000001c0: 016b f1be 463f d4be fb24 1dbe 675f 29bf
000001d0: 3d66 d03e 2141 9d3f 7142 743f e189 98be
000001e0: 4b5d 9abf f595 2640 f5d8 a23d a2e4 a23e
000001f0: 7f53 24bf e4b5 a9bf bd98 7cbf b375 05bf
00000200: 990a 463e 0494 86bf aa1d fdbe fc1f 82bf
00000210: 7d12 b0bd 9494 373f 2004 60bf f8a5 e0be
00000220: e017 bfbe 0c91 b23e db4c 38be 253e 87be
00000230: 0b27 0c3f e176 9f3e 3bbc a8be 958c c4bd
00000240: a762 f4bc 5c33 efbd 9c29 10c0 9cfe 43c0
00000250: 9824 9abf e7ef 0f3f f93e 70bf 98b3 cc3d
00000260: 5135 59be c7ab f2bf ed65 ef3d be41 09bf
00000270: 2a5d fabd c713 30bf 7411 d8be 2448 d0bf
00000280: 2953 d7be 719d 15c0 7748 2fbf 5825 22be
00000290: 3d1f 7bbf e04f 38be a1fb 00bf ec29 a43f
000002a0: 7cb1 563f ee33 26be 352e 66bf 9a51 7bbd
000002b0: d7ad 5abf f7ac 93bf 9451 0dc0 52fa 0abf
000002c0: 39df 74bf 8899 87bf b7d0 91bd 5629 4abf
000002d0: e465 5fbe ddba e9bd 6d77 47bf c4dd 31bf
000002e0: 8981 2bbf 81ea 0cbf 1f89 03bf 70ad afbf
000002f0: 1fa0 07bf 1f44 35bf c651 a03e 8207 e5bf
00000300: 00ef adbf c9ac b63d cb3d 8cbf 3fc3 22bf
00000310: 820d 7cbf a3dc dfbe 60ae 17bf 80a5 3c3e
00000320: a950 5cc0 0c05 5fbf 54b8 853f a735 dc3d
00000330: 72fd f8be a6d8 fbbe c460 90bf 132b 6cbf
00000340: 3fe4 03bf c312 7d3f dbd9 e5bd 8bfb 68bf
00000350: a8ef 4fbf 8772 6d3e 045e 033f 3cf3 13bf
00000360: 641b 8fbe 72c4 ae3e 4f4f 52bf fd13 07be
00000370: eb9b 613f 0f26 a53f 1028 a0bd 6dd0 b6bf
00000380: c315 8abf 2fa3 97bf 2c52 66bf 1a33 a3bf
00000390: c98c e0be 5b76 d8bf 3a4a 0abe 3d0e 86be
000003a0: d0c8 48bf 8610 ffbe d6a1 903e 4856 bd3f
000003b0: be1e 00bf e7a5 813f c295 aebf 7c6a 85be
000003c0: 875f 0abf 038a fa3d 7159 b1be 1910 743f
000003d0: 1415 ebbd d264 4cbf d9e2 7fbf d481 47bf
000003e0: 48ed 0ebf 98b3 573f aec1 44bf 25fa 9dbf
000003f0: edf8 85bf 5fc8 32bf 6554 05bf 1dc2 46bf

weight f4 [8, 256]
-2.240143 0.038264263 0.109560564 0.021806296 -0.06899538 -0.1587442 -0.21453187 -0.5226845
0.19452058 0.061546005 -2.0890303 -0.011072001 0.023264641 -0.3478607 -1.4528543 0.4256829
-0.031143205 -0.5940764 0.863003 0.11363522 0.109027885 0.5059428 -1.5279609 0.52518594
-0.6087287 0.2187746 0.63619727 -0.23821074 -0.11913248 -0.24499637 -0.12175023 -0.073697716
-0.5531671 0.12886505 0.10562372 0.052328955 -0.083952434 -0.019674264 -2.05004 -0.7429263
0.07894875 0.4762034 0.035766773 -2.7239761 -0.013595586 2.520845 0.0815473 -0.054895937
-0.7432598 0.01627129 -0.058567595 0.80686593 -0.0518952 0.08489891 -0.044076256 0.008410484
-0.35156256 1.0939598 -0.041888475 1.252123 0.096137 -0.10548035 0.17962117 -0.03833919
0.14724725 0.10444394 -0.2700592 0.014568467 -0.43423957 0.06261443 0.26833737 -0.22293408
0.4997082 0.08208955 -0.12852387 -0.21911095 -0.08883626 -0.086670354 -0.0074711074 0.00025978783
0.1529234 -0.16581029 0.1951281 0.030561335 0.23278524 -0.05455125 0.0702981 0.04513851
0.02689442 0.10247395 0.51351833 -1.0122844 -0.19167109 0.057898622 0.77566665 0.17723258
0.21818037 -0.15643999 0.06179196 0.0055208993 -0.08667221 -0.97763664 -0.037477747 -0.012673819
0.006237419 -0.20508061 0.62972003 -0.002488938 -0.005945739 0.008932101 -0.0081193065 0.5211146
-0.033355106 2.57583 -0.15318301 -0.9226853 -0.6268292 0.0030858205 0.09250537 -0.053681053
0.0021084386 0.030205525 -0.0019138954 -0.29209292 -0.17048474 -1.1341286 -3.531455 0.0867736
-0.1909083 -0.035046253 -0.4114498 0.07843305 -0.0017371612 0.05836162 -0.03821103 0.14310013
-0.5143001 -0.81149095 -0.0088325385 0.061409634 -0.037855107 -0.012635756 0.28187993 0.018710444
0.012540734 -0.034617014 -0.00017517255 -0.27978954 -0.4954927 0.031131482 0.07387342 -0.022761723
0.34064806 0.22818215 0.34145078 0.17601645 -0.06428038 -0.4055864 1.4792249 -0.14351107
0.1214794 0.68869674 1.4814558 0.19577108 -0.40101725 0.036723275 -1.5274543 0.13779412
0.32334512 0.27060932 -0.40690464 -0.06359294 -0.031409364 0.06715601 1.0052098 -0.011927612
-0.10597728 -0.09138402 0.001019208 0.041330196 -0.060188975 2.507198 0.022627363 -0.33672646
-0.48637193 0.5809602 0.93550706 0.09390873 0.21175086 0.8162288 0.58215606 0.04555438
1.1721718 0.18914656 -0.17151794 -0.030505665 -0.71407694 -0.063186005 0.41123343 2.133092
-0.080314115 -0.92801744 -0.07631787 -0.18121746 0.09485367 -0.05519621 0.020341644 -0.038196933
-0.38471952 -0.010005971 0.0043929615 -0.0016527842 -0.31939858 0.02401204 -0.011878183 0.2627219
-0.15691692 -0.010141446 -0.18657239 -0.024009326 -0.064768 0.047828976 -0.66951406 -0.28839317
-0.21206836 -0.061132263 0.44707322 -0.11553206 2.0452557 -0.30803227 -0.038353007 -0.05748139
0.15464252 0.029353378 -0.106800124 -0.008074068 0.033206385 -0.01699099 -0.11713533 0.054492522
0.28386608 0.029097978 0.057959367 0.012752914 -0.26765862 0.71834356 -0.10109372 -0.17022017
-0.11617146 0.132061 -0.08920481 0.09592212 -0.18489891 0.3725293 -0.0889492 -0.07091021
00000000: 815e 0fc0 fdba 1c3d 4a61 e03d 1ea3 b23c
00000010: 734d 8dbd d78d 22be 3eae 5bbe a7ce 05bf
00000020: 6730 473e aa17 7c3d acb2 05c0 5767 35bc
00000030: 7d95 be3c cc1a b2be 21f7 b9bf 1cf3 d93e
00000040: 0920 ffbc 6415 18bf c4ed 5c3f 95b9 e83d
00000050: 034a df3d 7885 013f 3994 c3bf 9672 063f
00000060: a5d5 1bbf 7306 603e d3dd 223f 84ed 73be
00000070: bbfb f3bd 54e0 7abe 2f58 f9bd d4ee 96bd
00000080: 5c9c 0dbf 33f5 033e 4051 d83d e356 563d
00000090: 41ef abbd ec2b a1bc db33 03c0 6b30 3ebf
000000a0: e2af a13d efd0 f33e 2e80 123d a055 2ec0
000000b0: 05c0 5ebc 8655 2140 4502 a73d 90da 60bd
000000c0: 4646 3ebf 5e4b 853c 93e4 6fbd c48e 4e3f
000000d0: 1090 54bd 7bdf ad3d 4e89 34bd 20cc 093c
000000e0: 0200 b4be e006 8c3f 4093 2bbd 9145 a03f
000000f0: 7ae3 c43d 1506 d8bd 9dee 373e 8e09 1dbd
00000100: fcc7 163e b4e6 d53d 3345 8abe 94b0 6e3c
00000110: a654 debe ff3b 803d 8463 893e d548 64be
00000120: c1d9 ff3e 911e a83d c39b 03be 9f5e 60be
00000130: c9ef b5bd 3a80 b1bd 31d0 f4bb 2234 8839
00000140: f497 1c3e 2cca 29be a9cf 473e c45b fa3c
00000150: 415f 6e3e 2271 5fbd 73f8 8f3d 29e3 383d
00000160: b051 dc3c dddd d13d f075 033f 8992 81bf
00000170: 6d45 44be 1b27 6d3d 1792 463f 757c 353e
00000180: ad6a 5f3e ce31 20be 9119 7d3d a9e8 b43b
00000190: 3381 b1bd 6546 7abf 4482 19bd daa5 4fbc
000001a0: 4363 cc3b a700 52be 5535 213f 731d 23bb
000001b0: 79d4 c2bb f257 123c d706 05bc c467 053f
000001c0: 5d9f 08bd 66da 2440 02dc 1cbe 1b35 6cbf
000001d0: e177 20bf 7a3b 4a3b 7573 bd3d aae0 5bbd
000001e0: bb2d 0a3b 9471 f73c acdb faba 348d 95be
000001f0: 8d93 2ebe 202b 91bf 5c03 62c0 5bb6 b13d
00000200: 777d 43be a98c 0fbd 8ca9 d2be 82a1 a03d
00000210: 75b1 e3ba 980c 6f3d 2b83 1cbd d788 123e
00000220: 2ca9 03bf dfbd 4fbf 5ab6 10bc ab88 7b3d
00000230: f50d 1bbd 3406 4fbc 9152 903e a546 993c
00000240: a777 4d3c 92ca 0dbd 86ae 37b9 9340 8fbe
00000250: 38b1 fdbe 7307 ff3c f34a 973d cb76 babc
00000260: 6c69 ae3e 95a8 693e a3d2 ae3e a83d 343e
00000270: 6fa5 83bd 05a9 cfbe 3e57 bd3f 91f4 12be
00000280: 31ca f83d 6e4e 303f 58a0 bd3f 3778 483e
00000290: 2252 cdbe 256b 163d 9f83 c3bf e719 0d3e
000002a0: 7e8d a53e 4e8d 8a3e ce55 d0be 043d 82bd
000002b0: 1ba7 00bd 1789 893d b7aa 803f 086c 43bc
000002c0: 9e0a d9bd 8c27 bbbd f296 853a da49 293d
000002d0: b788 76bd ef75 2040 055d b93c 6967 acbe
000002e0: be05 f9be cfb9 143f 647d 6f3f 3853 c03d
000002f0: 38d5 583e 5ff4 503f 2e08 153f 3b97 3a3d
00000300: ba09 963f a3af 413e 66a2 2fbe 04e7 f9bc
00000310: bfcd 36bf aa67 81bd 308d d23e 9484 0840
00000320: ba7b a4bd 8d92 6dbf 8b4c 9cbd 1291 39be
00000330: a442 c23d 6c15 62bd 85a3 a63c 6374 1cbd
00000340: f5f9 c4be 16f0 23bc d5f2 8f3b 3ca2 d8ba
00000350: 3688 a3be e6b4 c43c b69c 42bc 7c83 863e
00000360: d4ae 20be 4f28 26bc d50c 3fbe 35af c4bc
00000370: 16a5 84bd 51e8 433d 4665 2bbf 45a8 93be
00000380: 7328 59be d365 7abd c8e6 e43e 139c ecbd
00000390: 78e5 0240 68b6 9dbe 0b18 1dbd 9b71 6bbd
000003a0: 9c5a 1e3e 7f76 f03c 06ba dabd 1949 04bc
000003b0: 6b03 083d b030 8bbc a6e4 efbd 8d33 5f3d
000003c0: e556 913e e25e ee3c cd66 6d3d 99f1 503c
000003d0: 8d0a 89be 5de5 373f 390a cfbd 324e 2ebe
000003e0: 4deb edbd 003b 073e 03b1 b6bd d172 c43d
000003f0: 2456 3dbe 29bc be3e 002b b6bd 5f39 91bd

bias f4 [8]
-1.1876296 0.48153132 0.37018988 0.18032378 0.09265347 -0.29307812 -0.9696263 0.007804275
00000000: 3f04 98bf 468b f63e 8789 bd3e cca6 383e
00000010: 1ac1 bd3d 560e 96be 6e39 78bf 01bb ff3b
