runs/AntRandom-v5_td3_1_state_1752946007/best_policy.pt (torch, 384069 bytes, 6 tensors)

weight f4 [256, 105]
000000 76 14 d2 bd ea 5c cc bf 8d 35 23 3f 69 1e 87 c0
       -0.10257809 -1.5965855 0.63753587 -4.222462
000010 a9 fc 39 c0 ee 72 13 c0 07 75 96 bf 4e 83 cf bf
       -2.9060462 -2.3038898 -1.1754464 -1.6211946
000020 40 ae e0 3d fc 40 02 c0 6c da db be 47 9b 30 40
       0.109707355 -2.0352163 -0.4294008 2.7594774
000030 f7 1a 4e 3f bd 19 0d c0 b3 44 81 3f 10 85 2a 3e
       0.80509895 -2.204696 1.009909 0.16652322
000040 aa bf 29 3f 55 f7 00 bf 77 21 05 bf 1e 6a ff 3d
       0.6630808 -0.503774 -0.5200419 0.12471412
000050 26 7a 2b 3e 88 0f a4 bc ef 14 13 3f 23 ff ad 3e
       0.16745815 -0.020026937 0.5745382 0.33983716
000060 45 35 23 bd ad 8f 0a bf e8 81 a9 3c b6 66 da bd
       -0.039845724 -0.5412548 0.020691827 -0.10664122
000070 06 f8 c9 bf 4a 8b 28 3c a4 29 29 3f 39 8e 3a 3f
       -1.5778816 0.010287115 0.66079164 0.72873265
000080 f0 2c 63 c0 74 24 6a 3f a2 26 69 3f 5f da 74 3f
       -3.5496178 0.91461873 0.91074574 0.9564571
000090 e6 6b 8b 3f ca bd 7c 3f 08 cc 85 3f 8d cc 34 c0
       1.0892303 0.98727095 1.045289 -2.8249848
0000a0 d5 57 21 bf 73 3c c2 be a9 4a c8 3e ed 56 e8 bf
       -0.63024646 -0.37936744 0.3911946 -1.8151528
0000b0 18 f5 c7 3e c6 a5 7a 3e 47 5f 77 3f da 20 1a be
       0.3905418 0.244773 0.96629757 -0.15051594
0000c0 23 19 06 40 e3 86 04 3f 45 65 98 3e db fd 74 3f
       2.0952842 0.5176832 0.29764763 0.9569985
0000d0 b3 3a 87 3f 4b d4 7a 3f 12 e5 8c 3f e0 76 8a 3f
       1.0564789 0.97980183 1.1007407 1.0817528
0000e0 7a bb 7f 3f 84 f9 98 3f ad de b3 3e ed 27 96 3f
       0.9989544 1.1951146 0.35130826 1.1730934
0000f0 65 61 3a 3f 45 74 8d be 51 fa 01 c0 ff 93 89 bf
       0.7280486 -0.2762777 -2.030903 -1.074829
000100 ca 3f 0b 3e 5e fd a2 3e 18 44 d1 3e e4 37 07 3e
       0.13598552 0.3183393 0.40872264 0.13204914
000110 ad 2a f8 3c 44 2d 6f 3f 11 3f 87 3f 19 0b 7b 3f
       0.030293787 0.93428445 1.0566121 0.9806381
000120 7b 8d 86 3f d2 29 81 3f 5d 8d 84 3f 31 1e cf 3f
       1.0511926 1.0090888 1.0355641 1.6181089
000130 ed 33 0c 3f 22 10 67 3f 65 49 01 c0 30 17 bd bf
       0.5476673 0.9025899 -2.0201046 -1.4772701
000140 8d fe 2a bf e5 00 38 3f b6 4f 35 3f a3 ac b9 3e
       -0.66794664 0.71876365 0.70824754 0.36264524
000150 65 4b 43 bf 1b 4a 70 bf 5f f3 c2 bf c4 8a 89 3f
       -0.7628692 -0.93863076 -1.5230521 1.0745473
000160 96 32 7d 3f 1c 7a 87 3f 67 77 84 3f c3 2b 6e 3f
       0.98905313 1.058414 1.0348939 0.93035525
000170 c6 f5 82 3f 68 12 61 bf 47 47 c5 bf 81 e2 aa 3f
       1.0231254 -0.8791871 -1.5412377 1.3350374
000180 d1 6a c6 3e d0 96 82 bf 03 0d db 3e e2 66 67 be
       0.3875337 -1.0202274 0.42783365 -0.2259784
000190 b3 36 ba 3c 1b 6f 2e 3e 75 4c 95 3e 09 88 34 bf
       0.02273116 0.17034571 0.29159895 -0.70520073
0001a0 0f 33 81 bf 33 54 89 3e 3c fd bd bf 7c 89 d2 c0
       -1.0093707 0.2682205 -1.4842906 -6.5792828
0001b0 ff 5e 60 40 8e 93 da 3f 6e 9f df bf c0 9d 88 3f
       3.505798 1.707628 -1.7470529 1.0673141
0001c0 8f c2 b9 3d 2a f1 77 3e 76 e7 d8 be 7f 32 1d be
       0.09070312 0.2421309 -0.4236409 -0.15351294
0001d0 d9 1e 04 3e 84 a7 e9 3e 5c fc ea be e5 9b 79 3e
       0.12902392 0.45635617 -0.4589566 0.24375875
0001e0 dd 31 0b 40 86 1a a0 bf 24 f2 25 bf 0d a1 3f 3f
       2.1749184 -1.2508094 -0.648226 0.7485512
0001f0 f1 cf f8 3d 6a cb 3f 3e 63 f7 82 3d 65 99 16 be
       0.12149037 0.1872994 0.063948415 -0.14706953
000200 a5 c5 32 3d 53 c7 93 3c 62 70 27 3e a6 2c 20 be
       0.04364552 0.018039381 0.16351464 -0.15642032
000210 df 8f 93 bf ba f2 60 c0 be b5 5d 3f eb 3a 24 c0
       -1.1528281 -3.5148149 0.8660544 -2.566096
000220 0e 65 2f 3f c1 23 1f bf a7 e0 0b 3f 34 fb 07 3f
       0.6851357 -0.6216393 0.5463967 0.5311768
000230 6b 83 11 3f bd 0c 1a 3f fa a5 0d 3f 59 19 26 3f
       0.5684115 0.6017569 0.55331385 0.6488243
000240 93 99 a3 3e 3a 85 03 c0 e8 6d 6e bf d3 81 43 3f
       0.31953105 -2.0550065 -0.93136454 0.7636997
000250 ee 5f 00 40 77 a9 13 bf e0 7f f9 bd 40 24 25 3f
       2.005855 -0.5768046 -0.12182593 0.6450844
000260 89 b5 0c bf 76 2a 45 be 83 16 5c 3e b9 f8 0f 3e
       -0.549645 -0.19254479 0.21492963 0.14059724
000270 a8 5d 0e 3f 8c 46 12 3f 5b b8 2e 3f e5 cb 14 3f
       0.5561166 0.57138896 0.68250054 0.5812362
000280 ce 4a 0a 3f 11 92 26 3f 36 e5 d2 bf be 12 96 bf
       0.5402039 0.6506663 -1.64762 -1.172447
000290 56 d5 b2 3f 97 3c 12 40 b2 92 3f 3f 22 2a 9d 3e
       1.3971355 2.284948 0.74833214 0.30696207
0002a0 f6 e3 ff be 14 ed 79 bf b8 84 91 3f 9c 87 ab 3e
       -0.49978608 -0.9762738 1.1368628 0.335019
0002b0 4c 87 28 3f 40 15 d5 bf 34 e5 35 3f e9 4e 35 3f
       0.65831447 -1.664711 0.7105286 0.7082353
0002c0 4e ff 2d 3f 3c c1 1d 3f 9f ad 0b 3f 7a 7b 30 3f
       0.6796769 0.6162298 0.545618 0.6893841
0002d0 21 f7 87 3e ba 50 c8 3f 68 2e 80 3f cc 4d 06 3f
       0.26555732 1.5649636 1.0014162 0.5246246
0002e0 44 7a 4c 3f a7 d3 25 c0 09 43 e0 be af e7 be bf
       0.7987406 -2.5910432 -0.43801144 -1.4914454
0002f0 ca 2b b4 be 2e 5c ba be b9 58 7c 3d e5 2a ae be
       -0.35189658 -0.36398453 0.06160805 -0.340171
000300 36 3a 11 3f d7 5f 1e 3f 06 0b 2f 3f 43 63 0b 3f
       0.5672945 0.6186499 0.68376195 0.54448336
000310 be b0 28 3f 16 02 2d 3f 0c 92 3d 3f 55 b0 8f 3f
       0.6589469 0.6758131 0.74050975 1.1225687
000320 1d 08 1b bf 08 b8 04 bf 67 85 8b be 66 7e 94 bf
       -0.60559255 -0.5184331 -0.27250215 -1.1601074
000330 b4 83 d8 3f e9 18 c6 bd e6 c5 b1 3f fc 96 b9 3f
       1.6915193 -0.0967272 1.3888519 1.4499202
000340 cd e4 2b 3f 8d bf a8 bf d2 a0 64 bf af ea 43 3f
       0.67146 -1.3183457 -0.8930789 0.76529974
000350 ad 45 3d be 6a cd ed 40 4d 7d 80 3f e0 30 02 bf
       -0.1848361 7.431325 1.0038239 -0.5085583
000360 57 ae 23 3f 3a 3f c8 3f 10 5b 7a 3f 39 2d b4 bf
       0.63937896 1.5644295 0.977952 -1.4076301
000370 6b f1 8b 3f d3 75 87 3e 6c bf 78 bf a9 22 ee bf
       1.093305 0.2645708 -0.97167087 -1.8604327
000380 d7 5b 29 3f dc df 86 bd df 31 e9 be 37 82 4a 3e
       0.6615576 -0.065856665 -0.4554586 0.19776236
000390 f3 62 e8 bd df ab 42 3e 13 70 90 3e 25 34 ba 3e
       -0.11346998 0.19010876 0.28210506 0.36367908
0003a0 70 93 ca 3e 7c c2 b8 bd 03 c9 66 3e 8b 51 05 3d
       0.3956561 -0.0902147 0.22537617 0.03254847
0003b0 a7 e5 74 be 29 17 c4 bf 3a de 0c 40 0e 0d c7 bf
       -0.2391573 -1.5319568 2.2010636 -1.5550859
0003c0 5a aa 3e 3f 30 af d2 3f 29 e0 de be 95 b6 0d 3f
       0.74478686 1.6459713 -0.43530396 0.55356723
0003d0 ce c4 01 3f 14 02 0f 3f b6 e8 ed 3e 6c 8e f9 3e
       0.50690925 0.55862546 0.46466607 0.48741472
0003e0 41 9c fb 3e c0 70 e2 3e d4 77 bc 3f e5 bf 65 3e
       0.4914265 0.44226646 1.4724069 0.22436483
0003f0 fb 63 00 3f 36 f1 b8 bf ec 86 99 3e e2 ef 29 bf
       0.5015256 -1.4448612 0.2998575 -0.6638166

bias f4 [256]
000000 46 81 e1 bf ac 7f ff bf f2 4a bc bf 47 1b c5 bd
       -1.7617576 -1.9960837 -1.4710371 -0.09624343
000010 e8 f6 02 be 5d fc bc bf ea 0c 0a c0 e5 e7 a8 bf
       -0.127895 -1.4764515 -2.1570382 -1.3195769
000020 fb fb 0f 3f 6a 39 92 bd 8f bf df bf 24 fe 89 bf
       0.56243867 -0.07139857 -1.7480334 -1.0780683
000030 69 53 13 be 6e f7 82 bf cd d3 88 bf fa cc ef bf
       -0.14387287 -1.023176 -1.0689636 -1.8734429
000040 06 a1 f4 bd a8 4f 45 bf 56 d1 b4 3d b7 24 0c 3d
       -0.11944775 -0.7707467 0.0882899 0.0342147
000050 d4 b2 12 c0 b3 e0 9c bf 19 62 54 3f b3 b9 5b bf
       -2.2921648 -1.2256073 0.82962185 -0.8583023
000060 05 fb 8d bf fa 04 4e bf 21 64 0d c0 a1 39 e6 bf
       -1.109223 -0.80476344 -2.2092364 -1.7986337
000070 e0 70 59 bf d3 f6 0c bf 7c c0 5e bf 36 f3 b4 bf
       -0.8493786 -0.55064124 -0.8701246 -1.4136722
000080 97 7e 42 c0 d0 a9 04 c0 c3 df a3 be 3d b3 f2 be
       -3.0389764 -2.0728645 -0.32006654 -0.47402373
000090 5b 43 23 c0 aa fd 70 be c2 25 af bf 87 44 9a bf
       -2.550986 -0.23534265 -1.3683398 -1.2052163
0000a0 37 11 32 bf ee 9f f8 bf 15 73 d8 3d d5 a4 0c c0
       -0.6955752 -1.9423807 0.10568825 -2.1975605
0000b0 35 f0 dc be 62 9e 31 bf 58 17 49 3f b6 bb 2b bf
       -0.43152013 -0.693823 0.78551245 -0.670833
0000c0 b8 5d ac bf 94 61 d2 bd 29 3f 24 3e 28 20 8c bf
       -1.3466101 -0.10272518 0.16039719 -1.0947313
0000d0 43 6a 6d 3e 0f 8f 86 be f6 e6 ad bf d1 64 6d 3f
       0.23185067 -0.2628102 -1.3586109 0.9273196
0000e0 64 33 c5 bf a1 52 50 c0 b4 9f b3 bd d9 06 8b 3e
       -1.5406308 -3.2550433 -0.08770695 0.27153662
0000f0 f7 e0 5b bf d8 3e ea be 34 14 f4 bf ae 02 55 bf
       -0.85890144 -0.4575107 -1.9068666 -0.83207214
000100 1f 52 e9 bc 42 6f 30 be 87 46 86 3f ff 10 90 bf
       -0.028481541 -0.17229941 1.0490273 -1.1255187
000110 2a 70 74 bf c8 61 bb 3e 13 21 a1 bf 81 26 17 be
       -0.9548365 0.3659804 -1.2588218 -0.14760782
000120 b9 1b da bf 19 de bb bf 77 28 09 bf ee c4 89 bf
       -1.703971 -1.4677154 -0.5357737 -1.0763223
000130 b2 68 8e bf a5 d6 b7 3d f1 aa d2 be 94 8f 69 bf
       -1.11257 0.08976487 -0.41146043 -0.9123471
000140 ad d8 82 3e 09 6f f8 bf a6 0a 05 c0 fc 2a 1c c0
       0.25555936 -1.9408885 -2.078775 -2.4401236
000150 43 a5 ad be 57 8a 6a bf bf 57 1d 3f d0 9c 6a bf
       -0.33915147 -0.9161734 0.61462015 -0.91645527
000160 52 81 ad bf 3a 09 17 bf 7f 09 60 bf 6f e3 a9 bf
       -1.355509 -0.58998454 -0.8751449 -1.3272532
000170 0e 43 e5 bf db 1c 6e be 37 f0 00 c0 59 83 08 bf
       -1.7911088 -0.23253195 -2.0146616 -0.5332542
000180 d1 7c 27 be 58 e6 fb bf f9 00 4d bf fc ea 31 bf
       -0.16356207 -1.967967 -0.8007961 -0.6949918
000190 52 fc 6f bf 3b 10 b5 bf 9a ba e3 bf 62 98 15 3f
       -0.93744385 -1.4145578 -1.7791321 0.5843564
0001a0 70 6a 9f be 0d 82 c2 be b3 cd b4 bf 2d 8c 6a 3f
       -0.31135893 -0.37989846 -1.4125274 0.9162014
0001b0 66 ce d9 bf 85 bd 38 be cf 29 f5 3e dc db 92 bf
       -1.7016113 -0.18041046 0.4788346 -1.1473346
0001c0 35 b9 30 bf 73 c7 4a 3f 04 5c 90 bf 26 5e 3f bf
       -0.69032604 0.79210585 -1.1278081 -0.74753034
0001d0 bb fb 6e bf dd 7d 72 bf 50 85 e9 bf 5a 11 8d bf
       -0.9335286 -0.947233 -1.8243809 -1.102092
0001e0 8f c6 83 3e 06 43 29 c0 28 43 fb bf 0e 91 84 bf
       0.25737426 -2.6447158 -1.962987 -1.0356767
0001f0 76 e5 70 bf c2 5d 8b bf dd 63 08 c0 00 2c 93 bf
       -0.9410013 -1.0887988 -2.1310952 -1.1497803
000200 29 64 33 bf 61 ef 84 be 69 82 5f 3f 36 7d 18 3f
       -0.7007471 -0.25963882 0.87308365 0.59566057
000210 ef 3e a4 bf 21 89 39 bf 33 4c 12 bf 33 f8 f7 be
       -1.2831706 -0.7247487 -0.5714752 -0.48431548
000220 73 52 85 bf e1 6b 6f 3f f5 96 20 3e 0a eb 0d c0
       -1.0415787 0.93523985 0.15682586 -2.2174706
000230 64 03 32 bf e2 27 13 be 53 9e 33 bd 80 2d a5 bf
       -0.69536424 -0.14370683 -0.04385216 -1.290451
000240 d6 b4 bd bf 50 9c d1 bf ef 12 4d bf b5 a4 e2 be
       -1.4820812 -1.6375828 -0.80107015 -0.44266286
000250 9e 3b 9c bf 4c 00 85 bf 84 6b b4 bf 29 92 ea bf
       -1.2205694 -1.0390716 -1.4095311 -1.8325855
000260 0a 91 49 c0 e4 76 c0 bf 8f 4f 21 bf 6f fe d2 bf
       -3.1494775 -1.5036283 -0.6301202 -1.6483897
000270 d7 33 af bf a4 04 ec 3d c5 4d 09 bf 5b bd 9f bf
       -1.3687695 0.11524323 -0.5363429 -1.2479662
000280 f3 9a a6 bf c9 af 87 bf cf a6 9e bf 84 dc 3f bf
       -1.3016037 -1.060052 -1.2394656 -0.74945855
000290 65 7c d7 bf 7f 65 da bf 82 88 bf 3d 36 6c bd bf
       -1.6834837 -1.7062224 0.09352209 -1.4798648
0002a0 92 27 82 bd 16 77 a0 3e 2c 13 61 bf 03 c0 c3 3e
       -0.06355204 0.31340855 -0.8791988 0.3823243
0002b0 49 27 a5 bf 9e 06 f7 bf 14 25 fb 3e 65 01 9f 3e
       -1.2902614 -1.9298894 0.49051726 0.3105575
0002c0 67 00 76 be 5c 98 01 bf 96 05 2a be cb 23 a9 bf
       -0.24023591 -0.50623107 -0.16603693 -1.3214048
0002d0 71 3d bc bf ff b2 67 3f b7 ae 6c bf c3 e7 12 bf
       -1.470625 0.905075 -0.92454094 -0.5738489
0002e0 ca 06 dd bf 7c 60 a4 bf ff 27 b9 bf a2 99 33 3f
       -1.7267697 -1.2841945 -1.4465331 0.701563
0002f0 3a 5a 00 bf 84 3a 82 bf c7 24 7e bf 3f 6d 85 be
       -0.50137675 -1.0174108 -0.9927487 -0.2605991
000300 5f 4b 51 bf a1 4d 2f be 36 e1 9c 3e 24 a9 1f bf
       -0.8175563 -0.17119457 0.30640572 -0.62367463
000310 41 03 5f 3f 2f 1d 12 bf 8b e4 bc bf bf b5 01 bf
       0.8711434 -0.5707578 -1.4757246 -0.5066795
000320 8a 9f 84 bf 93 4f c1 3e 91 c1 b9 bf cc 95 53 bf
       -1.0361187 0.37756023 -1.4512197 -0.82650447
000330 b5 e9 80 bf ad 9c ff bf ca 0a 04 3f 80 96 f9 bf
       -1.0071322 -1.9969689 0.5157896 -1.9499054
000340 69 c0 4c bf a4 75 f3 be 2f 9e 05 3f b6 b6 ba bf
       -0.79981095 -0.4755069 0.52194494 -1.4587009
000350 7d 7c 82 be d1 96 1b bf 74 87 5d bf 39 4f 87 bf
       -0.25485602 -0.60777 -0.8653481 -1.0571052
000360 2b fd 74 bf 14 e3 ca bf db 1c 18 bf 4b 6a 26 c0
       -0.95698804 -1.5850549 -0.5941903 -2.6002376
000370 d1 2c c4 bf 0d 42 f6 bf 9f be 44 3f 2e d0 bb bf
       -1.5326177 -1.9238907 0.76853365 -1.4672906
000380 93 57 7a bf b3 86 8f bf cc e3 83 bf e9 ef 49 bf
       -0.9778988 -1.1212982 -1.0303893 -0.788817
000390 30 86 1c c0 5f 1f f2 be b4 24 cc bf 97 eb 08 bf
       -2.4456902 -0.4728956 -1.5948701 -0.5348448
0003a0 a4 9e 91 bf 20 29 c6 bf da 78 dc bf 06 ea d8 bf
       -1.1376538 -1.54813 -1.7224381 -1.6946418
0003b0 b1 84 32 3f b8 55 c0 bf cd 6f 4e bd b9 6c e6 be
       0.6973372 -1.5026159 -0.05039959 -0.45004824
0003c0 26 08 5d be 38 4a 0e be 1b ee 2a 3f 0d 66 4f 3f
       -0.2158514 -0.138955 0.6676957 0.8101509
0003d0 bf ef 01 c0 41 12 72 3f 00 1c 51 3f 44 7a ca 3d
       -2.030258 0.94559103 0.8168335 0.098866016
0003e0 d8 86 fc bf 37 45 5e bf 0c ce dc bf 0a 1e f0 bf
       -1.9728651 -0.86824363 -1.725038 -1.8759167
0003f0 30 50 f5 bf 4d 59 86 3e 65 c6 e3 bf c4 a0 b0 bf
       -1.9165096 0.26240006 -1.779492 -1.3799062

weight f4 [256, 256]
000000 3b 9e 61 3d 0f 1e 67 bf 1b 2a 8e be 1f c2 98 be
       0.05508254 -0.9028024 -0.277665 -0.29835603
000010 13 80 3e bf c5 16 41 bf 16 fd db 3d ae 4d 5d be
       -0.74414176 -0.7542537 0.10741632 -0.21611664
000020 e6 15 a7 bf d7 f3 a9 bf c7 03 30 3f 6a 0d de 3e
       -1.3053558 -1.3277539 0.68755764 0.4336961
000030 fc 1a a5 bf 88 33 86 be d5 1c 8f bf ca ee cd be
       -1.289886 -0.2621119 -1.1180674 -0.40221244
000040 82 66 e1 bf c1 92 63 be 60 3a 19 bf 30 1b dc 3e
       -1.7609408 -0.22223951 -0.598547 0.42989492
000050 cd 60 10 3f e3 bf 22 3e c6 19 71 bf 11 4b 1a bf
       0.56397706 0.15893511 -0.9417995 -0.6027079
000060 aa 6f 77 be c2 24 bd be 6f 1b 08 bf 11 28 8a be
       -0.2416369 -0.36942106 -0.5316686 -0.26983693
000070 81 01 70 bf 76 d3 d6 be 23 58 c5 be 55 f3 01 3f
       -0.93752295 -0.41958207 -0.38543805 0.5076192
000080 bb d0 23 bf 7a 16 45 bf 90 6e cc 3e eb 2d 63 bf
       -0.6399037 -0.7698742 0.39928102 -0.8874194
000090 88 0d 1a bf af e1 97 be c2 16 5a be 36 ff 42 3e
       -0.601769 -0.2966437 -0.21297744 0.19042668
0000a0 11 a4 a4 3c 41 83 4a 3e 33 6f 6e bf 9a b9 96 3e
       0.020097764 0.19776632 -0.93138427 0.29438478
0000b0 91 3e e4 3d 79 d9 8d bd 4f 45 ba be 26 91 15 be
       0.11144746 -0.06926245 -0.36381003 -0.14606151
0000c0 a4 88 af bd 90 e5 ba be fb fe ed be 0d b8 5c be
       -0.08570984 -0.36503267 -0.46483597 -0.21554585
0000d0 66 58 fb 3e 57 82 30 bf 3b 46 2b 3f 0a 58 c1 be
       0.4909088 -0.6894888 0.6690404 -0.3776248
0000e0 4e b6 1c bf 1a 23 08 bf c4 26 85 be cf f1 dc bf
       -0.61215675 -0.5317856 -0.26006138 -1.7261294
0000f0 00 60 2d bf 8f ea 3f bf 34 f5 d1 3e df 14 2f bf
       -0.6772461 -0.74967283 0.41007388 -0.6839122
000100 8c 37 2e 3e f8 7c ea 3e e5 7e 34 bb d3 12 82 bd
       0.17013377 0.4579847 -0.0027541455 -0.06351247
000110 2b fb 04 3e eb 07 20 bf 41 5c 28 bd 53 30 d5 be
       0.12986438 -0.6251208 -0.041103605 -0.4163843
000120 4c 24 74 be c7 ff 1c 3f 4d dd 88 3e 20 69 2f 3e
       -0.23841971 0.61327785 0.2673134 0.17129946
000130 f8 8c 44 be 09 be 5e be b9 cc 2a bf b7 d1 f9 bd
       -0.191944 -0.2175218 -0.6671863 -0.12198203
000140 f1 9a 37 bf c0 7b 98 be 36 63 c2 bd 15 18 8c 3d
       -0.71720797 -0.29781914 -0.09491579 0.06840531
000150 2b 87 e4 be d6 5e c2 bd ae 05 eb 3e 69 7e 8c 3e
       -0.44634375 -0.09490745 0.4590277 0.27440193
000160 cc ec 95 3d 12 df fb bd b2 8e f1 3b 63 1c f2 be
       0.07320556 -0.12298407 0.007371747 -0.47287282
000170 75 32 f9 be 4e ae 6a bf a5 84 73 bf ce 01 25 bf
       -0.48671308 -0.9167222 -0.95124274 -0.6445588
000180 b0 64 7c bf c0 b0 08 bf 61 d9 54 3f b0 d2 4b be
       -0.98591137 -0.533947 0.83144194 -0.1990459
000190 b9 ff 81 bc 91 ba 19 3e 27 50 bb be f1 26 8e bf
       -0.015869008 0.15012576 -0.3658459 -1.1105634
0001a0 4a 70 e7 be f1 66 05 be c3 6c 89 be 87 3f 99 bd
       -0.45202857 -0.1302755 -0.2684079 -0.0748282
0001b0 42 63 d8 be 54 58 6c 3e dd 4f ba bf 5e 84 c1 be
       -0.42263228 0.2308057 -1.4555622 -0.377963
0001c0 3e 74 10 bf 56 21 3b 3c c9 87 0d c0 ec e2 2f bf
       -0.5642737 0.011421522 -2.2114127 -0.6870563
0001d0 95 57 8e be 69 34 ca bf e6 4f 8f bf b5 dd ce be
       -0.27801195 -1.5797244 -1.1196258 -0.40403524
0001e0 ce 7b 22 be 00 51 52 be 84 0d 2d be fb 15 a8 be
       -0.1586754 -0.20538712 -0.16899687 -0.3282927
0001f0 eb 54 06 bf c8 29 31 3f e0 7c cf be d8 53 d2 be
       -0.52473325 0.6920438 -0.4052496 -0.41079593
000200 17 99 1c bf 15 1c 37 bf cd 5a c9 3e 81 a6 6f bf
       -0.61171097 -0.71527225 0.39327088 -0.9361344
000210 ac dd 9a be cc 4a 41 bd 82 23 a9 be 8e 42 14 bf
       -0.30247247 -0.047190472 -0.33034903 -0.57914054
000220 b7 66 72 be 13 ec 6d bf 17 61 17 bf 57 b8 97 bf
       -0.23671995 -0.92938346 -0.5913252 -1.1853131
000230 5d 74 09 3e 3c d8 22 3d 4f 8e b0 3e 92 9e 2f bd
       0.13423295 0.039757 0.34483573 -0.042875834
000240 e9 8c 7d 3e 25 d9 8a 3f 3f de 50 3f 68 4c 06 be
       0.24760784 1.0847517 0.8158912 -0.13115084
000250 10 96 d2 be 1c e0 04 be 6c d4 67 be 74 07 56 be
       -0.41130114 -0.12976116 -0.22639626 -0.2090128
000260 c1 ff 80 be 3a 8a ac bf 72 89 25 be ee 5a 87 3d
       -0.25195125 -1.3479683 -0.16165712 0.0660914
000270 85 bb 34 3f 2d a1 09 bf 59 5a 56 bf fa 20 d3 3e
       0.7059863 -0.5376156 -0.8373161 0.41236097
000280 3c 14 bd be d9 4b db be ee 78 82 3d 5e 90 a9 be
       -0.369295 -0.42831305 0.06370722 -0.33117956
000290 69 f2 12 3f 69 da 72 bf 43 fb 23 bf 02 c1 28 3e
       0.5740114 -0.9486452 -0.6405527 0.16479877
0002a0 30 1f 4d bf 97 0f 9c bf b8 94 39 bf f5 4b cb be
       -0.80125713 -1.2192258 -0.7249255 -0.39706388
0002b0 2d 7e 3f 3e 07 70 7d bf 1a a3 04 bf 29 d6 14 bf
       0.18700476 -0.98999065 -0.51811373 -0.5813928
0002c0 50 65 97 bf 73 1e df bf 76 df fa be 54 83 6c 3d
       -1.1827793 -1.7431167 -0.48998612 0.05774243
0002d0 28 0d e4 be 6d ff 0e 3e a2 fb 13 be c6 11 96 bf
       -0.44541287 0.13964625 -0.14451459 -1.1724174
0002e0 e5 c7 81 bf d1 dd ec be 67 f9 80 be f2 bf 92 bf
       -1.0139128 -0.46262982 -0.2519028 -1.1464827
0002f0 11 c0 23 be 89 83 95 bf bf 46 b4 3c 6e 4d c0 be
       -0.15991236 -1.1680766 0.02200639 -0.37559074
000300 1d 0c 9a bf 8e cd ef bd 67 a5 89 3e 72 11 78 3f
       -1.2034947 -0.11709128 0.26884004 0.9690162
000310 5f 0e 0f be 99 eb 00 3f 10 81 11 bf 73 9d 1e bf
       -0.13970326 0.50359493 -0.5683756 -0.61959
000320 65 f5 6b be 5b e2 3e bf 5f 71 82 bf a5 02 1d bf
       -0.2304283 -0.7456414 -1.0190848 -0.6133216
000330 3a 5e c2 be 9f 49 4a bf 04 90 10 bf 3a 79 5c 3f
       -0.37962514 -0.79018587 -0.5646975 0.8612248
000340 19 22 3d bf c3 38 09 bf 67 cd 99 3e fd 60 19 be
       -0.73880154 -0.53602237 0.30039522 -0.14978404
000350 49 de c3 3e 1d d2 3d bf 4d 45 ac 3e 5f 43 b1 3e
       0.38255528 -0.7414873 0.33646622 0.34621713
000360 52 1b ed be ad 72 60 3f de ae 31 3d 6f 2a 80 bf
       -0.46309906 0.8767498 0.043379657 -1.001295
000370 97 f8 a3 be 0c 35 3e bd 26 fe 2f bf 63 c6 b2 bd
       -0.32025596 -0.04643731 -0.68747175 -0.087292455
000380 e3 5e 50 be 69 0b ea be 75 82 7b 3e 8f 60 0c be
       -0.20348696 -0.4571183 0.24561484 -0.13708709
000390 c2 db af bf de 76 7e bf ec ea 5d be d2 e8 e1 3e
       -1.373894 -0.99400127 -0.21671647 0.4412294
0003a0 96 e5 87 bf bb b7 2d 3f 93 f9 f9 bb 72 99 a3 3e
       -1.0616939 0.67858475 -0.0076286285 0.31953007
0003b0 21 2d e3 be 5a 1d 48 bd 36 44 96 bd 4e cf c4 be
       -0.44370368 -0.048856117 -0.07337229 -0.3843941
0003c0 ed 43 64 bf dd 7d 98 bc 6c 62 c9 3d 59 87 cb be
       -0.89166147 -0.018614704 0.098332256 -0.397517
0003d0 c0 cc 59 bf c4 a8 58 3e 57 0c 29 bf f2 16 32 bf
       -0.8507805 0.21158129 -0.66034454 -0.6956626
0003e0 cd 2d 4c 3e b0 47 b2 3e 42 a7 b7 bd bd f4 8b bf
       0.19939347 0.34820318 -0.08967449 -1.0934063
0003f0 18 2b ac 3e 2c 84 b6 3e 9b 2c 90 bf c6 7c c6 3e
       0.33626628 0.35647714 -1.1263613 0.3876707

bias f4 [256]
000000 f4 3a 8e bf bc 49 66 bf 31 dd b2 bf 60 12 4b 3e
       -1.1111741 -0.8995626 -1.3973752 0.19831228
000010 ed 57 77 be d9 9f 1e 3d d7 7f 37 3e 0d 57 29 bf
       -0.24154635 0.03872666 0.17919861 -0.66148454
000020 cf 92 ed bd d1 1a 8b bf ae 92 45 bf 54 16 96 3f
       -0.11600267 -1.0867559 -0.7717694 1.1725564
000030 f5 90 62 bf 7f 14 9b bf a8 1d 8d be d0 52 7e bf
       -0.88502437 -1.211563 -0.27561688 -0.9934511
000040 6e f3 c3 bf 14 97 a2 bf 8c 29 93 bf 77 51 50 bf
       -1.5308664 -1.2702355 -1.1497054 -0.81374305
000050 a2 2e 5a bf 1d 06 7e be fa 23 30 c0 33 c8 6a be
       -0.85227406 -0.2480702 -2.7521958 -0.22927932
000060 1a 51 7a bf 32 e1 3e bf 05 02 c0 bd d6 79 b4 bf
       -0.9778 -0.7456237 -0.09375385 -1.4099681
000070 84 b1 9c bf 6c 61 10 3f d5 04 a8 be 60 d1 63 bf
       -1.2241673 0.56398654 -0.32816187 -0.88991356
000080 32 00 bf be f5 34 a0 3e fd ff ec 3e 39 5d 68 bf
       -0.37304837 0.31290403 0.46289054 -0.90767246
000090 95 8b a2 bf b7 c4 80 bd 09 92 b1 bd 88 3b f0 be
       -1.2698847 -0.062875204 -0.08670432 -0.4692042
0000a0 db 8a a2 be 28 5d c8 bf 9d 02 4b bf b1 74 8d bf
       -0.31746563 -1.5653429 -0.7930086 -1.1051236
0000b0 03 52 b9 bf f5 25 d4 be 3c a5 05 bf 94 b1 1f bf
       -1.4478153 -0.4143521 -0.5220525 -0.6238034
0000c0 9c 14 92 bf f9 70 bc be 80 f1 1e bf 24 e6 2b be
       -1.141254 -0.3680494 -0.6208725 -0.1678701
0000d0 19 8a f4 bf bd ea 2f 3e 86 61 7c bf 76 d7 b3 bd
       -1.9104644 0.1717939 -0.9858631 -0.0878133
0000e0 b3 82 46 be 47 ac 83 be ce 91 d8 bf 66 a9 02 bc
       -0.19385795 -0.25717375 -1.6919496 -0.007974958
0000f0 65 1e 0b 3e 47 8e 5c bf a3 90 8b be 86 f5 9e be
       0.13585813 -0.861546 -0.27258787 -0.31046695
000100 2e 1c 81 bf 63 db 09 bf ea 63 80 bf 55 2b 66 bf
       -1.0086725 -0.5385038 -1.0030491 -0.8990987
000110 ab 5e ee be 82 9d df 3f a0 2d 0a bf 34 2e 71 bf
       -0.465566 1.7469943 -0.5397587 -0.94211125
000120 ed 37 82 be 31 4d 22 bf ba 99 da bf 58 ff fe bf
       -0.25433293 -0.63399035 -1.7078164 -1.9921675
000130 3e 2f 05 bf bf 51 04 be 18 bf f8 be e6 db dd 3e
       -0.5202521 -0.12921809 -0.48583293 0.43331832
000140 12 29 71 bf e2 b1 a7 bf 11 ea b5 be 6a 56 55 bf
       -0.94203293 -1.310116 -0.3553014 -0.8333498
000150 59 ca 8d be 1b 86 a6 bf f9 0d 16 bf ee 52 ed be
       -0.27693442 -1.3009676 -0.5861507 -0.46352333
000160 31 df 3f bf 93 67 bc be 4d 40 db bf 3d 59 b5 bd
       -0.7494994 -0.3679777 -1.7128998 -0.088549115
000170 e2 ce f7 3f 2a 3f a3 be 54 a0 b7 bd 4c 12 6e bf
       1.9360011 -0.31884128 -0.08966127 -0.9299667
000180 a1 cb 5a 3f 7a e0 b3 bf aa 53 10 bf 73 69 5d bf
       0.85466963 -1.405288 -0.5637766 -0.8648903
000190 4f 6d 88 bf 00 a3 75 bf fe a8 33 bf 50 e0 7f bf
       -1.0658358 -0.95951843 -0.70179737 -0.9995165
0001a0 bd af 8e bf 51 c5 b6 bf c0 b8 96 3f de 7f 87 be
       -1.1147381 -1.4278966 1.1775131 -0.26464742
0001b0 5c 6f f1 be 0e b6 8e bf 76 e0 2c c0 db ac b5 be
       -0.47155273 -1.1149309 -2.7012 -0.3548344
0001c0 45 ae 24 40 47 f0 29 3f 1b e8 2a c0 b7 95 24 bf
       2.5731366 0.6638226 -2.6704166 -0.64290947
0001d0 06 b8 e2 bf cb ee 8d be 64 f1 9d bf 3d c3 b9 be
       -1.771241 -0.27721247 -1.2339292 -0.36281767
0001e0 aa 08 9c bd 1d ae a6 3f 31 d5 bd 3f e9 71 6e bf
       -0.0761884 1.3021885 1.4830686 -0.93142563
0001f0 c0 c6 a1 bf 41 66 0f 40 6f 67 54 bf 4d 25 06 bf
       -1.2638779 2.240616 -0.8297033 -0.52400666
000200 5b 26 f4 bf 8e 71 89 bd 9e 96 3b 40 86 c2 1b bf
       -1.9074205 -0.06711112 2.931068 -0.60843694
000210 53 25 e3 be ec 23 1e 3f 29 ce 54 bf ee 29 72 bf
       -0.44364414 0.6177356 -0.83127075 -0.9459523
000220 1e 6b 69 3f b1 02 95 3e 4a f5 81 be 7d 00 90 bf
       0.9117907 0.29103616 -0.25382453 -1.1250149
000230 33 a9 26 bf 94 36 b8 bd 23 52 99 ba c1 13 1e 3f
       -0.6510193 -0.08994785 -0.0011697452 0.6174889
000240 bd 13 e7 bf ef 60 61 bf b4 dc 49 bf e2 e9 4d bf
       -1.8052899 -0.88038534 -0.7885239 -0.80435
000250 15 a6 6a 3f c8 6c dc 3e 49 9d 2d bf ad 0a 3c bf
       0.9165967 0.43051744 -0.67818123 -0.7345379
000260 5b 95 b2 be 41 19 21 bd 4c 1d bc be df df 6d bc
       -0.34879574 -0.039330725 -0.36741102 -0.014518707
000270 05 59 be be f3 ea c8 bd 0b 20 f5 be bf 87 66 bf
       -0.37177292 -0.09810438 -0.4787601 -0.9005088
000280 ba 7f 6b bf 48 b7 40 bf a0 64 68 bf a4 4e 00 c0
       -0.9199177 -0.75279665 -0.9077854 -2.0047998
000290 04 2e 94 bf 30 b5 c8 bf 56 95 ac bf d6 1f 29 bd
       -1.1576543 -1.5680294 -1.3483074 -0.041290127
0002a0 c2 c0 1b bf 37 06 e4 be 38 c7 ad be d4 28 15 bc
       -0.60841 -0.44535992 -0.33941054 -0.009103972
0002b0 b6 cd d7 bf 8e d4 4a be f7 d3 42 bf 50 42 07 bf
       -1.6859653 -0.19807646 -0.7610468 -0.5283556
0002c0 e3 f1 5b bf e6 0a 17 bf 5f b8 6d bf 78 a1 43 bf
       -0.85915965 -0.59001005 -0.9285945 -0.76418257
0002d0 e7 a2 4a bf f2 bf 06 bf c2 f3 73 3c 7c d0 4a bf
       -0.7915482 -0.52636635 0.014889659 -0.7922437
0002e0 6e b1 a5 bf 97 f0 b3 3d 67 7f 12 3e 68 0f 9e 3d
       -1.2944772 0.08786123 0.14306413 0.07717782
0002f0 64 11 7d bf 29 0a 8d bf 46 f0 f3 be eb 56 59 be
       -0.9885466 -1.1018726 -0.47644252 -0.21224563
000300 0f 09 97 bf 21 09 c2 bd 60 89 72 bf f4 e0 5d bf
       -1.179964 -0.094743975 -0.9474087 -0.86671376
000310 f2 96 9b bf e6 21 b0 be f6 7e 28 bf 3c 93 fa bf
       -1.215544 -0.34400862 -0.65818727 -1.9576182
000320 3a bb 9b 3d ae f4 8c bf e7 72 31 bf 02 a3 f1 bd
       0.0760407 -1.101217 -0.6931595 -0.117986694
000330 59 4f c4 bf d8 f4 33 bf 2c a3 05 be b7 70 90 bf
       -1.5336715 -0.70295477 -0.13050526 -1.1284398
000340 e8 9e 6f bf 3f b1 98 bf 9c e9 b4 be 9a 13 4b bf
       -0.93601847 -1.1929091 -0.3533448 -0.79326785
000350 b7 6e 12 bf b1 d4 a9 bf 5a cb b0 bf 17 7f 30 3e
       -0.5720019 -1.3268033 -1.3812058 0.17235981
000360 08 b7 0a c0 e4 58 0c bf 43 f1 48 3f 21 45 1a bf
       -2.1674213 -0.54823136 0.78493136 -0.6026173
000370 92 ff d3 bf 82 01 4c bd f6 41 fc bf 0a 23 d4 be
       -1.6562369 -0.049806125 -1.970763 -0.41432983
000380 95 c7 3a bf 5c 3f 8e bf 25 91 f5 3d e0 16 41 be
       -0.7296079 -1.1113086 0.11990575 -0.18856382
000390 19 ad 10 bf 12 bd 96 bf 97 57 d4 bf 00 29 80 be
       -0.56514126 -1.177645 -1.658923 -0.2503128
0003a0 1e 55 7c bd 95 ac 41 bf c3 bf 84 bf 1b 8b dd bf
       -0.06160461 -0.75653964 -1.0371021 -1.7308077
0003b0 cb ca 63 bd bd 33 12 c0 9a 24 b4 be 09 cc a4 bf
       -0.05561332 -2.2844079 -0.35184175 -1.2874767
0003c0 5d 40 74 bf a9 a5 20 c0 3a 70 3b bf 7c fd a8 bf
       -0.9541071 -2.510111 -0.7321812 -1.3202357
0003d0 1d b6 b8 3e 21 0b 8e be d5 a1 d0 be c2 35 d1 be
       0.3607644 -0.27742866 -0.40748468 -0.40861326
0003e0 34 e5 d9 bf 3f 12 0f 3e c8 62 c1 be 10 44 92 bf
       -1.7023072 0.13971804 -0.37770677 -1.1427021
0003f0 e5 96 7b bf 3a e6 89 bf 57 fe 8a bf 70 e0 bb be
       -0.9827712 -1.0773385 -1.0858868 -0.3669467

weight f4 [8, 256]
000000 0b ff 01 bf 0f 55 a9 bf 0c 9a 32 be de fc d4 3c
       -0.5077979 -1.3229083 -0.17441577 0.025999483
000010 f3 f9 8f 3b 51 d8 c1 3d 35 4a 4d 3f 69 a4 94 be
       0.00439381 0.09465087 0.80191356 -0.29031685
000020 92 f6 d9 bc c3 92 fe 3e fc 2b 05 3c f8 20 a0 bc
       -0.026606832 0.49721345 0.0081281625 -0.01954697
000030 b1 09 c7 3d 5d 14 9b 3e ad c4 f5 3f 3b 85 5f 3d
       0.09718645 0.30288973 1.9200646 0.054570418
000040 65 1b 53 3f 54 36 59 be f0 b1 c7 bd 53 eb 8f 3d
       0.82463676 -0.21212131 -0.09750736 0.070273064
000050 c2 21 91 bf 52 36 99 bc 93 7a 99 bc 1a ab ce 3d
       -1.1338427 -0.01870266 -0.018735206 0.10091229
000060 65 e5 99 3d b5 fd 09 c0 d2 70 3e 3c ce 27 36 c0
       0.07514457 -2.15611 0.011623578 -2.8461795
000070 01 51 9d 3d 4f c5 96 be de be 9a 3e d0 01 86 be
       0.07681466 -0.2944741 0.30223745 -0.26173258
000080 7b fa e9 3f e8 3e 22 3e 52 61 31 3f 2b 03 2b bf
       1.8279566 0.1584431 0.69289124 -0.6680171
000090 16 17 11 40 1d 02 2a b9 cd 45 08 3d 99 64 18 be
       2.267034 -0.0001621325 0.033269692 -0.14882125
0000a0 8e a0 77 bf c3 2a 90 bc 46 5e 04 be 26 42 ce 3d
       -0.9672936 -0.017598515 -0.12926587 0.100712106
0000b0 7c 6b a2 3f 03 65 e0 3e 34 d3 3f bf 94 4b 93 3f
       1.2689052 0.43827066 -0.74931645 1.150744
0000c0 7e c6 a2 be 31 ca 23 be 97 66 68 3e 3c 95 58 be
       -0.31792063 -0.15995099 0.22695385 -0.21150678
0000d0 3b 84 82 bf cf 55 83 bd bb f7 90 bf db f3 aa bc
       -1.0196604 -0.06412851 -1.1325601 -0.020868232
0000e0 e4 22 8f bf 6e 67 29 3d b2 59 85 40 85 e1 9b 3f
       -1.1182523 0.041358404 4.167199 1.2178198
0000f0 76 34 ea bd 80 cc 1b bf ba 97 c9 be 5b 80 4d 3d
       -0.114357874 -0.6085892 -0.3937357 0.050171237
000100 ce ab 58 bb 31 10 2e 3e b0 9c ce 3d 0d 07 b5 3c
       -0.0033061388 0.16998364 0.100884795 0.022098089
000110 54 65 29 bf 47 92 43 3b 86 28 68 3e 40 6d 63 be
       -0.6617024 0.0029841827 0.22671708 -0.22209644
000120 7c b2 de 3d c4 f2 a7 be fe f8 be be 59 67 32 3d
       0.10873887 -0.32802403 -0.3729934 0.04355559
000130 04 b9 6f bf 3b 6b 99 3d 11 a9 9f bd 7f 83 45 3f
       -0.93641686 0.07491156 -0.07795919 0.7715377
000140 a8 e0 66 40 b7 e2 4d 3f a7 0d 68 3d 1e bc f0 3d
       3.607462 0.80424064 0.056653645 0.117546305
000150 ff 23 0e bf ee f2 80 3e aa 02 96 3d fe a5 88 3e
       -0.55523676 0.2518534 0.07324727 0.26689142
000160 5f c2 41 be d3 cb 2a bf 6e 9d 99 3f 85 3d 75 bb
       -0.18921803 -0.6671726 1.2001169 -0.0037420702
000170 88 a4 e7 3c 7f b3 37 be ed b6 8f 3d ec b6 ba 3d
       0.028276697 -0.17939566 0.07017312 0.09116921
000180 64 66 a2 bd 75 d1 bc 3e 03 58 91 bc fa 5d 2c 40
       -0.07929686 0.36878553 -0.017742163 2.6932359
000190 27 ed d9 3c 19 bb 9b 3d ae 7c ce 3f e0 7b 81 3f
       0.02660234 0.076040454 1.6131799 1.0115929
0001a0 aa f1 2a 3e cc 86 ee bd dc 77 10 3c 78 cc 65 3e
       0.1669375 -0.11646804 0.008817639 0.2244128
0001b0 95 0b 27 3d e3 d7 81 be 6c 5b bb 3d 5d f9 9f bd
       0.04078253 -0.2536002 0.09148297 -0.07811234
0001c0 07 a6 20 be 09 4a da 3d 8c 33 e9 3f e8 78 d3 3d
       -0.15688334 0.10658652 1.8218856 0.103257954
0001d0 14 69 6e 3f ad 91 90 3d c0 0d 9b bf 1e a0 7e 3d
       0.93129086 0.070590355 -1.2113571 0.06216442
0001e0 5b 8e 76 bf c6 dc 7d bd 86 64 5b 3c 75 6c d7 bd
       -0.9631097 -0.061978124 0.013390666 -0.105187334
0001f0 e5 31 b9 be c3 e1 0c 3d 4f 19 d8 3e a9 30 65 be
       -0.3617088 0.03439499 0.4220681 -0.22381844
000200 2e 3e 22 be ae 3a 4d bf 46 63 b2 bd 85 1c c5 bd
       -0.15844032 -0.80167663 -0.08710341 -0.0962458
000210 10 1e f6 3a ba f5 c1 bc 6f 72 11 be f2 49 bb bf
       0.001877727 -0.023676742 -0.14203809 -1.4631941
000220 0a 25 09 3d 37 94 06 3c b8 93 97 bf a8 fd 81 bc
       0.03348259 0.008214048 -1.1841955 -0.015868023
000230 b4 db 51 bf c5 42 4b 3d b3 b1 12 3f c8 50 ce bd
       -0.81975865 0.049624223 0.573024 -0.100740016
000240 bd 43 30 bf ea 75 14 bf ad 65 e5 3d 27 21 6d 3d
       -0.6885336 -0.5799242 0.11201034 0.057892945
000250 3a cd d4 bf 0d 5c 65 be 47 0e 6a 40 4e 22 bd 3d
       -1.662513 -0.22398396 3.6571214 0.09235059
000260 96 f2 87 bc 27 68 73 3c 0b 70 f9 3e 71 65 52 be
       -0.016595166 0.014856375 0.48718295 -0.2054651
000270 55 ee b2 3c f4 dc b1 3c 93 1b a8 3e 1c 6d 25 bd
       0.021842161 0.021711804 0.32833537 -0.040387258
000280 87 e9 d3 3d 07 45 46 3e 2c 8f 86 bd 07 4a 32 3e
       0.10347276 0.1936227 -0.065702766 0.17411052
000290 a6 5c 23 bd 01 6b 48 be 27 a7 a9 3e a7 ce 3e bf
       -0.03988328 -0.19572069 0.3313534 -0.74534076
0002a0 4d 1b 83 c0 4d 77 1d be 9d 0b 43 3e 48 f2 3d be
       -4.0970826 -0.15377541 0.19047399 -0.18549454
0002b0 e4 68 ab 3f 10 ed 99 be b5 c7 19 3e 31 7a d5 bd
       1.3391385 -0.30063677 0.15017588 -0.10423697
0002c0 64 bd 0f bc 89 2e 26 be 23 77 98 bd 16 11 e3 3e
       -0.008773182 -0.16228689 -0.074445985 0.44348973
0002d0 ba 81 f7 bd 19 cd 21 3d fb f9 77 3e a9 04 35 3e
       -0.1208529 0.039502237 0.24216454 0.17677559
0002e0 f9 a2 97 3d 40 26 02 bf ac 28 77 bc ae f8 49 bf
       0.074041314 -0.50839615 -0.0150853805 -0.7889508
0002f0 93 e5 da bd 28 a4 56 3c b9 a3 a7 bf 75 ba a2 3e
       -0.10688319 0.013100661 -1.3096839 0.3178288
000300 04 99 99 be 65 d9 44 bd 7a af 86 bc 93 e6 6c bd
       -0.29999554 -0.048058886 -0.016441096 -0.05783708
000310 58 0a dd bd 3a d0 5b be e4 08 69 3e 1d fd 40 3f
       -0.107929885 -0.21466151 0.22757298 0.7538622
000320 8d ed 8c 3c f5 97 60 3e a2 01 1c 40 fc 87 84 3d
       0.017203117 0.21932967 2.4375997 0.064712495
000330 50 7f 24 be 71 33 9e 3e 66 38 00 3e b5 4c dc 3e
       -0.16064191 0.30898622 0.12521514 0.43027273
000340 e9 c8 4d be c9 9d be bb 84 b2 e3 be ff 7b b4 3e
       -0.20096172 -0.0058171493 -0.44472134 0.35250852
000350 02 46 a3 bb ab f0 6a bf 3b 12 b8 3e 8c 10 4c bf
       -0.004982711 -0.9177348 0.3595141 -0.7971275
000360 26 ed ff 3f af 83 48 3f 02 3b 4e 3d a6 2f 02 bf
       1.9994247 0.78325933 0.050349243 -0.50853956
000370 13 85 4d 40 2a 31 31 bd ad 76 7d 3c 05 57 23 be
       3.2112472 -0.043259777 0.015470189 -0.15951164
000380 c3 e5 ae bf da ff 97 3e 85 00 8c bd 5f fa 45 3d
       -1.3663868 0.29687387 -0.068360366 0.048334476
000390 ae 6d c4 bd 64 05 96 bf fa a8 6d 40 83 f6 8f 3e
       -0.09591232 -1.1720395 3.7134385 0.2811776
0003a0 62 c4 7d 3c 52 3c 83 3f dd c3 dc 3e 85 67 39 3c
       0.015488716 1.0252783 0.43118182 0.011316185
0003b0 1a ee f9 be ac 58 24 bd 18 07 ef 3c 20 0d d8 be
       -0.4881447 -0.040123627 0.029178187 -0.42197514
0003c0 22 2c 15 3e 1c a3 3c 40 ef 8a 88 bf 37 8f 99 3f
       0.14567617 2.9474554 -1.0667399 1.1996831
0003d0 6d 61 f1 3f 42 03 9a 3c 45 ab e8 be ac 93 c3 3c
       1.8857857 0.018800382 -0.45443168 0.023874126
0003e0 33 19 8f 3e 9d 41 ba bb 4c 9a f5 bf 08 5f 49 be
       0.27948913 -0.0056840912 -1.9187713 -0.19665158
0003f0 b0 38 68 bf 0b e6 1f bf 94 d3 05 bf db f4 a7 be
       -0.907115 -0.6246039 -0.5227597 -0.32803997

bias f4 [8]
000000 d3 a7 c6 3e 3e 09 85 3f 28 bb 6a be 6d f7 4e 3e
       0.38799915 1.0393445 -0.22922957 0.20211573
000010 b7 23 a8 be b1 9e 99 bd 11 53 41 3f 6b 44 f2 be
       -0.32839748 -0.07500971 0.75517374 -0.47317824
